api/home_price_model_zonda.pth (torch, 255909 bytes, 7 tensors)

weight f4 [2752, 5]
00000000: 3d68 b9c0 f759 7540 aa32 c0c0 1fb6 22c1
00000010: 5638 f1bf a9a9 8cbe 1041 4ac0 7326 65bf
00000020: cc42 d940 7616 0cc1 ef3c 4041 4809 88c0
00000030: ebe0 1741 aeef de40 b1c2 f9c0 123d 0b40
00000040: 00ca b5bf 0ea8 8b3f 3994 4140 3ad0 0b40
00000050: 5347 e4c0 5796 5c40 bcef f9c0 52f3 d7c0
00000060: b2c5 9dbf 538d 8740 d8b5 203e aef1 1140
00000070: 0b97 1b3f c569 16c0 3ca6 f3bf 6698 66c0
00000080: bbb5 8bc1 2f17 7541 99d0 83c1 d2df 7141
00000090: 746a 58c1 481b ad3f d32e 7d41 b1c2 4ec1
000000a0: 7578 fac0 da7f 9ac0 21aa 36c1 48a1 0cc0
000000b0: 2705 21c0 febd fc3f 25f5 2b3d db2a 8bbc
000000c0: e50a 35be f2c3 33c0 0440 c5bf 02cc d2c0
000000d0: 76a7 4ac1 22a1 8740 ed05 8ac0 452b 3f41
000000e0: ae0d 44c1 b9e2 4d41 0067 4241 8b05 2ec1
000000f0: c871 b03f 5eaf cabf 9e01 9fbe c8f7 1dbc
00000100: 3336 1abc d3e8 c640 f2a1 9ac0 5bb1 bb40
00000110: d141 6c40 160e 22c1 99c5 bfbf 5bc8 96c0
00000120: 4f3c c9bd d2f0 8540 ec3b f8c0 64ed 81c1
00000130: 2030 1e41 7c4d 5fc1 53f3 063f 9903 a540
00000140: ca50 413f a71e 0ac0 a97c 9d3f 3cee 8440
00000150: 45ba c5bf 9beb 40bf d28e b9bf fcec ad3f
00000160: c6d3 8640 ed8f 8fc0 0ff1 5f41 b092 0a41
00000170: 1947 07c2 c9d4 dd40 9ea5 533f 1b6b aa3f
00000180: cdaf 59c0 ed83 4140 0165 303f bdcf f1c0
00000190: aa2d 0a41 2e30 1dc1 ca9c c040 820c 3141
000001a0: 03bf f8c0 4b04 0e3f 6a27 a7bf c977 3ebe
000001b0: 281f b1bf b89f 42c0 d3a9 55be 7a28 f1c0
000001c0: 62c5 623e 4678 e4c0 0521 ddc0 74f6 1f40
000001d0: ce46 0ac0 b91e 27c1 b124 3c40 56c1 65c0
000001e0: 4a55 c1c0 a0b3 c940 787e 07c1 9c82 1bc1
000001f0: 32bc 20c1 a97e aa40 7f28 cfc0 2f73 bc40
00000200: 2a76 bb40 14d4 b1c0 19d7 8dc0 94ae 8840
00000210: 9489 18c0 ce40 0bc0 90bc 3a41 f302 533f
00000220: 1f46 3ac0 8408 12bf d370 ed40 e0df 8bc1
00000230: f418 b740 30af aec0 d3e9 c440 64bd c840
00000240: b6a5 c5c0 2d18 0a41 4fde c2c0 0603 2141
00000250: 744c d340 76c0 d83f 3d1f 8b40 ee0f ffc0
00000260: e2a0 04c0 f7a3 e640 fbe0 06c1 b292 f0c0
00000270: 38d8 a440 fe0d 06c1 c0ea c9c0 1a59 3ec0
00000280: f0e5 a941 a348 b5c0 7b19 9f41 db4c 22c0
00000290: 3870 0f40 3b09 61c0 4639 4440 91bb 65c0
000002a0: 081f 22c0 a36c f73f d055 12c1 7dc1 9540
000002b0: 88a6 20c1 1127 1ac0 d767 533f 6670 f13f
000002c0: 862b a3be 47af 34bf a28f 9b3e 9652 ccbe
000002d0: da07 9abf fcd4 763e 664c 35c0 eb0d a0be
000002e0: 0f97 25be deff e53e faef 36c0 4a33 20c1
000002f0: d878 41c0 87ef 7ec0 8cee f240 eac0 cb40
00000300: 63a1 afc1 3138 b440 a3ab 0941 b1de a340
00000310: 5c79 fac0 0679 7140 851a 3c41 5838 23c1
00000320: 2210 9a40 8583 0dc1 f04e c940 6ab3 f740
00000330: 8e84 28c1 d9c3 c4c0 55f3 ffbf 770d 1ac1
00000340: f3c2 f03f 127c d6c0 c58e fb3e 49c2 073e
00000350: c568 d6be 16e7 17bf f317 d1bf d02e 5a41
00000360: d30c 16c1 13d6 7f41 ed01 8741 6013 6ac1
00000370: bb1f f8be 24b1 f640 2abb e6c0 e8ab 043f
00000380: 942e 3f40 747e ecbf 9c7a 37bf 6c3c a740
00000390: e715 f640 1e1a 11c1 d6a7 91c1 6c9e 3cc0
000003a0: c5ce 48c0 6851 f93f 20f4 39c1 c541 bd3f
000003b0: 766a eabf 9ae1 d53f 2741 0940 7470 e8bf
000003c0: 80e8 1e40 f3c8 48c0 70e1 2c40 53db 7340
000003d0: a5cc 2bc0 dc1c 3ec1 8b10 bbc0 4c8a 2bc1
000003e0: a03e 063f 20ab 40c0 6adf 1ac1 8b77 82c0
000003f0: f458 8ac0 cc78 e340 1dd6 b9c0 3c19 a140
-5.7939744 3.833616 -6.0061846 -10.169463 -1.8845317 -0.2747319 -3.160221 -0.89511794
6.789404 -8.755484 12.014876 -4.251133 9.492412 6.966758 -7.805016 2.1756024
-1.420227 1.0910661 3.0246718 2.1845841 -7.1337066 3.446676 -7.8105145 -6.748452
-1.2325957 4.2360015 0.15694368 2.280376 0.6077735 -2.3502057 -1.9035106 -3.6030517
-17.463736 15.31816 -16.476854 15.117144 -13.52599 1.352395 15.823932 -12.922532
-7.827204 -4.828107 -11.416535 -2.1973438 -2.5159395 1.9745481 0.041981835 -0.016988209
-0.17679937 -2.8088346 -1.5410161 -6.5874033 -12.665884 4.2384195 -4.3132234 11.948064
-12.25334 12.867852 12.1501465 -10.876353 1.3784723 -1.5834768 -0.3105592 -0.009641595
-0.009412336 6.215921 -4.8322687 5.8654 3.691517 -10.128439 -1.4982177 -4.7119575
-0.09825956 4.185647 -7.7573147 -16.240913 9.886749 -13.956417 0.52715033 5.156689
0.755139 -2.1581209 1.2303668 4.1540813 -1.544747 -0.75359505 -1.449671 1.3587947
4.2133512 -4.486319 13.996352 8.660812 -33.81943 6.9322248 0.82674587 1.3313936
-3.401355 3.023677 0.6890412 -7.5566087 8.636148 -9.824263 6.0191393 11.065554
-7.773317 0.554753 -1.3058903 -0.18600382 -1.3837633 -3.0409985 -0.20865564 -7.536191
0.22145608 -7.139682 -6.9102807 2.4994173 -2.1605716 -10.445001 2.9397395 -3.5899253
-6.0416613 6.303177 -8.468376 -9.719387 -10.045946 5.3279614 -6.4736934 5.8890605
5.8581743 -5.5571384 -4.432507 4.271311 -2.383397 -2.1758304 11.671036 0.82426375
-2.9105299 -0.57044244 7.4200225 -17.484314 5.721796 -5.458885 6.153543 6.273119
-6.1764784 8.630902 -6.0896373 10.063238 6.6030827 1.6933734 4.3475633 -7.9706945
-2.0723195 7.2075152 -8.429927 -7.517907 5.151394 -8.378416 -6.309906 -2.9741883
21.237274 -5.665117 19.887442 -2.535941 2.2412243 -3.5161884 3.0659957 -3.5895731
-2.533144 1.9330028 -9.14595 4.679869 -10.040657 -2.4086344 0.8258032 1.8862426
-0.31869143 -0.7057995 0.3038302 -0.39906758 -1.2033646 0.24104685 -2.832788 -0.3126062
-0.16170906 0.44921774 -2.858397 -10.012522 -3.0230007 -3.9833696 7.5916195 6.367299
-21.953802 5.6318593 8.6044035 5.120934 -7.8273144 3.7730117 11.7564745 -10.201256
4.8144693 -8.844609 6.290886 7.740651 -10.532362 -6.148907 -1.9996134 -9.628287
1.8809494 -6.7026453 0.49132362 0.13257708 -0.41876808 -0.59336984 -1.6335434 13.636429
-9.378131 15.989764 16.87594 -14.62973 -0.48461708 7.7091236 -7.210347 0.5182481
2.987218 -1.847609 -0.7167146 5.2261257 7.6901736 -9.068876 -18.206951 -2.9471693
-3.1376202 1.9477968 -11.622101 1.4785696 -1.8313739 1.6709473 2.1446016 -1.8159318
2.4829407 -3.137265 2.7012596 3.8102615 -2.6843655 -11.882046 -5.8457694 -10.721264
0.5243931 -3.0104446 -9.679544 -4.0770926 -4.3233585 7.1084957 -5.807387 5.0343304

weight f4 [4079, 5]
00000000: 7325 21c0 bd8d cabf 0d25 76be 6409 abbf
00000010: 59fa 993f bad0 b1bf a9cf fcbf f262 973f
00000020: 5802 9bbf 6e41 4c3f 20de 9b40 c07b c1be
00000030: f82c 51bf 9f95 e93f cb5f 663f 4736 8bbd
00000040: c27e 913f f51e 0e40 66f4 a4bf 07eb 083e
00000050: f804 1ec0 a295 ccbf bae1 d53f de1c 2ec0
00000060: 5e1a 4240 9e9d 68c0 03bb 7fc0 3500 7f40
00000070: 1f98 ccbf 188b 7c40 c949 42c0 0998 36c0
00000080: fd2e 5540 3066 0ac0 b571 7140 a0f3 61bf
00000090: f327 e6bf 32c2 f93e 633d e73e a5aa b9bd
000000a0: 3f2f aa3f af05 743f 75a7 55c0 bf6b e63e
000000b0: 03e3 12bf f88c c8bf 9899 a140 e527 8e40
000000c0: db2c 9d40 9f5f 0441 a089 973f f35b 9abf
000000d0: c92e 1fbf 2bfa c33f 52d4 7dbf 9cc1 3bc0
000000e0: 2009 0841 75d4 02bf 55f1 b7bf 0745 863f
000000f0: cc85 4a40 ef50 3d41 0b88 4ec0 87a3 f23f
00000100: 85c3 87c0 9061 2bc0 ab23 a640 5975 ef3f
00000110: 7f68 9cbf f3ad f7bf dc2c 06c1 ffb1 2341
00000120: 9081 c340 4055 c7c0 a92f f740 88b4 23c0
00000130: 7c9c eabf e251 5d40 0a93 a5c0 7577 4440
00000140: ad17 1fbd df37 893f 57d5 d43f 0e7b edbf
00000150: 1ab1 3940 4516 30c0 407a c3bf b1f9 6740
00000160: 8b4c 94c0 2b6b 4d40 d549 7ec0 c33d 05c1
00000170: 9462 f740 fd83 15c1 6f1c 4941 583a b3bf
00000180: daa5 54be 58ae f43e 2bfc 14c0 0033 cf3f
00000190: 0083 ca40 5d03 4641 7d60 08c1 3054 6541
000001a0: fa9c b3c0 25ff 27c0 73f5 20c1 48c8 3b40
000001b0: e64c 78c0 74e5 743f 65aa 053f b680 7cc0
000001c0: f5dc 903f efd6 3d3f 5354 babf dd24 5e40
000001d0: 52e3 32c0 9b84 5ac0 cdfb 6540 6ed9 8dc0
000001e0: 5070 5341 a0ad 0d41 15b5 47c1 8876 d741
000001f0: 6c4e f6c0 2a75 9741 9d08 1341 85e0 bac1
00000200: 88f4 b141 5d83 7ec1 cf97 19c0 4a76 5940
00000210: 6488 0ec0 61bf 7740 7c1a 98c0 bc86 3a41
00000220: d971 f740 0515 11c1 1f7b 3c41 3872 2dc1
00000230: 4134 1dc0 4388 4b41 7c8a 913f ea46 3b40
00000240: 33a1 0e40 2ad7 8dbf 19e7 2e41 658e 2040
00000250: dbcd c8bf 30c1 1b40 ff82 4c3e 8cd5 b03e
00000260: dc36 cbbf e83b f63e a868 383f 97c5 4cc0
00000270: 6004 7dc0 76b8 7e40 d463 8bc0 b9e1 c640
00000280: 3292 1a3f fcd1 fc40 390f c7be e26e 833f
00000290: 3ff1 c03c bcda 73bf 2220 a940 447e d83f
000002a0: 654a c8be 6c04 983f 8f19 71c0 fe4d 62c0
000002b0: ca12 7c40 408e 89c0 13a2 b140 7cb1 adbf
000002c0: 0c32 ba40 4100 92bf e6b2 98be 3fae 0040
000002d0: bf2d fb3e 4cb8 6741 bdbd 02c0 02e9 3c40
000002e0: f4e2 61c0 cd68 c840 dd93 0541 bd23 d1c0
000002f0: 266a d140 413d afc0 3987 593c b150 f83c
00000300: fc39 b2be 7759 f3bd dadd e73f cdf6 c7bf
00000310: 0920 b7bf 35ab e43f 311e a4bf 33ce be3f
00000320: 84ee 55bf f6c0 263f 77ff 9f3e e6d3 51be
00000330: 62c2 593f 9cb3 46bf 7aa0 16c0 3bcb 763f
00000340: be06 f43f 4a76 7f3f 61e3 bbbf 040c 1b40
00000350: dd97 873f 703e 87bf e3be b63f 098a cbbe
00000360: fc0e cebf 5b15 abbe d096 d0be c9d1 e7bf
00000370: 1b7b 303f 5697 4e3f afd4 0a3f d20d 8bbf
00000380: acbd 2cbf 9390 4fbf 758a 8e3f 5bad 5c3f
00000390: ef16 9fbe c3bd 1e3f 6540 8cbe bd35 1141
000003a0: 38e3 2bc0 206f 713f 26b3 a2bf c5b3 7440
000003b0: 41b8 aa40 568d 09c0 a638 6b3f dc17 85bf
000003c0: 456b a33f d38e d83f f4c4 73bf e856 70bf
000003d0: c9df 2e3f 8079 db3d 75e1 1441 e5c6 99c0
000003e0: 4aea 4840 bcda 3ebc 2fb7 f140 c9e6 6941
000003f0: 0493 fabd bc11 7440 ff03 a93e 6dfa 10bf
-2.5179107 -1.5824505 -0.24037571 -1.3362241 1.2029525 -1.3891823 -1.9750873 1.1827071
-1.211009 0.7978734 4.870865 -0.37789726 -0.8170924 1.8248786 0.8998992 -0.06797462
1.1366808 2.2206395 -1.2887084 0.13370906 -2.4690533 -1.5983164 1.6709511 -2.720512
3.0328593 -3.6346202 -3.9957893 3.9843876 -1.5983924 3.9459896 -3.0357535 -2.8530295
3.330993 -2.162487 3.7725651 -0.8826237 -1.7980942 0.48780972 0.45164022 -0.09065751
1.3295668 0.9532117 -3.3383458 0.4500408 -0.5737764 -1.566802 5.049999 4.44237
4.9117255 8.273345 1.1838875 -1.2059311 -0.62180763 1.531072 -0.991521 -2.933692
8.502228 -0.51105434 -1.4370524 1.0489815 3.1644163 11.832259 -3.2270534 1.8956155
-4.242617 -2.6778297 5.191854 1.8707687 -1.221939 -1.934996 -8.385952 10.230956
6.1095657 -6.2291565 7.724568 -2.5578938 -1.8329005 3.4581227 -5.174199 3.069791
-0.03884094 1.0720176 1.6627606 -1.8553178 2.9014344 -2.7513592 -1.5271683 3.624615
-4.6343436 3.209666 -3.9732563 -8.327579 7.7307835 -9.344724 12.569442 -1.400218
-0.20766392 0.47789264 -2.327891 1.6187439 6.328491 12.375821 -8.523557 14.333054
-5.612912 -2.6249478 -10.059924 2.9340992 -3.8796935 0.9566262 0.52213126 -3.945356
1.1317431 0.7415609 -1.4556984 3.471 -2.7951245 -3.4143436 3.5934937 -4.4327917
13.21492 8.854889 -12.4817095 26.932877 -7.697073 18.932209 9.189603 -23.359629
22.2444 -15.907071 -2.3998907 3.3978448 -2.2270746 3.8710558 -4.753233 11.657894
7.7326474 -9.067632 11.780059 -10.840385 -2.4563143 12.720767 1.1370387 2.9262033
2.2285888 -1.1081288 10.93142 2.508691 -1.5687822 2.4336662 0.19971846 0.34537923
-1.5876117 0.4809258 0.7203469 -3.19956 -3.953392 3.9800086 -4.355936 6.215054
0.60379326 7.900633 -0.388788 1.0268214 0.023552535 -0.9525564 5.2851725 1.6913533
-0.3911926 1.187635 -3.767185 -3.5360103 3.9386468 -4.2986145 5.5510345 -1.3569789
5.818609 -1.1406327 -0.2982399 2.0106351 0.4905834 14.482494 -2.0428307 2.9517217
-3.5294771 6.262793 8.348599 -6.5356126 6.5442076 -5.4762273 0.0132768685 0.030311914
-0.34809864 -0.118822984 1.8114579 -1.5622193 -1.4306651 1.7864748 -1.2821714 1.4906677
-0.8356707 0.65138185 0.31249592 -0.20490989 0.8506223 -0.7761781 -2.3535447 0.96403855
1.9064558 0.9978987 -1.4678766 2.4226084 1.059322 -1.056593 1.4277004 -0.3975375
-1.6098323 -0.3341473 -0.4074006 -1.8110896 0.68937844 0.8069967 0.5423078 -1.0863593
-0.67476916 -0.8107998 1.1136004 0.8620202 -0.31072184 0.62008303 -0.2739288 9.07562
-2.6857433 0.9431019 -1.2710922 3.8234723 5.334992 -2.1492515 0.91883314 -1.0397906
1.2767111 1.6918586 -0.952224 -0.9388261 0.6831022 0.10716534 9.305043 -4.805529
3.1392999 -0.01164883 7.5536113 14.618844 -0.12235072 3.8135824 0.3301086 -0.5663212

weight f4 [32, 17]
00000000: 85a5 a3be 34af 0bbe 3117 82be ed21 17be
00000010: 1fa0 593e ab18 33bd cab2 e0bd 2635 483e
00000020: c242 933d 269c b73d 7f94 99be 015d 28bd
00000030: 0a03 9e3d ae35 6dbe 168e e03d bee3 20bd
00000040: 528d 663b ac2f 1e3e c749 cd3d a903 f93d
00000050: 1ef8 84bd bd3e 113d b3f4 0ebe fafb 7e3d
00000060: 4495 203e c5fe 2b3d aa9b e83d 6c1f 83b9
00000070: b153 1b3e a781 7ebd 972d 12be a347 343e
00000080: f967 fcbd 8967 96be 19b9 b042 abb6 e4c2
00000090: 18cb e5c1 0747 e142 a8bb cbc2 9f57 d5c1
000000a0: 328a d841 45a8 db42 f91a 0cc3 b9dc 8742
000000b0: fb5b 903f 7acc 12c2 e094 4243 3162 3543
000000c0: d0ab 39c3 5ed8 303c 509e 4242 1bcc 4642
000000d0: b2b4 8cc2 06ed b6c2 7f47 0941 ddbc a4c2
000000e0: 0494 b9c2 80b2 c842 1a9a f341 6cc2 8641
000000f0: be4d ae41 2ba6 47bd 1b87 afbf ed93 b342
00000100: f504 fa42 5d32 bac2 019a 2fbf 72d8 de42
00000110: e0ec 5d3e 4860 85bc 926f 90bd 5cec 7dbd
00000120: e026 053c 4851 463d de44 cbbd ffad 41be
00000130: 706d be3d c015 043b 30ab 863c da13 613e
00000140: a212 4f3e 83c6 fabd 801b 3b3c 84ea c3bd
00000150: 9a07 193e e887 1742 339a 9dc1 4d55 5e42
00000160: 7d4e ae41 224b b6c1 ef04 25c2 b137 8ac2
00000170: 06a5 3042 5a12 45c2 f9dd 0642 cf77 a93f
00000180: 024a b0c0 9cb0 c540 58bd ebc0 22c6 323f
00000190: 1884 9fc0 2a2c 8ec1 8046 8f42 59c1 e8c1
000001a0: 117f ac42 9e94 ae41 3d35 ea42 df33 30c2
000001b0: e4bf 15c3 6ce4 7542 0047 86c2 dae5 a041
000001c0: 54fc 1040 ba8f fec1 1052 5542 9837 f9c0
000001d0: f8c5 b9c2 a161 d8bf 888e dec2 1398 4ebe
000001e0: cf2f 6d3e 0244 3abe f13e 553e 5123 0c3e
000001f0: ac25 e43d fe44 c2bd 0a68 603e dc99 033e
00000200: fad4 fa3d dd4e 1abe 9958 2abe 7454 7bbd
00000210: d440 7cbe 5dae 97be 99cc 55bd e3bd b03d
00000220: 5695 24c1 cd9f 82c2 97be ca42 da2b d342
00000230: d9b1 dcc2 de80 0fc3 bd01 33c2 284d 0442
00000240: d388 92c2 ea90 0f43 dfe0 423f d79a 3fc2
00000250: 1e28 2c43 6520 0943 8b2a 18c3 ae1e 2ebd
00000260: aea3 2a42 2a68 0cc1 8cad 97c2 38a5 c542
00000270: ae46 d742 822e eec2 1afb 10c3 e167 3dc2
00000280: ed75 0c42 668f 98c2 60b2 1043 d71f 3c3f
00000290: 33a2 33c2 1c19 3143 b305 1343 f36d 1cc3
000002a0: 7a5f 31bd 64c4 2d42 d6cb 24be 2aa6 e9bd
000002b0: e0ce 11be f874 93bc 4626 193e 28bd 483d
000002c0: b9ce 35be 9c31 323e 0f32 54be 3842 88bd
000002d0: 2ca4 04be 8a8d d3bd a463 8b3d 68de 7fbd
000002e0: f462 0fbe 6604 24be 026d 9dbd dbf3 92c1
000002f0: 86fa 86c2 74a1 2fc2 9283 8341 5cd6 6cc2
00000300: 86d3 1bc2 7240 4442 3f79 0142 fa73 88c1
00000310: 0f35 4b42 1f1f dfbf 3654 6141 540d 9f42
00000320: 5afb d742 aefc 6fc2 7a14 3bc0 81ac 4b42
00000330: 7067 a8bd 92cf 603e b476 abbd ed27 58be
00000340: 3812 cfbd 802b 9bbd 8c65 983d ba18 38be
00000350: 188d 343d c297 0b3e 1048 2abe 9888 fdbd
00000360: 8045 b83d 031d 69be 38b7 cbbd 0621 b4bd
00000370: 00dc 4dba 041f 3abe 5825 51bd dc22 473e
00000380: d49a f13d d8e6 6f3e e407 2abd 30bc 383d
00000390: 6c82 d43d 8676 2dbe 4844 2dbd 10ea 1cbc
000003a0: c3be f7bd 34e7 0abe c0a6 433e 20d8 233e
000003b0: dbda 74be 4044 813b 5c6f 5a42 1f45 61c2
000003c0: e63c 1a42 8ec1 8142 7be9 cdc2 497b d7c2
000003d0: e34f b340 2e0c af42 0887 32c2 456d ba42
000003e0: 6dcf 7abf 04d6 3b41 38dc 0142 fed4 be42
000003f0: 379e 1cc1 d557 5fbe 2fd6 4242 006b 7ebb
-0.3196222 -0.13641053 -0.2540832 -0.14759035 0.21252488 -0.043724697 -0.10971601 0.19551525
0.071904674 0.0896533 -0.29996106 -0.04110432 0.077154234 -0.23165008 0.10964601 -0.039279692
0.0035179448 0.15447873 0.100238375 0.12158901 -0.06492637 0.035460223 -0.13960533 0.062252022
0.1568194 0.041991014 0.113578156 -0.00025009678 0.15168644 -0.062135365 -0.14275204 0.17605452
-0.12324519 -0.29375866 88.36152 -114.35677 -28.724167 112.638725 -101.866516 -26.667784
27.067478 109.82865 -140.10536 67.9311 1.127807 -36.699684 194.58154 181.38356
-185.67114 0.010793773 48.654602 49.69932 -70.35292 -91.46294 8.579955 -82.36887
-92.78909 100.34863 30.450245 16.844933 21.78796 -0.048742454 -1.3713106 89.78892
125.00968 -93.098366 -0.68594366 111.422745 0.21672392 -0.016281262 -0.0705253 -0.061992988
0.008126944 0.04841736 -0.09925245 -0.1891403 0.09298217 0.0020154566 0.01643905 0.21980229
0.20221952 -0.12244894 0.011420131 -0.09566215 0.14944306 37.88272 -19.700293 55.5833
21.788324 -22.786686 -41.254818 -69.10877 44.161156 -49.26792 33.71677 1.3239688
-5.509034 6.177809 -7.3668633 0.69833577 -4.9848747 -17.771564 71.637695 -29.094408
86.24818 21.822567 117.10398 -44.050655 -149.74957 61.47307 -67.13867 20.112232
2.265401 -31.820179 53.33014 -7.7880363 -92.88666 -1.6904794 -111.27838 -0.20175199
0.23162769 -0.18190005 0.20824791 0.13685347 0.11139998 -0.094858155 0.21914688 0.12851661
0.12247653 -0.15069146 -0.1663536 -0.061359838 -0.24634105 -0.29625216 -0.052197073 0.08629968
-10.286459 -65.31211 101.372246 105.58565 -110.34736 -143.50339 -44.751698 33.075348
-73.267235 143.56607 0.76124376 -47.90121 172.15671 137.12654 -152.16618 -0.042509727
42.659843 -8.775431 -75.83896 98.82269 107.63805 -119.090836 -144.98087 -47.351444
35.11516 -76.280075 144.69678 0.73486084 -44.908398 177.09808 147.02226 -156.42949
-0.043303944 43.441788 -0.16093382 -0.114086464 -0.14239073 -0.018000111 0.14956006 0.04900852
-0.1775464 0.17401737 -0.20722221 -0.06653255 -0.12953252 -0.10329731 0.06806114 -0.062467963
-0.14002591 -0.16017303 -0.07686807 -18.36907 -67.4893 -43.90767 16.439243 -59.209335
-38.956566 49.062935 32.368404 -17.05663 50.801815 -1.7431372 14.083059 79.52603
107.99092 -59.996758 -2.9231248 50.91846 -0.08222854 0.21954182 -0.0837225 -0.2110898
-0.10110897 -0.07576656 0.074412435 -0.17978182 0.04407987 0.1363211 -0.16629052 -0.12379569
0.08997631 -0.22764973 -0.099470556 -0.08795361 -0.0007852912 -0.18175894 -0.051061004 0.19446892
0.11797109 0.23427904 -0.04151143 0.045101345 0.103764385 -0.16939744 -0.042301446 -0.009577289
-0.12096932 -0.1356476 0.19106579 0.16000414 -0.23911612 0.0039449036 54.60875 -56.3175
38.55947 64.87804 -102.95602 -107.74079 5.603502 87.52379 -44.631866 93.21342
-0.97972757 11.73975 32.465057 95.416 -9.788627 -0.21810849 48.709164 -0.0038821101

bias f4 [32]
00000000: 0d7e 4cbe 390c 7ebe eeb7 2d43 5b8a 0743
00000010: 8ac8 97bd e7a6 a2c0 0e47 6cc2 2099 2cbd
00000020: 8db1 ec42 bee3 0243 92d1 1a3e b1ef f442
00000030: b0f4 4ebc e0f1 4cbe 1f92 d542 b65a 0bbe
00000040: aec6 1e3e 8185 2243 ff5b f642 8c30 4d43
00000050: df38 b842 0a29 393e 9fd6 0f41 418c 5243
00000060: 9a0e f2c2 8c25 a1bd c4ca d542 bacf 043e
00000070: 577f aa42 bb79 db42 f4b6 5fbe 3c11 05c2
-0.1996996 -0.2480935 173.71848 135.54045 -0.07411297 -5.082874 -59.06939 -0.04213822
118.34678 130.88962 0.15119007 122.46815 -0.01263158 -0.20014143 106.78539 -0.13608822
0.15505478 162.5215 123.17968 205.18964 92.11108 0.18082061 8.989898 210.54787
-121.02852 -0.078684896 106.89603 0.12969866 85.24871 109.737755 -0.21847135 -33.26683

weight f4 [16, 32]
00000000: 042e 90bc b57f 803d b45f 3840 715c b0c0
00000010: 10f1 db3c 9342 e141 c5b0 e83f 8e1f 1c3d
00000020: b4cb e43f 9d99 8340 906f 08be 5f96 c9bf
00000030: 54e6 6abd b273 f1bd b5a1 02c1 005e 5cba
00000040: 6c5d babd 5326 2141 0438 de3d 6dbd 8140
00000050: 2e64 e1c0 e0ec 59bc 44cc 1541 f4a4 1b40
00000060: b045 5f41 295b 31be f9a5 86c1 26ee a33d
00000070: c6d1 0ec0 f650 21c1 0ba7 93bd 8060 483e
00000080: 7dcc e9bc 5482 0d3e 9fff 1640 342e c3c0
00000090: 6cb9 febd f980 e041 2bcc b83f 6a30 c0bd
000000a0: 8021 6d3f 5cfd 4e40 b18d 273e cefe c8bf
000000b0: 4bf6 ddbd 7a0b c33d 53cc 07c1 0632 d83d
000000c0: fe92 b13d 731b 1b41 6a72 10bd ef0c 5d40
000000d0: 0d1c edc0 800e 933d 9473 0941 a06b c53f
000000e0: 15b0 5d41 b9c4 343e 63eb 87c1 c272 c2bd
000000f0: 9786 38c0 d3ac 25c1 9f1a 99bd ab17 0e3e
00000100: f46c 1c3d 486e 9cbc 283d 06be 7489 22be
00000110: c0b6 16bc 2def e33e 588c 04bc 38bc c13c
00000120: 539c cfbe a6b0 03bf 10d5 f5bc b449 d9bd
00000130: 952b 83bd be6e 1cbe f05f b3be 0027 8cbc
00000140: b38f 173e 769f bbbe bc3f 93be d895 6cbd
00000150: fb4a 8fbe d089 ae3c bae9 79bd 4b57 afbe
00000160: aee4 acbe ef10 0a3e 46c5 6abe c4b3 0ebe
00000170: 3450 e5bd 3ad9 a3be 64ca 0f3d 34e6 ccbe
00000180: d1f0 343e 00dd 2fba 092a 5740 e0d5 b5c0
00000190: 1082 823d 2991 e141 ec7d e23f 47e7 dabd
000001a0: cbb0 f83f a8f2 8c40 80ae 123b 0dd2 e4bf
000001b0: 1b89 09be a85c c4bc 4e34 00c1 30ea 17bd
000001c0: 0833 693d cd8a 2541 1fe2 883e 1ece 8140
000001d0: eb75 dac0 82cb d23d 71ee 1441 c4eb 2d40
000001e0: b33b 6341 4e74 e73d a6fc 87c1 c020 24bb
000001f0: 4743 f9bf 513f 24c1 8d66 233e 8e65 b53d
00000200: 2310 65be 808c 06be 0262 15be 7184 403d
00000210: 2ef7 c1bd b6bb 4bbe 1509 3abc a3a3 2c3e
00000220: 05be 27be 5349 883d a9e7 0b3e 498e 02bd
00000230: b87e 6c3d 8cf0 793d 71c9 76bb 51c6 293e
00000240: 6d9b b4bd fe5b f8bd 5294 69be 725b 2abe
00000250: dc6b 58be 70b3 763d 3833 13be bee3 04be
00000260: 7cbf e6bd 0610 8e3d 7971 2ebd 9662 db3d
00000270: 9a63 103d 21f4 3f3d e915 303e 2ce1 973d
00000280: 8040 e9bc 4f1c 1cbe 962c e1bc fa60 88be
00000290: 8ffa 283e 14a9 643d ac47 f9be 38cf d7bc
000002a0: 0d3e 12be 99eb ae3d b22a b33d e602 903d
000002b0: b7c6 16be ec8e 64bd 7c9b c43e c60a ba3d
000002c0: c4b0 a8bd 0c0e 21bf 2c09 16be d22e 2bbf
000002d0: 3ad7 b73d 9366 0bbe ada7 06be 20ba 67bf
000002e0: f6fe 75bd 44e5 283d 14a9 f8be 9b2f 333e
000002f0: bc85 a7be 3246 2dbe a657 ec3d 0b69 99bd
00000300: c1eb a5bc 9a60 95bd 719a 5d3d 1f1c 14be
00000310: 7e20 f63d 1448 403d b934 04bc 41e5 2a3e
00000320: 7b32 a1be 323f a6bd 394c 1c3e 723a a23d
00000330: 920c 98bd 82a7 983d 15b5 00be f06e 04bd
00000340: e8b9 c3bc ad47 f6bd 05bf 9c3c e24b 4fbe
00000350: a4db b8bd b0fa 37bd 2a50 84be 344a e0be
00000360: 4545 a6bd 4ef0 20be 73bb febd e606 993d
00000370: ab95 bfbd b57e 8cbd 01b5 debc f67d acba
00000380: 6389 233e a33f 9abd fd0d 39be ef3a 0dbe
00000390: b10f 283e 5675 e23d 294e 25be 2505 113e
000003a0: 5258 50be dfaa 7f3b 6db3 87bd 69a8 41be
000003b0: ccdc 803d c3b3 2cbe af04 b0bd 4463 2f3d
000003c0: a014 9cbd 8b2d 89be ff9e 98be c494 23ba
000003d0: 03fc 8d3c 7a85 f63d 2296 8cbe b7e3 b2be
000003e0: 35e8 a13d cdea 0e3e 9db3 093d a049 ab3c
000003f0: 6fd2 02ba 86e3 07be 526b 993d b187 abbd
-0.017600067 0.06274358 2.8808413 -5.5112844 0.026848346 28.157507 1.8178946 0.03811603
1.7874665 4.1125016 -0.13323808 -1.5749015 -0.057348564 -0.11789645 -8.164479 -0.0008406341
-0.0909985 10.0718565 0.10850528 4.0543733 -7.043479 -0.013301104 9.36237 2.431943
13.954514 -0.17319931 -16.831041 0.080044076 -2.2315536 -10.082266 -0.07209595 0.19568062
-0.02853989 0.13819247 2.3593519 -6.09939 -0.1243771 28.062975 1.4437307 -0.09384234
0.9262924 3.2342138 0.16362645 -1.570276 -0.10837992 0.09523673 -8.487384 0.10556416
0.08670615 9.694201 -0.035265364 3.4539144 -7.409674 0.071805 8.590717 1.542347
13.855489 0.17653169 -16.989935 -0.094945446 -2.8832147 -10.354693 -0.07475781 0.13876216
0.038189843 -0.019095555 -0.13109267 -0.15872747 -0.009198844 0.44518414 -0.008090101 0.02364932
-0.40548953 -0.5144142 -0.030008823 -0.10609761 -0.06404797 -0.1527662 -0.35034132 -0.01710844
0.1480091 -0.36645097 -0.28759563 -0.05776009 -0.27986893 0.021305948 -0.061013915 -0.34246287
-0.3376822 0.13483022 -0.22926816 -0.13935763 -0.11196938 -0.32001668 0.035105124 -0.4001938
0.17669989 -0.0006708652 3.3619406 -5.682358 0.06372464 28.195879 1.7694678 -0.10688644
1.9428953 4.404621 0.0022381842 -1.7876602 -0.13431208 -0.023969963 -8.01277 -0.037088573
0.056933433 10.346387 0.26735017 4.056411 -6.8268943 0.10292722 9.308213 2.717515
14.202075 0.1130148 -16.998363 -0.0025043935 -1.9473656 -10.265458 0.15957089 0.08857261
-0.22369437 -0.13139534 -0.14588168 0.047001306 -0.09470974 -0.19895825 -0.011354704 0.16859297
-0.1638108 0.066546105 0.1366259 -0.031873975 0.057738036 0.06102042 -0.003765669 0.16579558
-0.088187076 -0.12126921 -0.22810486 -0.16636446 -0.21134895 0.06022972 -0.14375007 -0.12977502
-0.112669915 0.0693665 -0.042588685 0.10712163 0.035251237 0.04686368 0.17195858 0.07415995
-0.028473139 -0.15245174 -0.02748708 -0.26636487 0.1650183 0.055825308 -0.48687494 -0.026343927
-0.14281483 0.085410304 0.08748378 0.07031803 -0.14724241 -0.055800363 0.38399875 0.09084086
-0.0823684 -0.6291206 -0.14651936 -0.6686832 0.08976598 -0.13613348 -0.131499 -0.9051838
-0.060057603 0.04123427 -0.48566496 0.17498629 -0.3271922 -0.16921309 0.11540155 -0.074907385
-0.020254018 -0.07293816 0.054102365 -0.14463852 0.12017916 0.04694374 -0.008069211 0.16689016
-0.31483826 -0.08117522 0.15263452 0.07921304 -0.074242726 0.074538246 -0.12569077 -0.03233236
-0.023892358 -0.1202539 0.019134054 -0.20243791 -0.09026268 -0.04491681 -0.2584241 -0.43806612
-0.08118681 -0.15716669 -0.12438097 0.07472019 -0.09354719 -0.06860105 -0.027185919 -0.0013160098
0.15970378 -0.07531669 -0.18071742 -0.13792013 0.16412236 0.11057536 -0.16143097 0.14162119
-0.20346192 0.003901176 -0.066260196 -0.189119 0.06292114 -0.16865449 -0.08594643 0.042819276
-0.076211214 -0.2679256 -0.29808804 -0.00062401243 0.017332083 0.120371774 -0.27458292 -0.34939358
0.07905618 0.13956757 0.03361856 0.02090913 -0.00049904635 -0.13270387 0.07491173 -0.083754905

bias f4 [16]
00000000: af27 5943 9c29 5843 fe63 e5be 4197 5943
00000010: 7466 f7bc 5124 25bf e4ff edbe 8b9a fdbe
00000020: ea60 5943 5c62 fcbe 39f1 be3e 14d5 22bf
00000030: 49eb 26bf ff8b 3abe d4ad 5643 a38d 9840
217.15501 216.16254 -0.4480285 217.59084 -0.03020022 -0.6450854 -0.46484292 -0.4953197
217.37857 -0.49293792 0.37293413 -0.6360638 -0.65202767 -0.18217467 214.67902 4.7672896

weight f4 [1, 16]
00000000: e97c ef3f 5915 953f ea4b 5c3e 284b 0b40
00000010: 4c0a 993c 2e60 803e 206b 7bbe e904 3f3e
00000020: 12a4 0040 d616 92be 5c68 c8b9 84ab 653e
00000030: eb63 9b3e 23dd 77bd 7f6b 3640 e96e 7e40
1.8709995 1.164714 0.21513334 2.1764622 0.018681668 0.2507338 -0.24552584 0.18654217
2.010014 -0.28533047 -0.00038224726 0.2242871 0.3034967 -0.060513627 2.850311 3.9755194
