api/home_price_model_bhi.pth (torch, 82193 bytes, 7 tensors)

weight f4 [313, 5]
000000 53 85 61 40 75 15 8d 40 12 06 a6 c0 94 de cb c0
       3.5237625 4.4088693 -5.188241 -6.37092
000010 6c d2 f4 c0 65 10 bd 3f 10 a8 4f be e3 ae 31 bf
       -7.6506863 1.4770628 -0.20278955 -0.6940748
000020 3c 65 fd be 5f 48 68 bf 52 8a 27 40 c6 42 8f 40
       -0.49491298 -0.9073543 2.6178174 4.476901
000030 75 ad 19 c0 cd aa 7e c0 4a d8 4a c0 b9 70 2c 40
       -2.401212 -3.9791749 -3.1694512 2.69438
000040 b1 e3 a2 40 16 9f e3 bf 7a 5b a5 c0 33 2d 79 c0
       5.0902944 -1.7782924 -5.1674166 -3.8933837
000050 c1 00 af 40 95 0e de 40 0d 36 8b c0 33 01 bf c0
       5.468842 6.93928 -4.350348 -5.9688964
000060 05 56 ab c0 ac de b1 be 09 f2 d1 bd 56 51 b5 bf
       -5.3542504 -0.34740198 -0.10251243 -1.4165447
000070 d0 82 14 3f d6 f0 b2 bf ae 33 90 40 81 cd 83 40
       0.58012104 -1.3979747 4.5063086 4.118836
000080 a7 a1 b6 c0 be 5d af c0 a9 bf bf c0 1c 6d 19 40
       -5.707233 -5.480193 -5.992146 2.3972845
000090 7d 11 62 40 db 3c 76 c0 88 d7 3a c0 39 cb a2 c0
       3.5323174 -3.8474643 -2.919405 -5.0873075
0000a0 ef 10 d2 3e 6d 19 a2 3f 0c 72 57 c0 5f a1 91 bf
       0.41028544 1.2664009 -3.3663359 -1.1377372
0000b0 e5 24 15 c0 af e7 0f 40 ae a4 4c 40 5a 57 b9 bf
       -2.3303769 2.2485158 3.1975513 -1.4479783
0000c0 81 1e 75 c0 e5 9d 33 c0 3f 69 ab 40 73 f3 31 40
       -3.8299868 -2.806512 5.3565974 2.780484
0000d0 17 d8 89 c0 94 1f 5d c0 f3 22 97 c0 f0 01 79 40
       -4.307628 -3.4550524 -4.7230163 3.8907433
0000e0 d6 f0 a9 40 01 f7 74 c0 87 de 82 c0 c4 1e 3a c0
       5.310649 -3.827576 -4.089664 -2.9081278
0000f0 4d 28 b2 40 9a 93 09 40 d6 8d 81 c0 aa fe 3e c0
       5.5674195 2.149634 -4.048564 -2.9842935
000100 79 66 6f c0 c5 e4 af 40 7a f9 a2 40 b2 78 a9 c0
       -3.7406294 5.496676 5.0929537 -5.2959833
000110 a6 d3 53 c0 ee 56 65 c0 00 b7 95 40 fe fc 01 40
       -3.309793 -3.5834308 4.678589 2.0310664
000120 7c ac 66 c0 63 63 26 c0 79 38 74 bf 89 fa 7d 41
       -3.6042776 -2.599816 -0.9539867 15.873666
000130 5b 07 7b 41 18 96 7d c1 d3 c6 7a c1 6b 96 5f c1
       15.689296 -15.849144 -15.673541 -13.974223
000140 fc bc be be 0b 6d 93 3e 7f 73 39 bd 23 6d a2 3f
       -0.3725356 0.2879413 -0.04527616 1.2689556
000150 1c 78 59 bf 08 eb bd 3e da 90 88 40 23 5d 10 bf
       -0.849489 0.37093377 4.267682 -0.56392115
000160 99 7c 5d c0 15 24 bf c0 fb c5 a6 40 c0 3e d3 40
       -3.4607298 -5.9731545 5.2116675 6.60141
000170 63 f9 93 c0 fc 58 ce c0 e9 ee cf c0 4c 98 2b 3f
       -4.6241927 -6.4483624 -6.497914 0.6702926
000180 29 5c e9 3f e7 99 a5 bf c8 f5 49 c0 40 fb a0 bf
       1.823125 -1.2937592 -3.1556263 -1.2576675
000190 50 e8 81 40 0d 0e 3b 40 85 d1 47 c0 b8 ff 3c c0
       4.0596085 2.9227326 -3.122163 -2.9531078
0001a0 bc e9 8b c0 b5 86 ef 3f e0 3f 6e 40 f6 f4 21 c0
       -4.372282 1.8712984 3.7226486 -2.5305762
0001b0 6b aa 28 c0 72 f6 92 c0 c4 f2 f1 40 cb b1 00 41
       -2.6354015 -4.5925837 7.5608845 8.0434065
0001c0 cf 36 ef c0 c3 17 e9 c0 98 46 eb c0 ab d5 96 3f
       -7.4754405 -7.2841506 -7.3523674 1.1783956
0001d0 ad ba 06 bf e6 17 81 bf 77 d0 93 3c 2c 73 bf bf
       -0.52628595 -1.0085418 0.01804374 -1.4957023
0001e0 e0 3b c7 bf 2a 80 aa 40 2f 7f ab 3f 9d 52 89 c0
       -1.5565147 5.328145 1.3398188 -4.2913346
0001f0 6c af 07 c1 f3 63 9d 3f e0 ba 24 3d f9 d2 0a c0
       -8.480328 1.2296127 0.04021728 -2.1691267
000200 83 bb 8b bf d2 f4 49 bf 2b 1d 5d 40 11 3f 90 3f
       -1.0916599 -0.7888919 3.4549053 1.1269246
000210 6c 9a 5e bf 8b f0 33 bf ba bb 21 c0 f1 dc 0d 40
       -0.8695438 -0.70288914 -2.527083 2.2166102
000220 47 02 97 40 00 2b c8 3e 36 c2 8a c0 61 ce 21 c0
       4.719028 0.39095306 -4.3362074 -2.5282214
000230 63 38 86 40 2f e6 6a 40 b3 f4 8b c0 19 8a 70 c0
       4.194383 3.6702993 -4.3736205 -3.7584288
000240 a5 85 52 c0 f2 5b 33 40 24 a7 80 40 0b 46 91 c0
       -3.289407 2.802487 4.020403 -4.5398
000250 35 50 22 c0 1e 2d 5a c0 90 93 64 be 44 20 01 40
       -2.5361454 -3.4090037 -0.22321916 2.0175943
000260 20 a9 04 c0 e5 56 d8 bf 61 a0 c7 bf 82 1f a0 40
       -2.0728226 -1.6901518 -1.5595819 5.003846
000270 71 a5 98 40 cd ec 23 c0 29 be bc c0 eb 50 d0 c0
       4.7701955 -2.5613282 -5.898213 -6.5098777
000280 43 65 87 40 f6 f8 74 40 5e df 26 c0 58 b2 3d c0
       4.231111 3.8276954 -2.6073833 -2.9640102
000290 9f 93 a4 c0 e1 ae 88 3f 5f 63 b6 40 2b 52 3a bf
       -5.14302 1.0678369 5.6996303 -0.7278163
0002a0 3e 19 59 c0 30 5e e7 c0 3a 65 4f 41 e6 7d 23 41
       -3.3921657 -7.2302475 12.9622135 10.218237
0002b0 72 8c 45 c1 a5 ec 29 c1 94 7f 31 c1 8b d2 8b 40
       -12.346788 -10.620275 -11.093647 4.369451
0002c0 c4 4c 98 40 14 87 3e c0 7e 5c 44 c0 72 3d 60 c0
       4.759371 -2.9769945 -3.0681453 -3.5037503
0002d0 1d d5 07 40 23 1c 2c 40 c3 a6 f3 bf 76 be d4 bf
       2.1223824 2.6892173 -1.9035267 -1.6620624
0002e0 1e be f1 bf f2 93 1b 3f de 99 31 40 a4 2b bd bf
       -1.8886144 0.6077262 2.7750163 -1.4778943
0002f0 4e 13 86 c0 3d a8 bf c0 f9 bf 31 40 f9 05 05 40
       -4.1898565 -5.989287 2.777342 2.0784895
000300 4c f2 18 c0 71 a7 fa bf 45 fb b2 bf 96 27 4a 40
       -2.3897886 -1.9582349 -1.3982931 3.1586661
000310 b6 2e e6 3f bd d5 b3 c0 9e 10 fd bf 64 d6 a5 be
       1.7983005 -5.619841 -1.9770696 -0.3239013
000320 56 aa 7b 3f c0 5e 3e 40 81 d7 0c 3f 85 28 87 c0
       0.98306787 2.974533 0.5501633 -4.223696
000330 49 82 f9 c0 c3 67 b3 be b4 d0 93 40 12 34 c4 3f
       -7.797154 -0.350401 4.6192265 1.5328391
000340 63 8f 29 c0 87 05 95 c0 c3 e0 a1 3f 98 12 2d 40
       -2.6493766 -4.6569247 1.2646717 2.7042599
000350 8f 05 10 bf 73 f2 a4 c0 d0 92 a2 c0 39 7d 43 3f
       -0.5625848 -5.154596 -5.0804214 0.7636295
000360 03 74 01 40 ec 63 83 c0 8e 4c 31 c0 7f 5d 85 c0
       2.0227058 -4.1059475 -2.7702975 -4.167663
000370 ec 30 ed 40 0d 03 cf 40 1b b9 da c0 8c 21 db c0
       7.412222 6.4691224 -6.835096 -6.847845
000380 ef 96 e2 c0 7d 40 27 40 37 84 f7 3f 6b a4 1a c0
       -7.0809245 2.613311 1.9337224 -2.4162853
000390 91 22 43 bf 2f 4c 5e c0 1c 8e 74 40 f3 89 8d 40
       -0.7622462 -3.4733999 3.8211737 4.4230895
0003a0 43 42 6d c0 11 9b 99 c0 79 2b 98 c0 d0 14 28 40
       -3.7071693 -4.800179 -4.7553067 2.6262703
0003b0 e0 f4 30 40 9e a6 1f c0 4c 56 d4 bf c5 3d 6e c0
       2.764946 -2.4945445 -1.6588836 -3.72252
0003c0 78 44 de 40 fd af 50 40 3b 94 3d c0 79 21 b6 c0
       6.945858 3.2607415 -2.9621723 -5.691586
0003d0 ec 30 aa c0 6e 76 0d 41 9a f0 03 41 b0 bd 22 c1
       -5.318472 8.8414135 8.246241 -10.17131
0003e0 bb 2e 0f c1 74 c3 01 c1 78 70 a6 40 2f 36 ca 40
       -8.948909 -8.110218 5.201229 6.319114
0003f0 65 d9 bd c0 ee d0 9f c0 11 d8 9a c0 55 33 1f 40
       -5.9327874 -4.994254 -4.8388753 2.487508

weight f4 [1563, 5]
000000 54 89 1e 3f e7 f0 76 3f 57 bc 6b bf f9 a0 79 be
       0.61928296 0.9646134 -0.9208426 -0.24377812
000010 ef af 0a 3f bf 8e 63 c0 33 7d 80 c0 8a 2c 83 40
       0.54174703 -3.5555875 -4.015283 4.099187
000020 39 8a a4 40 de fa b8 c0 ba 6d 14 c0 1d 54 82 c0
       5.141873 -5.7806234 -2.3191972 -4.0727677
000030 db d6 40 40 99 11 9d 40 fa f1 43 c0 0e 8e 07 c1
       3.0131137 4.908398 -3.061644 -8.472181
000040 b3 b6 04 c1 3c a7 13 41 9a b5 d3 40 33 b5 e8 c0
       -8.294604 9.228329 6.615918 -7.272119
000050 ac c1 78 bf d2 6a 45 c0 bb c5 79 40 a0 30 6e 3f
       -0.9717052 -3.0846448 3.9026935 0.93042946
000060 38 35 8e bf 60 93 7d bf 23 ce 99 be 12 6a 10 40
       -1.1109991 -0.99053 -0.30040082 2.256474
000070 16 fc 7c bd 5b 64 5e bf 7a 34 46 bf 16 2d d0 3e
       -0.061763845 -0.8687188 -0.7742382 0.40659398
000080 92 7a d4 3e 8d 7d ca 3e 96 d4 96 bf 8f 51 1e bf
       0.41499764 0.39548913 -1.1783626 -0.618432
000090 4a 2e db bf 13 e4 e8 3f cc bc a1 bb ac 18 20 bf
       -1.7123501 1.8194603 -0.0049358364 -0.62537646
0000a0 04 0d bd c0 ef 0b ad c0 be cf 69 40 bf f1 ad 40
       -5.907839 -5.4077067 3.6533046 5.43576
0000b0 e4 1f c1 c0 d2 e5 f5 bf b4 fb 14 c0 da fe ac ba
       -6.035143 -1.921076 -2.3278627 -0.001319851
0000c0 d9 ce a7 3f f1 50 d1 3e ad ef 55 c0 4c 89 23 c0
       1.311 0.40882066 -3.3427536 -2.555255
0000d0 fb 20 62 3d 6d be c7 3f 2c a2 9f bf 98 6e f7 3f
       0.055207234 1.5604988 -1.2471366 1.9330626
0000e0 80 28 4f 40 7a 6c ec bf 5a 35 89 3e 16 f9 ab 3f
       3.236847 -1.8470604 0.26798517 1.343539
0000f0 c8 0c d1 bf fd 50 14 bf c7 99 94 3e be 9a a9 3e
       -1.6332026 -0.5793608 0.29023573 0.3312587
000100 50 0d 46 3f 2f f3 06 3f 54 b6 8d 3f 33 c8 91 be
       0.77364063 0.5271482 1.1071267 -0.28473052
000110 09 72 55 3f a4 c7 d2 3f 69 ba 34 bf 14 8a cd be
       0.8337713 1.6467175 -0.7059694 -0.40144408
000120 0f 00 8e 3f b4 32 61 bf f5 78 0a c0 f3 0b ec 3f
       1.1093768 -0.8796799 -2.1636326 1.8441147
000130 f5 3f b6 3d a8 14 91 bf 29 b3 9a bf ce 0d 0b 40
       0.088989176 -1.1334429 -1.2085925 2.1727176
000140 fb cc 88 3f 93 cd f5 bc 36 6a 03 c0 ca 3f e0 bf
       1.0687555 -0.030005252 -2.0533576 -1.7519467
000150 b2 13 4b bf fe a7 f4 3f 6a 7c f1 3f 7d ec 10 c0
       -0.7932693 1.9113767 1.8866093 -2.264434
000160 f7 5e e4 3d ec 20 05 3e 33 a0 b9 3e c0 0b 9f bd
       0.111509256 0.1300084 0.36255035 -0.07765913
000170 9b 6c 19 3f 48 59 22 3f f1 e2 08 bf 00 bd fe 3e
       0.59931344 0.6341748 -0.53471285 0.4975357
000180 48 fe 73 3f 85 33 f2 be c9 b3 8a bf ad 56 b9 3c
       0.9530988 -0.4730493 -1.0836116 0.022624338
000190 96 50 95 bf 2e 8c d9 be 8f 0a 7c 3e 2f 96 3b bf
       -1.1665218 -0.4248976 0.24613403 -0.73276037
0001a0 a7 98 2d bf 6c 22 72 bf d8 ac 07 c0 6e e4 18 3f
       -0.67811054 -0.94583774 -2.1199245 0.59723556
0001b0 cf c6 04 bf 78 fa 8d 3e e2 42 a6 40 1a cd 9e 40
       -0.5186586 0.27730155 5.1956644 4.962537
0001c0 62 79 87 c0 bf 6b ab c0 40 3d 68 40 88 06 8d bf
       -4.233567 -5.3569026 3.6287384 -1.1017618
0001d0 de 87 5b 3f 95 20 cd bf 20 5c 96 bf d5 99 cb 3f
       0.8575419 -1.6025568 -1.1746864 1.5906321
0001e0 a3 eb 5f 3e 3e 6b 27 3e 6b 9f 29 3f df b1 70 bf
       0.21867232 0.16349503 0.6625888 -0.9402141
0001f0 30 e3 bf bf a8 8d 85 bf 1c f1 a1 be d4 67 f7 3f
       -1.4991207 -1.0433855 -0.31629264 1.9328561
000200 b1 4d 98 3f 46 dc 56 bf 15 73 ff bd 6a 8f 0f c0
       1.189871 -0.8392986 -0.12473122 -2.2431283
000210 b7 a6 1f bf 21 39 2e 3f 40 a7 16 bf fb d9 0f c0
       -0.6236376 0.6805592 -0.58848953 -2.2476795
000220 7f 09 21 bf ac e0 d7 3e ed fb ec 3f 32 ec cd bf
       -0.62905115 0.421636 1.8514382 -1.6087706
000230 fa ab 60 40 8f ca 4b 40 b8 b3 4a c0 9c 03 d2 c0
       3.5104966 3.1842382 -3.1672192 -6.5629406
000240 89 fc 7e 40 99 91 37 bf 75 2d 65 bf f1 2a 0c bf
       3.9841635 -0.7170654 -0.89522487 -0.54753023
000250 c3 eb 2e 3f 7d 06 18 c0 74 42 01 3f f0 e4 28 bf
       0.68328494 -2.375396 0.50492024 -0.6597433
000260 f7 80 4f 3f 76 43 3e 3e 17 ad 0b 3e 40 52 84 bf
       0.8105616 0.18580422 0.13640247 -1.0337601
000270 86 a5 0d bf c5 9e c2 3f 53 4f 9e 3f be e7 02 bf
       -0.55330694 1.5204703 1.2367958 -0.5113486
000280 6b e8 84 be f5 b0 84 3e 53 84 75 bf bb 32 56 bd
       -0.2595857 0.25916258 -0.95905036 -0.052294474
000290 68 30 8f 3e bd df 91 bf 87 3a 00 bf 8c 0f 97 be
       0.2796662 -1.1396405 -0.50089306 -0.2950405
0002a0 e4 bd 9d bf e2 b3 00 c0 df cf f6 bf 15 c4 2a c0
       -1.2323575 -2.0109792 -1.9282187 -2.668218
0002b0 73 47 17 3f 0e 7c 17 40 fe 10 25 c0 e6 32 f2 be
       0.590934 2.3669467 -2.5791621 -0.47304457
0002c0 d6 d9 a8 3f d9 da a5 3f 06 6d 9c 3f 71 4c 06 3e
       1.3191478 1.2957412 1.2220771 0.13115098
0002d0 70 23 6a bf 4f 52 98 3f 26 0e bf 3f 68 fa eb bf
       -0.91460323 1.1900119 1.4926193 -1.8435793
0002e0 02 4f 04 3e a0 58 81 bf 55 cc 8f bd 25 e2 3b 3e
       0.12920764 -1.0105171 -0.07021395 0.18347986
0002f0 52 4e a9 be b4 48 f3 be 42 94 ae bf 6d 7e ca 3d
       -0.33067566 -0.47516406 -1.3638995 0.09887395
000300 82 4d 73 be be fe 8d 3f ba 3c 0b c0 ad e8 64 c0
       -0.23760036 1.1093366 -2.1755815 -3.5767014
000310 6b f9 23 c0 be 81 2b 40 f1 dc f4 3f db fa 17 c0
       -2.5620983 2.6797938 1.9129926 -2.374686
000320 fb 18 0d bf f3 06 7c bf a6 cc 6a be c9 8b 07 40
       -0.5511624 -0.98448104 -0.2292963 2.1179068
000330 77 42 51 bf 4d a6 b8 bd ff 9d b1 3f 46 04 4b 3f
       -0.8174204 -0.09016094 1.3876342 0.79303396
000340 20 5f 55 bf a1 08 6b be 92 da bb be 5e 31 a6 bf
       -0.83348274 -0.2295251 -0.36690193 -1.2983816
000350 9c b5 a3 3f c9 05 4b bf 52 9e d2 bf c1 8c a3 bf
       1.2789798 -0.793057 -1.6454566 -1.277733
000360 63 85 1a bf 72 af 1a 40 eb 3c 54 3f ed 5c e8 bf
       -0.6035978 2.4169583 0.82905453 -1.8153359
000370 fc 24 3e 40 be c1 a6 3f ef 17 09 3f 98 a7 29 c0
       2.9710073 1.3027875 0.53552145 -2.650854
000380 c2 b0 ef 3d b9 d1 37 be 92 53 9b bf 97 52 bd 3f
       0.11703636 -0.17951097 -1.2134879 1.479083
000390 a6 f4 e8 bd b0 fb a2 bf 66 d6 b5 3f 0d 11 00 3f
       -0.11374788 -1.2733059 1.4206054 0.5002602
0003a0 1e 80 42 3f d7 be f8 bf ee e2 dc be 06 68 86 bf
       0.7597674 -1.943324 -0.43141884 -1.0500495
0003b0 4f 25 80 bf 0a 35 7e 3f ef 4a 0a bd 4c 11 9d be
       -1.0011386 0.9929968 -0.03376287 -0.3067726
0003c0 9d c3 0d 40 dd a3 99 3e 60 74 fe bf 9f f0 03 be
       2.2150643 0.3000783 -1.9879265 -0.12884758
0003d0 0f ba 1f 40 9f 9c 99 40 c6 80 8c 40 e3 54 97 c0
       2.495731 4.800369 4.3907194 -4.729112
0003e0 46 ef b4 c0 9c f9 8b 40 fd 6a 1c c0 ce 25 07 be
       -5.654208 4.37422 -2.44403 -0.13198015
0003f0 e8 bc 33 bf 01 de fb bd aa 5e a6 3e 35 a7 56 3f
       -0.70210123 -0.12298203 0.32494098 0.8384889

weight f4 [32, 15]
000000 73 45 96 41 fb cc ab 41 8a 9f ac c1 85 e7 ae c1
       18.78391 21.475088 -21.5779 -21.863047
000010 14 c9 d1 c1 97 68 08 40 22 8f 51 c1 cd f9 52 41
       -26.223183 2.1313837 -13.097445 13.1859865
000020 5f da 6d 41 17 eb e6 c0 27 ca 19 3e 54 4d 0e c1
       14.865813 -7.2161975 0.15018521 -8.893879
000030 ca 7d bf 41 fd d1 29 42 a1 cb 1a c2 b0 c8 7f bd
       23.93642 42.455067 -38.698856 -0.06244725
000040 4a ff 35 be 11 92 04 be 61 2c 82 3e d0 92 fb bc
       -0.17773166 -0.12946345 0.25424483 -0.030709654
000050 0e 06 2a 3e d0 12 53 3d b6 ff e6 bd 32 30 0e be
       0.16603872 0.051531613 -0.11279242 -0.13885573
000060 4c 10 12 3e d0 8f db bd 54 96 e7 3d e4 ce 39 be
       0.1426403 -0.107207894 0.1130797 -0.18145329
000070 a4 be 81 be 9c a4 d9 3d 9a bd 9a bd da 0a 4f be
       -0.2534076 0.106271 -0.07555695 -0.20218983
000080 08 f4 1a be e0 77 fa bc 64 11 56 3e 12 ae 58 3e
       -0.15132153 -0.030574739 0.20905071 0.21160153
000090 9a 08 67 be 7e 0c 6e 3e b0 ce 3e bc 70 fc 22 3d
       -0.22561875 0.23246953 -0.011645958 0.039791524
0000a0 59 a1 23 be ea f0 22 3e f4 2b 00 bd 00 bc 1c bb
       -0.15979518 0.15912214 -0.031291917 -0.0023915768
0000b0 08 61 47 3e b3 ad 02 41 ff 2d 5a c0 23 3b 70 c1
       0.19470608 8.167407 -3.4090574 -15.014438
0000c0 68 e5 c5 40 78 b4 d9 41 02 d5 33 c2 79 6a 11 c2
       6.1842537 27.21312 -44.958015 -36.353977
0000d0 96 b8 15 42 20 d0 0f 42 6d d2 28 c2 ed 00 27 3e
       37.43026 35.953247 -42.205494 0.16308947
0000e0 3e 1b d4 c1 3a fd d4 3f 1e 2b b3 40 47 e3 7d c2
       -26.513302 1.6639779 5.5990133 -63.47195
0000f0 4c a9 91 3d e8 fb b2 bc a4 8d ef bd 4e 77 04 3e
       0.07112369 -0.021848634 -0.11696938 0.12936136
000100 ea 56 2c 3e 70 25 f7 3c 80 84 cc 3c 40 51 fe 3c
       0.1683003 0.030169219 0.024965525 0.031044602
000110 78 94 0d bd e6 89 e4 bd 70 99 67 be 9e ff 54 3e
       -0.03456542 -0.111591145 -0.22617126 0.20800635
000120 24 bf 2d be 4e 38 34 3e b8 d8 ab 3d 2c 27 32 3e
       -0.16967446 0.17599604 0.08390945 0.17397755
000130 f4 a8 27 be 7a 0f 7d 38 d0 36 42 3d be d9 0d 3e
       -0.16373044 6.0334314e-05 0.047415555 0.13852593
000140 22 0c c1 bd 7c e7 0a be 2f 55 8a be c0 18 bf bd
       -0.09426142 -0.13564867 -0.27018115 -0.093308926
000150 5b c8 22 3e 63 4f 60 bd fd d7 66 be eb 85 84 bd
       0.15896742 -0.05476321 -0.2254333 -0.06470855
000160 67 d9 2e be c8 6a 9f 3d c2 f2 07 3e 60 c5 83 3d
       -0.1707512 0.07784039 0.13276199 0.06434131
000170 26 e8 2d 3e 66 8a 6a be b8 9b b7 bd 62 1e 8a bd
       0.16983089 -0.22904357 -0.08965248 -0.06744076
000180 64 c5 fa 3d 6b 97 44 be 44 7c 65 3e c4 f8 ee 3d
       0.122446805 -0.19198386 0.22410685 0.11668542
000190 f3 cb 82 be ae 2c 4b 3e d0 84 0f bc f8 8c 13 3d
       -0.25546226 0.19841263 -0.008759692 0.03602311
0001a0 cf 0d 00 be 24 ae 3e 3e 30 19 45 be 96 71 34 3e
       -0.12505268 0.18621117 -0.1924789 0.17621455
0001b0 42 97 96 bd 20 0d 0c 3c 60 93 0b bc 38 72 50 3e
       -0.07353069 0.008548051 -0.008519024 0.20356071
0001c0 4a ed 53 3e 60 0b 59 3d 98 02 99 bd 26 ab c2 bd
       0.20695987 0.052989364 -0.07471198 -0.095053
0001d0 70 50 a3 bd 14 6a f4 bd 20 a0 34 bd 89 96 79 be
       -0.079743266 -0.11934295 -0.04409802 -0.24373831
0001e0 d0 8a 22 3e c0 a4 cc bc c0 81 e3 3c 60 73 dd bd
       0.15873265 -0.024980903 0.02777183 -0.10813022
0001f0 00 fe 58 be 82 75 22 3e 80 e7 03 bb 94 9d 66 be
       -0.21190643 0.15865138 -0.0020126998 -0.22521049
000200 14 2f ac 3d fc 44 45 3e c8 73 16 bd b2 e4 99 bd
       0.08407417 0.19264597 -0.03673151 -0.07514323
000210 8a 45 7d 3e e0 03 f9 bc f0 7c 66 3e 53 bb 02 3c
       0.24733558 -0.030397356 0.22508597 0.007979232
000220 03 1f 18 3d e9 2d 1e be ce b3 ac bd f2 bc 59 3e
       0.03713895 -0.15447201 -0.084327325 0.21263483
000230 ae a0 3e 3e 70 9e 22 3e eb de 3c 3e cc 28 8b be
       0.18615982 0.15880752 0.18444411 -0.27179563
000240 d1 a8 a0 bd cd ec 8c bd f2 6a 08 be b3 63 20 3e
       -0.07844699 -0.06881104 -0.13322046 0.15663032
000250 68 02 f0 3d b4 46 f0 3d 50 e7 96 41 29 07 ad 41
       0.11719209 0.117322356 18.862946 21.628496
000260 e8 11 ac c1 64 43 b0 c1 42 92 d2 c1 30 dd e7 3f
       -21.508743 -22.032906 -26.321415 1.8114376
000270 95 56 58 c1 1e 56 57 41 75 f6 72 41 d1 74 e2 c0
       -13.521138 13.458525 15.18517 -7.07676
000280 6a 20 26 3e c4 c7 0f c1 a2 6e c1 41 39 49 2b 42
       0.16223302 -8.986271 24.17902 42.821507
000290 97 5e 19 c2 eb 4d 96 41 8f da aa 41 ae 56 ac c1
       -38.342373 18.788046 21.356718 -21.542324
0002a0 65 f1 ae c1 0c 55 cf c1 35 00 fd 3f 39 2f 55 c1
       -21.867868 -25.916527 1.9765688 -13.324029
0002b0 ca ff 50 41 d3 d5 6c 41 d4 34 da c0 90 9f 39 3e
       13.0624485 14.802203 -6.8189487 0.18127275
0002c0 38 5f 10 c1 f6 90 c1 41 2c 43 2a 42 df a7 1a c2
       -9.023247 24.195782 42.565598 -38.663937
0002d0 d0 ac eb 3c be 0b 3e 3e 8b 09 49 be 48 0d 54 3e
       0.028768927 0.18559167 -0.19632547 0.20708191
0002e0 f0 26 46 3d 5c 1b 17 3e 9c 2b 61 3e d6 05 1a 3e
       0.048376977 0.1475653 0.21989292 0.15041289
0002f0 80 1c 13 3c bf 4e 28 be 4e 7b 5f be 9e 7b 00 be
       0.008978963 -0.16436289 -0.21824381 -0.12547156
000300 76 cb 43 3e 54 6d 64 be d4 48 39 be 56 26 49 3e
       0.19120583 -0.2230733 -0.18094188 0.1964353
000310 74 75 ab 3d 23 e0 82 be 94 d2 b2 3d b0 09 51 be
       0.08372012 -0.25561628 0.08731571 -0.20413852
000320 4a c0 25 3e 56 ad 9f bd 9c 1e 0d 3e ca 0c 23 be
       0.16186634 -0.07796733 0.13781208 -0.15922847
000330 e4 17 77 3e e8 90 da bd a8 42 1c 3d 0a 4b 38 be
       0.24130207 -0.1067217 0.038149506 -0.17997375
000340 ec 07 b4 3d d8 6d 81 3d 80 2a 01 bd 68 c8 3a 3e
       0.087905735 0.06319779 -0.03153467 0.18240511
000350 ac 8c 05 3e 00 e5 5f bb 9a 9b 56 be 2c f7 0a 3e
       0.13041943 -0.0034163594 -0.20957795 0.13570851
000360 54 ff fe bd 52 d1 61 3e 90 cb 3d 3e 87 a2 80 3e
       -0.12451044 0.22052506 0.18534684 0.25124
000370 f8 5c 15 bd 40 c3 0c 3d b0 fa 14 bd 10 64 fc 3c
       -0.036465615 0.034365892 -0.036371887 0.030809432
000380 0a 26 49 3e c9 d6 00 be 60 02 7b bd c6 9a e3 bd
       0.19643417 -0.12581934 -0.06128156 -0.11113505
000390 1d 63 7f be 1c e6 0e 3e 18 c6 36 be a8 7f 63 3d
       -0.24940152 0.13954967 -0.17849004 0.055541664
0003a0 62 83 85 bd a6 bd 9b bd a8 65 4a 3e 7c 0d 40 bd
       -0.065192 -0.07604532 0.19765341 -0.04688786
0003b0 f6 07 ff bd b6 12 78 be e8 37 4c 3d 18 30 e6 3d
       -0.1245269 -0.24225888 0.049858004 0.11239642
0003c0 76 2f 96 41 9b 4e ad 41 8b e7 aa c1 f9 dd b1 c1
       18.773174 21.663382 -21.363058 -22.233385
0003d0 d7 5e cf c1 95 f6 03 40 71 25 53 c1 49 2a 59 41
       -25.921309 2.0619252 -13.196641 13.572824
0003e0 83 d0 74 41 8a b9 e1 c0 01 97 eb 3d 5e 3f 08 c1
       15.300906 -7.053899 0.11503411 -8.5154705
0003f0 d7 ef c1 41 9b 95 2a 42 2a b0 1a c2 20 14 84 be
       24.24211 42.6461 -38.672035 -0.25796604

bias f4 [32]
000000 c6 60 15 42 d6 13 7d 3e 90 e5 df bc 96 6c bf c1
       37.344505 0.24714598 -0.027331144 -23.92802
000010 f8 6e 3e 3d ed bc ad 3d 98 bc b5 bc 34 c8 26 3e
       0.046492547 0.084833 -0.022184655 0.16287309
000020 a2 3a 29 3e 78 74 0b 3e 76 45 16 42 80 22 15 42
       0.16526273 0.13618648 37.567833 37.28369
000030 14 4b 63 3e f4 0e 5a 3e dc 97 68 bd 8e 70 b0 bd
       0.22196609 0.21294767 -0.05678545 -0.08615218
000040 2b 2a 16 42 ea 3d 4c 3e e4 c9 f6 3d 65 9c 14 42
       37.54118 0.19945493 0.12050226 37.15273
000050 d6 3b 95 3d 20 01 5e 3e 7c 87 95 bd 76 be 7c 3e
       0.072868034 0.21680117 -0.07301232 0.2468203
000060 79 0b 15 42 9f c4 1d 40 ee 64 81 bd e4 3e 67 3e
       37.261204 2.4651258 -0.06318079 0.22582585
000070 18 c3 12 3e ba 99 44 be 0a 16 d6 bd 22 4f 35 41
       0.14332235 -0.19199267 -0.10453422 11.33182

weight f4 [16, 32]
000000 05 88 20 3d 5a 8a be 3d c1 51 13 3e c8 6d 1e 3c
       0.03919222 0.09303732 0.14386655 0.009669729
000010 20 1a 54 3c 38 87 32 3d d6 2a d6 3d 8a 91 06 be
       0.012945682 0.043585986 0.10457389 -0.13141456
000020 50 87 21 be 56 f7 d0 bc b5 46 8c bd 2b a2 f5 bd
       -0.15774274 -0.025508564 -0.06849424 -0.11993822
000030 a0 84 60 3c 80 61 c8 bc 18 03 e1 bc 84 d7 2c bd
       0.013703495 -0.024460554 -0.027467296 -0.04219772
000040 72 6b 43 be e0 4d 0d 3c f8 94 71 bd a9 04 36 be
       -0.19083956 0.008624524 -0.05897996 -0.17775215
000050 0a 8f bb 3d a4 71 03 3d fa 71 32 be d0 d3 7a 3c
       0.09158142 0.032090798 -0.17426291 0.015309289
000060 0b 44 51 bb d7 a8 f7 bd 98 e3 4c 3d b8 0c 32 bd
       -0.0031931426 -0.120927505 0.050021738 -0.04346916
000070 e0 d2 2d be f0 34 07 bc 16 93 da 3d ca 7f 80 bd
       -0.16974974 -0.008252367 0.10672586 -0.06274374
000080 a5 d4 3c be 13 22 2c 3e 68 37 8f bc e8 7a 92 be
       -0.18440492 0.16809873 -0.017482474 -0.28609395
000090 d0 38 13 bd 7f bc 55 be 80 7b 2d 3b f6 0a cc 3d
       -0.035942852 -0.20872687 0.0026471317 0.09963028
0000a0 d1 e6 29 3e 2f 0f 5c be 6c 26 d9 be 41 7c 72 be
       0.16591956 -0.21490167 -0.42412126 -0.23680212
0000b0 f0 35 67 bd 90 4b 18 bc 74 ab 14 be d7 ad e3 bd
       -0.056447923 -0.009295359 -0.14518529 -0.11117142
0000c0 9d e0 37 be b4 3e 11 be 7a f7 ca bd 22 8f cc be
       -0.17956777 -0.14184076 -0.09910484 -0.39952952
0000d0 e0 e4 52 bd 90 90 f5 bd 37 a3 1d 3e 32 12 ff 3d
       -0.051487803 -0.11990464 0.15394293 0.12454642
0000e0 64 e1 f1 be 3d 55 f2 bd c9 d5 1d 3e 08 54 92 bd
       -0.47242272 -0.11832664 0.15413584 -0.07144934
0000f0 74 ec 22 bd 60 5f bf bc f1 d9 25 3e 51 30 28 be
       -0.03977628 -0.023360908 0.1619642 -0.16424681
000100 88 92 3d be b3 f5 cc bd 1b bd 06 be 12 f9 11 be
       -0.18512928 -0.10007801 -0.13158076 -0.14255169
000110 e8 a6 b1 bc 3f 40 ee bd 69 34 0c 3e 98 7a 53 bd
       -0.021686032 -0.11633348 0.13691868 -0.051630586
000120 10 2e b6 bc 36 63 a7 3d f4 9e eb be a0 78 ce be
       -0.022238761 0.0817322 -0.4601971 -0.40326405
000130 ff ff 16 be e8 5a 8b 3c a0 63 f3 bb bd 62 81 bd
       -0.14746092 0.01701112 -0.0074276477 -0.06317661
000140 3b 3e 2f be 64 35 31 be 98 9a 20 bd e0 af 94 be
       -0.17113583 -0.17305523 -0.039209932 -0.29040432
000150 c4 36 00 be b8 fd 82 3d f7 e4 16 3e e8 6b 02 be
       -0.12520891 0.06396049 0.1473578 -0.12736475
000160 db 55 3b be 21 10 be bd 12 98 96 3d f0 91 bb bc
       -0.1829447 -0.0928042 0.07353224 -0.022896737
000170 b6 54 c0 3d d3 86 1e be 00 7d 61 bb b0 3d 31 bc
       0.09391157 -0.15481119 -0.0034406781 -0.01081793
000180 6b 13 30 3e f0 00 25 bc ec 00 2f bd 50 c0 38 bd
       0.17194907 -0.010071024 -0.04272549 -0.04510528
000190 8e 71 9c 3d 13 bd e3 bd af 47 b9 bd 35 34 9b bd
       0.07638846 -0.111200474 -0.09046876 -0.07578317
0001a0 36 20 c2 3d 48 49 ad bd 9e df 23 be ea 3f 89 bd
       0.094788 -0.08461243 -0.16003272 -0.06701644
0001b0 cd ad cb bd 94 36 0a be 42 86 ad bd 00 14 b8 b9
       -0.09945259 -0.13497382 -0.08472873 -0.00035110116
0001c0 cf b9 22 be ac 05 16 be 60 27 af bc 5c e1 eb bd
       -0.15891193 -0.14650601 -0.02138108 -0.11517593
0001d0 c1 2e 10 3e 1c 80 3b bd 21 f5 8c bd d7 d6 91 bd
       0.14080335 -0.04577647 -0.06882692 -0.071210556
0001e0 a0 a9 d3 3c b1 e7 32 be 83 44 c4 bd 35 0b ac bd
       0.02583772 -0.17471196 -0.0958338 -0.08400575
0001f0 c3 9a e2 bd a6 e2 f9 bd 84 d8 6a 3d 93 d1 13 3e
       -0.11064675 -0.12201433 0.05733539 0.14435415
000200 5b b7 43 40 9f d3 31 3e 8a 70 d9 3d e5 01 42 41
       3.0580661 0.17365883 0.10617168 12.125463
000210 00 9e 45 3b 93 f1 fc 3d 7e e1 2e be ed f4 1d 3e
       0.003015399 0.12350764 -0.17078206 0.15425463
000220 ee a4 cf 3d 14 96 22 bc d1 3f 40 40 d2 af 40 40
       0.1013888 -0.009923477 3.003895 3.0107312
000230 f4 81 bd bd 51 8b c7 bd 80 b2 b1 bb 3b 66 10 3e
       -0.09253302 -0.09743369 -0.00542289 0.14101498
000240 82 16 4b 40 bd d0 b5 bd 38 1d 7f bd 38 5e 36 40
       3.1732488 -0.08877704 -0.062283725 2.8495007
000250 0f a2 3c 3e 6d 02 23 be 7b 08 9f bd 31 ae 08 3e
       0.18421195 -0.15918894 -0.077652894 0.13347699
000260 92 7c 35 40 7c e4 9d 40 a6 40 2b be 66 af fb 3d
       2.8357282 4.934141 -0.1672388 0.12289314
000270 25 9b 2c be eb 2b 2e 3e eb 0d 14 be 76 a9 6a 40
       -0.16856058 0.17008941 -0.14458434 3.666593
000280 8c 5b 4a 40 1c 3d 43 bd b0 c2 10 3d f6 d4 43 41
       3.1618376 -0.0476657 0.03534192 12.239492
000290 64 ab fb bd 31 8d 31 bd b8 1a 7f 3d a9 83 92 bd
       -0.122885495 -0.04334754 0.06228134 -0.071540184
0002a0 80 22 c1 bb 33 0e 37 3d b7 c5 39 40 c4 90 3a 40
       -0.0058940053 0.044691276 2.9026926 2.9150858
0002b0 53 9d 31 be 55 35 03 3e 98 43 89 3c 45 73 12 3e
       -0.1734517 0.12813313 0.016755864 0.14301784
0002c0 18 d6 46 40 c3 be 24 3e 80 e6 46 3c 20 cd 32 40
       3.1068172 0.16088395 0.012139916 2.7937698
0002d0 02 64 cc 3d 24 67 3e bd 40 c4 ce bc 3e b0 85 bd
       0.099800125 -0.04648508 -0.025240064 -0.06527756
0002e0 82 d7 44 40 93 62 a3 40 4f ea 05 be 80 e3 cc bc
       3.0756536 5.105783 -0.13077663 -0.025010824
0002f0 05 91 16 3e c9 c5 21 3e 73 2a 2c 3e 78 f2 6b 40
       0.14703758 0.15798105 0.16813068 3.686674
000300 b3 cf 4b 40 df 92 19 3e d0 ba 5d 3c 5c 47 45 41
       3.184552 0.14997433 0.013533309 12.329922
000310 c7 c2 0e 3e 90 ea 6b 3e 07 5d 89 bd cc 4c 95 3d
       0.13941489 0.23038697 -0.06707197 0.072900385
000320 d3 91 10 3e 18 f9 27 bd 10 ca 49 40 99 f2 39 40
       0.14118128 -0.04100904 3.152958 2.905432
000330 68 18 8a 3c e8 c7 f0 bc 90 1d 2c be 80 e9 1f 3b
       0.016857341 -0.029392198 -0.16808152 0.0024400651
000340 9b 91 4f 40 12 84 a4 3d a5 95 c9 bd 37 63 2a 40
       3.243262 0.08033003 -0.098429956 2.6623056
000350 47 da 0b 3e 71 a9 29 be 81 5d 20 be 4c eb 5e 3d
       0.13657485 -0.16568543 -0.15660669 0.054423615
000360 e2 25 3f 40 08 f5 9d 40 5a 05 a7 3d 28 73 f4 bc
       2.9866872 4.936161 0.081553176 -0.029840067
000370 da 7c a0 3d a2 41 77 bd f4 de 7a 3d bf 6a 61 40
       0.078363135 -0.060365327 0.06124778 3.5221403
000380 7e d3 85 be a0 8e 26 bd 69 29 0c be d5 01 d1 3e
       -0.26137918 -0.04066336 -0.13687672 0.4082171
000390 10 8a 21 3d 4e db e8 3d 26 3e fb 3d 82 c8 0f be
       0.039438307 0.11369954 0.12267713 -0.14041331
0003a0 b6 e1 de 3d 04 fd 4c bd 13 d3 4e be 0c da ef be
       0.10882895 -0.050045982 -0.20197706 -0.46846044
0003b0 97 c6 1f 3e 54 e7 22 3d 50 0e 59 bc f4 5c ef bd
       0.156031 0.039771393 -0.013248041 -0.11687651
0003c0 0a 01 76 be 5c 36 11 be 58 23 e6 3c 09 1f 84 be
       -0.24023834 -0.14180893 0.028093025 -0.25804928
0003d0 63 2c b4 bd cb 9b 34 3e fc d7 2a be 00 5a 82 bc
       -0.087975286 0.17637555 -0.16683954 -0.015912056
0003e0 31 b7 fe be cd 1c b0 be be 2c c6 3d 06 30 7f bd
       -0.4974914 -0.34396973 0.09676503 -0.062301658
0003f0 b3 dd 14 3e 10 ac 07 be 4e 48 33 be a9 07 a8 be
       0.14537697 -0.1324923 -0.17508051 -0.32818344

bias f4 [16]
000000 ab 28 8b be 99 db 27 be 7a 4b f3 be 2f 51 08 3e
       -0.27179465 -0.16392364 -0.47518522 0.13312219
000010 d2 43 08 42 67 5d 09 42 64 aa 08 42 b6 29 bf bd
       34.06623 34.341213 34.166397 -0.093341276
000020 89 4e 06 42 df 38 07 42 3e b7 5e be e8 10 5b 3d
       33.576694 33.80554 -0.21749589 0.05348292
000030 74 63 da be 42 6f 47 be 75 d5 09 42 9d 06 06 42
       -0.42654002 -0.19476035 34.458454 33.50646

weight f4 [1, 16]
000000 30 e9 5c bd 38 ee 2d 3e 32 4b 64 3e 4c 6d 5c 3e
       -0.053933322 0.16985404 0.2229431 0.21526068
000010 9f ca 8e 40 ab ac 8c 40 cc ac 8d 40 11 86 a9 be
       4.462234 4.3960776 4.4273434 -0.33110097
000020 0c 27 91 40 de ac 92 40 0f 56 2e bc aa 87 66 be
       4.5360165 4.583602 -0.010640635 -0.22512689
000030 07 3f f4 3d 71 6d a6 bd 4e 7f 8e 40 ea 40 91 40
       0.11926084 -0.08126343 4.45304 4.539174
