api/home_price_model_bhi.pth (torch, 130961 bytes, 7 tensors)

weight f4 [313, 10]
00000000: b726 a3bf c522 0840 5d2d 7b40 983f fcbf
00000010: 5b7d e9c0 c95d f63f aad5 b4c0 77f2 2f40
00000020: d0b2 c140 6ac6 c840 8b6c 56bf 8a34 0c3f
00000030: 061d 563f 0872 02bf e3ac 30bf 6cd1 51bf
00000040: 078b 28bf 2267 91be fbdf 8fbf 3ef2 2540
00000050: 25cd ecbf 917e a03f 853d 6940 76dc babf
00000060: bf14 81c0 8be4 a43f 8a7c 94c0 8412 7a3f
00000070: 321f 3e40 9a72 0a40 3c9f 3cc0 1fd6 1e40
00000080: 8ddf e73f 9e10 04c0 b3e1 4ac0 3e17 e43f
00000090: 9ba6 9dbf 0699 293f bcf5 ac3f 9679 6e40
000000a0: 9a16 84bf 768d 483f 1e75 5b40 661c 79c0
000000b0: 412e 39c0 e5ef 6140 c040 afc0 2721 8740
000000c0: b700 9040 ec93 8440 6cd1 d63f 8b21 a2bf
000000d0: 5650 b83f 70fe eebf 01ca b8c0 4808 903f
000000e0: b1ad 32c0 453c 803f 3a6b c53f 43c5 7c40
000000f0: 12e6 14c0 cc25 4340 6e40 5440 7d28 b2bf
00000100: c9c6 88c0 4964 7240 4f11 4ec0 c36b 3440
00000110: ab94 da3f 4a02 b040 fadf febf 8254 fb3f
00000120: a860 3240 e9df 9ebf 869c 2bc0 c88b d23f
00000130: ecaf 63c0 f11d 7e40 197b fd3f 4b3e 6640
00000140: d838 edbf 8ea1 ac3f 6191 0c3f 1337 263e
00000150: 7608 cfbf b9a7 9b3f 4789 f6bf 7985 03bf
00000160: f00f 943f 8af0 bb3f 2163 d5bf 0025 263f
00000170: d7a4 1040 0b9c d1bf c55b 6fc0 c393 1c40
00000180: 0ae1 21c0 3864 c23f 556f 1a40 0ed0 7d40
00000190: b638 4bc0 5b81 7640 e22b 3d40 6090 6abf
000001a0: 8e5b 99c0 de9e 8340 69b1 60c0 da95 103f
000001b0: 6205 4a40 85c4 8b40 886f 15c0 41dd 5140
000001c0: 73ba 8140 f779 90c0 baad 38c0 1436 1f40
000001d0: 38c9 04c0 56ad 0640 bc5c bb3f 0ed7 e03f
000001e0: d7c2 9cbf 050a 3040 31bf 7e40 8ee2 04c0
000001f0: fd69 21c0 7fa4 0b40 add1 32c0 42de 7240
00000200: 306a 4540 dc0d 2840 e42b ecbf 7c62 4940
00000210: 0aef 3e40 fdae 49c0 3fa8 b2bf f115 2c40
00000220: 49ea 1bc0 58fb 6d40 b390 5a40 34c7 3740
00000230: 08ae 06c0 1903 f1be 1a93 1540 5d2b 24c0
00000240: 110d 42c0 2ae9 dbbc 42bc 79c0 ca05 e03f
00000250: 7fbd 0f40 5293 1c40 c043 3fc1 7307 3d41
00000260: 7922 4541 ad83 20c1 1dea 25c1 7de2 4e41
00000270: 250d 0ec1 3b36 1041 f219 3b41 c1d0 3541
00000280: 26e6 aabf df95 40bf bf79 2140 94fc 7a3f
00000290: 70c1 28c0 c60e 8f3d eccd 50c0 e82d c5be
000002a0: 2513 f03f fae6 5040 8fbf 1fbf cb19 843f
000002b0: fcca 933f 90de cbbe e1af 98c0 fa55 023f
000002c0: 0cac c9c0 9086 0d40 a304 963f 5f88 7640
000002d0: 3710 8abf af6e ae3f 6c7f 9b40 f049 1dc0
000002e0: a7d5 c0c0 dc89 9140 00c6 95c0 581c 8b40
000002f0: 823f 9840 5799 8a40 46f0 b5bf bec9 1440
00000300: 2316 b23f 8278 16bd bf8c e4bf 5ab6 803f
00000310: e5de f8bf 372a 2a40 a2e0 47bf 78b5 9b3f
00000320: 7f39 f1bf b739 bd3f 03cc 4340 0d56 b7bf
00000330: 8fec a9c0 2a20 3140 8a3a 4cc0 f62a 1740
00000340: 777f 0340 e2d8 8640 9983 0fc0 d4cd cc3f
00000350: f35e b03f bdc1 febf 4872 52c0 0525 c53f
00000360: 8572 89c0 ad52 503f a4c5 c83f bde8 913f
00000370: 1bb1 b2c0 70ff 4a40 b53b d440 a3eb 57c0
00000380: bda9 82c0 be17 c940 e519 70c0 fdbf 8e40
00000390: d45f 7e40 4a0b b840 bd46 5fbd 9bcc 89bf
000003a0: d2cc 9b3f 6610 0e3f 596d 70c0 4d9f 93bf
000003b0: f3cc 9bc0 13da 04c0 bdd6 e13d b18f 0240
000003c0: 564e 0fbf 36cb aebf bc6d 9040 c645 013f
000003d0: c92c d2c0 bdc6 a7bf be7c dbc0 1240 e5be
000003e0: 3d4a 0840 1544 9940 98b7 7f3e 5cfe acbf
000003f0: 7bfd 64bf 92eb 203f 0956 3abf f79e c9bd
-1.274619 2.1271222 3.9246438 -1.9706907 -7.296552 1.9247371 -5.651082 2.7491739
6.0530777 6.2742205 -0.83759373 0.5476767 0.83638036 -0.5095525 -0.69013804 -0.8196018
-0.6583714 -0.28398997 -1.1240228 2.5929103 -1.8500105 1.2538625 3.6443799 -1.4598529
-4.0337825 1.2882246 -4.6402025 0.976845 2.970654 2.1632447 -2.947219 2.481819
1.8115097 -2.0635142 -3.1700256 1.7819593 -1.2316469 0.6624912 1.3512492 3.726171
-1.0319397 0.7834085 3.4290233 -3.8923583 -2.893448 3.530267 -5.476654 4.222797
4.5000873 4.143057 1.678266 -1.2666487 1.4399517 -1.8671398 -5.7746587 1.1252527
-2.7918513 1.0018393 1.5423348 3.94954 -2.3265424 3.049182 3.3164325 -1.3918606
-4.274266 3.787371 -3.2198064 2.8190773 1.707662 5.5002794 -1.9912102 1.9635165
2.7871494 -1.2412082 -2.6814284 1.6448908 -3.5576124 3.9705775 1.9803191 3.597552
-1.8532972 1.3486803 0.5490933 0.16231947 -1.6174457 1.216056 -1.9260644 -0.5137554
1.1567364 1.4682782 -1.6670877 0.6490021 2.260061 -1.6375746 -3.7399762 2.4465187
-2.5293603 1.5186834 2.4130452 3.9658237 -3.1753364 3.8516452 2.9558034 -0.9162655
-4.792426 4.113143 -3.5108283 0.56478655 3.1565785 4.367739 -2.3349323 3.2791293
4.05401 -4.5148883 -2.8856034 2.4876757 -2.0747814 2.1043296 1.4637675 1.756563
-1.224696 2.7506115 3.9804194 -2.0763278 -2.522094 2.181915 -2.7940476 3.7948155
3.0846062 2.625846 -1.8450894 3.146636 2.9833398 -3.1513054 -1.3957595 2.6888392
-2.4361746 3.7184658 3.4150817 2.8715334 -2.104372 -0.47072676 2.3371034 -2.5651467
-3.0320475 -0.02684458 -3.9021153 1.7501767 2.245941 2.4464917 -11.954041 11.814319
12.320916 -10.032147 -10.369657 12.930295 -8.878209 9.01324 11.693834 11.363465
-1.3351486 -0.75228685 2.5230558 0.98041654 -2.6368065 0.0698524 -3.2625685 -0.38511586
1.8755842 3.2640977 -0.6240167 1.0320371 1.1546321 -0.3981824 -4.7714696 0.5091244
-6.302252 2.211338 1.1720165 3.8520734 -1.0786198 1.3627528 4.8593044 -2.4576378
-6.0260806 4.5480785 -4.68042 4.34721 4.7577524 4.3312182 -1.4213951 2.3248134
1.3913006 -0.03673602 -1.7855452 1.0055649 -1.9443022 2.6588266 -0.7807714 1.2164755
-1.8845671 1.4783238 3.059327 -1.4323136 -5.310127 2.7675881 -3.191073 2.3619971
2.0546548 4.213975 -2.242407 1.6000314 1.3778976 -1.9902874 -3.2882252 1.5401922
-4.2952294 0.81376153 1.5685315 1.1399151 -5.5841193 3.1718407 6.6322885 -3.3737571
-4.08322 6.284148 -3.7515805 4.460936 3.974599 5.751378 -0.05451082 -1.0765566
1.2171881 0.5549377 -3.756674 -1.153299 -4.868768 -2.0758102 0.11027286 2.0400202
-0.55978906 -1.3655765 4.5133953 0.5049709 -6.567967 -1.3107525 -6.8589773 -0.44775444
2.1295311 4.789561 0.24972379 -1.3515124 -0.8944928 0.6285945 -0.7278753 -0.09844773

weight f4 [1563, 10]
00000000: adfb 20bf 34ae 2b3e 30fb ffbf c7e1 dbbf
00000010: 987f 063f b34b 583e 48d8 a4bf 7823 0c3f
00000020: 97f9 b6be 1685 19bf 8aca 8740 c7e3 2b40
00000030: 67d6 fc3f 8d81 9240 535b 32c0 3bf9 4ec0
00000040: 5c4d 1540 c617 6bc0 bba7 eabf d129 3940
00000050: 4f6f 4040 60e8 2340 43fd 3c40 ba4e ac40
00000060: 96e7 b2bf 45c5 5bc0 16ce 0040 1bc3 1fc0
00000070: c1ad 0fc0 27e0 3740 4531 8940 bc8b 9440
00000080: 77f9 9040 86af 6a40 73ff 7cc0 61a2 96c0
00000090: c320 9b40 08c0 8dc0 b49e ccc0 bc72 6040
000000a0: 6763 c53f 4784 8f3f 38d9 e13f 7bd3 aa3f
000000b0: 2f1b 443e 2d4e 09c0 4774 ee3f 6edd dcbf
000000c0: efe3 dabf 01b3 4c40 a1f6 aebe 0574 6d3f
000000d0: 3a7b ae3d c93c 643f 4100 4abe 36c2 d5bf
000000e0: 3137 efbd 8ca0 8fbf 8f62 86bf 6464 8fbe
000000f0: 0083 94bf 6f09 c03f 6a71 233f dd7c fabf
00000100: 2e99 afbe 1ab0 b1bf daf9 e43e 0b79 d0bf
00000110: 3e29 a5bf cd87 ee3c b4ca 723f e0f5 a43f
00000120: a754 e7be bc96 ce3f 581a 863e 8ff3 cdbf
00000130: ab65 2a3f 6792 1fbf 466d 993d 8627 2dbf
00000140: f7f0 3840 8a5f 6d3f 91a0 d13f 1885 8840
00000150: c83e 3cc0 770b 24c0 52c8 8a40 88e1 84c0
00000160: a083 58c0 9d8d 8a40 9bad 3dbe 41a8 b53e
00000170: 81aa 7e3f ecca 0c40 082a 38bf 3737 0dc0
00000180: bd8c 253f 570d f83d 3666 ebbf 7459 f2bd
00000190: c70d c63f 34f7 1a40 8a91 e03f 1d9f 3d40
000001a0: 69c0 99bf 44cf fabf d386 9e3f 756e afbf
000001b0: e3c7 79bf 2850 813f e44a 553f 6e26 cdbf
000001c0: 1d95 efc0 8338 71bf 82c3 fa3f 9b4b fc3e
000001d0: 883f 64c0 7e41 6340 d646 9f3f 472c 7bbf
000001e0: 0ff8 d93e b920 b03d e9bc 9dc0 1633 023f
000001f0: f6bc 0a40 7905 14be 1304 03c0 15e3 f33f
00000200: 7336 59be 86cc 05bf 230b 68bf f142 05bf
00000210: 4896 a2c0 0ea3 43be 5b9a a33f cd0e aa3e
00000220: eb04 27c0 8385 ef3f 2158 e7bf 2e34 47bf
00000230: 8990 873f 318f 4e3f 58c2 80c0 e83f 29be
00000240: 6209 52bf 5983 49bf e6ae 1a3f bce9 7dbf
00000250: 9365 02c0 5682 7dbe f06e adbf 2ed8 553e
00000260: 1baa 82c0 4394 56bf 0e0a 2840 80a2 923f
00000270: b6fd 45c0 6686 8640 fcc7 8e3f e414 9cbf
00000280: 6b02 3ebf cb85 ddbf 0ea3 4ebd 093e 08bf
00000290: 620b 6c3f 6d6b 053f c3b1 d7bf b891 3c3f
000002a0: 8813 f23f 6e2b 94bf 65ea 11bf 0514 89bf
000002b0: dc73 afbf 4f9d 18c0 bf5c 4640 1800 5a3f
000002c0: 7ffe 31c0 fe9f 523f bed8 1a40 38e3 fe3e
000002d0: eae0 edbe 806d 99bf 29b2 97c0 a886 0ebe
000002e0: b538 6bbf da64 a9be 5413 edbf 3a57 2340
000002f0: 3e64 823f a7cc 893f e281 c63f fa67 c3bf
00000300: 0985 a0c0 62b8 8c3e 2399 0040 8a75 ac3f
00000310: b433 26c0 e9d3 8a3f 2244 a1be ed92 37c0
00000320: 5d52 ad3f 9d30 33bf d1e7 c13f d705 9ebe
00000330: 3bc5 cebd d947 7ebf 3702 da3e 1c3a a9bd
00000340: 64de 9c3f 7cec 883f e43f 753f 2626 2ec0
00000350: 37ba ab3c e9b0 33be dece ce3e 3327 c73e
00000360: 8fb9 e03e f0fc 84bf 8511 a73c 1691 1ac0
00000370: 9201 73c0 149b 31bf 1e58 b0c0 907d 59c0
00000380: 1c89 0941 d3bf 0f3e 6570 1fc1 0b5a 2641
00000390: 0c5d e93f 190c 98c0 59e1 16c0 560b 193f
000003a0: a6f1 19c0 5561 93bf e8e7 e73f d05e dc3e
000003b0: a78f 323f 556c 0940 cd7f 853f fb81 aebf
000003c0: 65fb 4cbf 88f8 41bf 1024 653e fc75 b33f
000003d0: 32b8 163c 001e 4cbf 37ba 723d 4db8 adbf
000003e0: dac4 eb3e 9f73 353f c3c2 9e3f b89c 583f
000003f0: c7cc 9e3f 2a31 1a3f c2b2 d2bc 3cdf 6cbe
-0.62884027 0.16765672 -1.9998531 -1.7178277 0.5253844 0.21122627 -1.2878504 0.5474162
-0.35737297 -0.599687 4.243474 2.6857774 1.975293 4.5783143 -2.786824 -3.2339618
2.3328466 -3.673326 -1.8332437 2.8931773 3.0067937 2.561058 2.9529579 5.38461
-1.3976924 -3.4339154 2.0125785 -2.4962833 -2.24498 2.8730562 4.2872643 4.6420574
4.5304523 3.666963 -3.9530914 -4.7073216 4.847749 -4.4296913 -6.394373 3.5070028
1.542096 1.1212243 1.7644415 1.3345789 0.19150995 -2.1453965 1.8629235 -1.7255075
-1.710081 3.1984255 -0.34172538 0.92755157 0.08519597 0.8915525 -0.1972666 -1.6699893
-0.11680449 -1.122087 -1.0498828 -0.2800628 -1.1602478 1.5002879 0.6384493 -1.9569355
-0.34296554 -1.3881867 0.44721872 -1.6286939 -1.2903211 0.02911749 0.9484055 1.2887535
-0.45181772 1.613975 0.26191974 -1.6089953 0.66561383 -0.6233277 0.074915454 -0.6763843
2.8897073 0.92723906 1.6377126 4.266247 -2.9413319 -2.5631998 4.336953 -4.1525307
-3.3830338 4.329787 -0.18523256 0.3547993 0.9947892 2.1998854 -0.71939135 -2.206495
0.64667875 0.121119194 -1.8390567 -0.11833468 1.5472955 2.421338 1.7544415 2.9628365
-1.2011844 -1.9594502 1.2384895 -1.3705584 -0.9757063 1.0102587 0.833174 -1.6027353
-7.4869523 -0.94226855 1.9590914 0.49276432 -3.5663776 3.5508723 1.2443492 -0.98114437
0.42572066 0.08599991 -4.9293103 0.508592 2.1677833 -0.14455213 -2.0471237 1.9053675
-0.21212177 -0.52265203 -0.90641993 -0.5205527 -5.080845 -0.19105169 1.278148 0.33214417
-2.6096752 1.871262 -1.807377 -0.77813995 1.0590984 0.8068724 -4.0237236 -0.16528285
-0.8204557 -0.78716046 0.60423124 -0.99184775 -2.0374496 -0.2475675 -1.354948 0.20883247
-4.083265 -0.8381998 2.6256137 1.1455841 -3.0936103 4.203906 1.115478 -1.2193875
-0.7422244 -1.7306455 -0.05044847 -0.5321966 0.9220487 0.52117044 -1.6851124 0.7365985
1.891221 -1.1575754 -0.5699828 -1.0709234 -1.3707232 -2.3846014 3.0994108 0.85156393
-2.7811582 0.8227538 2.419479 0.4978273 -0.46460658 -1.1986542 -4.740498 -0.13918555
-0.91883403 -0.33084756 -1.8521523 2.552199 1.0186841 1.076558 1.5508387 -1.5266106
-5.0162396 0.27484423 2.0093467 1.347337 -2.5969057 1.084592 -0.31497294 -2.8683426
1.354076 -0.69996053 1.514887 -0.3086383 -0.100962125 -0.9932838 0.42579815 -0.082630366
1.2255368 1.0697169 0.95800614 -2.7210784 0.020962818 -0.17547955 0.40392202 0.38897094
0.4389157 -1.038969 0.020394096 -2.4151053 -3.7969708 -0.69377255 -5.5107565 -3.3982887
8.595974 0.14038019 -9.96494 10.396983 1.8231521 -4.751477 -2.3575041 0.5978292
-2.405374 -1.1514078 1.8117647 0.43041086 0.69750446 2.147237 1.0429627 -1.3633417
-0.800711 -0.75769854 0.22377038 1.4020381 0.009199189 -0.79733276 0.05925962 -1.3571869
0.46048623 0.7087955 1.2403187 0.84614134 1.2406243 0.6023127 -0.025720004 -0.23132032

weight f4 [64, 25]
00000000: 8053 1ebe 5ee5 363e ae3e 3c3e 3dea b6be
00000010: abde 2bbe d6ae f43e 4932 eabe d654 083e
00000020: 710e c83e 58d6 393e a04a 41be 187d e2be
00000030: 2e41 f3be 7aae 97be 3439 983e c8b4 583e
00000040: b3d0 b2be 8c1f 9b3e c642 923e 2309 6bbe
00000050: 1e2b a4be f2a4 43be 0ec7 44be 5942 26be
00000060: dab0 bbbe f345 43be 4b83 253e 9fcd 0b3e
00000070: d030 9ebc ed6e a1bd a4b8 693d a8a8 debc
00000080: ecfa 053d 372f 9cbd a4da 6e3d 417e 453e
00000090: e0a0 15be 426c 0fbe 7c8d 8bbd 2209 a63d
000000a0: cd1e 463e 72c0 f33d 07d2 2cbe a605 89bd
000000b0: 621b b33d 60a7 0abd ac55 0abd 65e3 45be
000000c0: 000d 4bbc aae4 8ebd db2f 253e b8d6 19bd
000000d0: 8218 9a3d 1ca6 643d c6c6 ea3d 20f5 15be
000000e0: 2e67 f53d c7e2 40be aeaf 9c3d 170f 2dbe
000000f0: d8be dabc 385b 11bd d01f e2bc 0032 cfbd
00000100: 62eb f23d f40c 76bd a491 01be 4052 73bd
00000110: d0e8 9bbc 1a9f d73d 18d1 9fbc a556 22be
00000120: f861 413d 403b 573b 1d64 393e 0b8e 423e
00000130: 6361 3dbe 56b7 96bd 96dd 883d ddc1 a4bd
00000140: 1397 223e aff1 2f3e a187 293e f6c3 c53d
00000150: a03c 39be 7340 e7bd 72ba 2ebe 81d1 3b3e
00000160: c8ff 34bd 30da 0ebc 92e7 d93d 4007 4cbb
00000170: 088e 48be 106f de3c 9871 ce3c cd7e a0bd
00000180: 13df b4bd 3185 183e b102 143e ff1a 2d3e
00000190: 6e60 e63d b7cb aabd e839 00be cb0b 2bbe
000001a0: 28ae 5bbd 30bd 183c f508 25be a6a4 84bd
000001b0: 40c3 cc3b a3ea 2fbe eaa2 96bd 545b 2cbd
000001c0: bab7 d23d d8da 2cbd 10e8 a0bc 8c58 033d
000001d0: ac62 94bd cb92 0c3e c717 b8bd a09f 203d
000001e0: aa2b d4bd b99a 1a3e 4c4b 83bd 0a5b a03d
000001f0: feb0 843d 1844 4abe df6a 47be 8232 fe3d
00000200: 2c3e 113d d30a 47be 329c d73d 7589 423e
00000210: 120f 873d 1867 2f3d be25 a43d eab6 40be
00000220: 48fe 3dbd d455 01be 40b1 28bb 28bd b9bc
00000230: 6f13 213e 2fe0 473e b472 96bd e3c1 d7bd
00000240: e14d 3f3e 2ad9 a7bd a679 07be 4a94 cc3d
00000250: 1112 4a3e 02c1 de3d e95a 1bc1 bf5d 1a41
00000260: 45f1 5041 aeb4 0cc1 ae20 5dc1 660d 1e41
00000270: 2527 7dc1 f46c 2741 eb89 5041 5021 7741
00000280: 4bfd 1d41 2351 c040 db70 10c1 9ad7 9240
00000290: 7be0 3140 55fb ffc0 da11 3ec0 ac32 3c40
000002a0: b196 1dc1 5ad2 1cbf 0ac7 f73d bbe6 e8c0
000002b0: ee0a 6e41 ccc3 f341 0aa4 ebc1 0d3f 15c1
000002c0: e4ff 1b41 8845 4a41 a975 0ec1 d709 5cc1
000002d0: f60b 1d41 a80f 7fc1 fb4b 2c41 ba1a 4e41
000002e0: 0f71 7941 868c 1a41 6474 c440 dd1a 0dc1
000002f0: 79e4 8f40 d64a 3740 a407 00c1 b07c 46c0
00000300: a056 3740 dff9 18c1 1b93 1cbf b5b2 053e
00000310: ca42 ebc0 a66a 6941 f962 f141 8842 eac1
00000320: b774 07c1 b729 b140 df22 5dc1 ab20 bcc0
00000330: 71bf ca41 5116 6540 e067 c741 4bac 3e40
00000340: acf5 34c0 3440 b9c1 4fe4 4541 3b91 8541
00000350: 5f60 1942 a99d 8641 8a6f e7c1 71a8 43c1
00000360: aa8f c741 a6b2 c1c1 3bee 03c1 fa3a 9a41
00000370: f003 1c3e 40ff 8cc1 ea59 923f c5b3 9540
00000380: e0ba 54c2 bda7 17c1 1d05 1b41 2e69 4841
00000390: ec42 0dc1 4df4 60c1 15fb 1b41 ae42 7cc1
000003a0: ab32 2c41 c915 4c41 a4e4 7741 4e33 1b41
000003b0: 867d be40 e931 11c1 c7c3 8540 8749 4640
000003c0: e31e fcc0 5cc2 57c0 b946 3a40 4749 1ac1
000003d0: 5662 4bbf 05d9 133e fd3a edc0 bda9 6841
000003e0: 39e0 ef41 4ee8 ecc1 c307 f4bd 4004 38be
000003f0: 0e42 0abe 29aa 223e c88f 18bd 139b 36be
-0.1546154 0.17860934 0.18383285 -0.35725585 -0.1678416 0.4778964 -0.4574149 0.13313612
0.39073518 0.18148172 -0.18876123 -0.44236064 -0.47510666 -0.29625303 0.29731143 0.21162713
-0.3492485 0.30297506 0.2856657 -0.22952704 -0.32064146 -0.1910589 -0.19216558 -0.16236247
-0.36658365 -0.19069652 0.16163366 0.13652657 -0.019310385 -0.078824855 0.057060853 -0.027180031
0.03271 -0.07626193 0.05831398 0.19286443 -0.1461215 -0.14006141 -0.068140954 0.08107211
0.19347687 0.119019404 -0.16876994 -0.066905305 0.08745457 -0.033851027 -0.03377311 -0.19325025
-0.012393236 -0.06977208 0.16131537 -0.037558287 0.07524206 0.055822477 0.11463694 -0.14644289
0.119825706 -0.18836509 0.07650696 -0.16900288 -0.02670233 -0.035487384 -0.02760306 -0.101169586
0.11861302 -0.060070947 -0.12653214 -0.05940461 -0.019031912 0.10528393 -0.019508883 -0.15853365
0.04721257 0.0032841712 0.18104596 0.18999498 -0.18494181 -0.07359187 0.06682889 -0.08044789
0.15877943 0.17182039 0.16555645 0.09656517 -0.18089533 -0.112915896 -0.1706331 0.18341638
-0.044189245 -0.008719012 0.10639872 -0.003113225 -0.1958543 0.027152568 0.02520065 -0.07836685
-0.088316105 0.14894558 0.14454152 0.1690483 0.11248861 -0.08339637 -0.1252209 -0.16703717
-0.053632885 0.00932245 -0.16116698 -0.06476717 0.0062488616 -0.1717935 -0.07355292 -0.042079285
0.10288949 -0.042200893 -0.019641906 0.032066867 -0.07245383 0.13727872 -0.0898891 0.03921473
-0.10359891 0.15098085 -0.06410846 0.07829864 0.06479071 -0.19752538 -0.19474362 0.12411977
0.035459682 -0.19437723 0.10527839 0.18997748 0.06594671 0.042822927 0.08015011 -0.18819776
-0.04638508 -0.12630397 -0.0025740415 -0.022673205 0.1573007 0.19519113 -0.07346097 -0.10535028
0.18682052 -0.08195718 -0.13229999 0.099892214 0.19733454 0.10876657 -9.709695 9.647887
13.058904 -8.794111 -13.820478 9.878271 -15.822057 10.4641 13.033671 15.445633
9.874339 6.0099044 -9.027553 4.5888186 2.7793262 -7.99943 -2.9698396 2.9405928
-9.84929 -0.6125847 0.120985106 -7.2781653 14.877668 30.470604 -29.455097 -9.327893
9.749973 12.641975 -8.903726 -13.752402 9.81542 -15.941322 10.76855 12.881525
15.590102 9.6593075 6.139208 -8.819058 4.4966397 2.8639426 -8.001865 -3.1013603
2.8646622 -9.561004 -0.61161965 0.13056453 -7.351903 14.588537 30.173326 -29.282486
-8.465995 5.536342 -13.821013 -5.878988 25.343477 3.579487 24.92572 2.979266
-2.8274946 -23.15635 12.368239 16.695913 38.344112 16.826982 -28.929462 -12.228623
24.945148 -24.21223 -8.245662 19.278797 0.15235877 -17.624634 1.143369 4.6781945
-53.182495 -9.478452 9.688748 12.525679 -8.828838 -14.059644 9.748799 -15.766279
10.76237 12.755319 15.49332 9.700026 5.9528227 -9.074685 4.1801486 3.0982378
-7.8787704 -3.3712378 2.9105666 -9.64289 -0.79446924 0.14438255 -7.4134507 14.54144
29.984484 -29.61343 -0.11915543 -0.17970371 -0.1350176 0.15885223 -0.037246495 -0.17832594

bias f4 [64]
00000000: c6e8 5abe 82fb a83d 5840 ba3c e37a b9bd
00000010: 48db 293d 0092 4c3b 3bfa b241 0585 b041
00000020: 11a7 b0c1 6007 ae41 0040 9eba 2d16 02be
00000030: 77bc d2c0 45ab 9e40 be23 b341 7767 b141
00000040: a200 b141 7d36 d140 ab0e 1bbe 9095 cf40
00000050: b832 4441 821e eb3f 433d b341 4cee ae41
00000060: 1229 4cbe ec84 37bd 742b b541 8edc e5bd
00000070: f1b5 4dbe 21b4 493e d65e d93d a0db b141
00000080: 8592 b041 9d5b b141 db24 46be e704 48be
00000090: 67ab b341 e21a b541 5c55 b041 091a b241
000000a0: 9b42 473e 221a 26be 8363 b441 0f99 af41
000000b0: 6a83 8541 84f9 d93d 53da b141 1724 af41
000000c0: a92a 033e 623f b6c1 5301 d8bd 858d b441
000000d0: bb65 493e b9be 343e 9a1f 80bd 2e13 b341
000000e0: bee6 b23d ad55 303e d6a5 2241 5b89 6bc1
000000f0: 50d2 fc3c 5257 eb3d 2069 403d d5fc c13d
-0.21377859 0.08251096 0.02273576 -0.09056642 0.04146889 0.0031214952 22.372183 22.06495
-22.081575 21.753601 -0.0012073517 -0.12703772 -6.585506 4.958407 22.392452 22.17552
22.125309 6.5379014 -0.15142314 6.487007 12.2623825 1.8368685 22.404913 21.866356
-0.19937542 -0.0448045 22.646217 -0.11223708 -0.20088936 0.1969762 0.10613792 22.232239
22.071543 22.169733 -0.19349997 -0.1953312 22.458693 22.638126 22.04168 22.262712
0.19459002 -0.16220906 22.54859 21.949736 16.689167 0.106432945 22.231604 21.892622
0.12809242 -22.780949 -0.105471276 22.569101 0.19667713 0.1765088 -0.062560275 22.384365
0.08735417 0.17220183 10.165487 -14.721034 0.030862004 0.114912644 0.046975255 0.09472052

weight f4 [32, 64]
00000000: 4ec8 63be 787f e83d 3ec9 a43d 44d2 dbbd
00000010: 7ccb d13d 9c89 613d a779 863f d3cd 8a3f
00000020: 481f 1341 b273 993f 6c12 623d b47d 5ebd
00000030: 6b47 6440 853d 933f a603 963f a843 953f
00000040: 76ec d53e 780d 993f fc28 dcbd f5e0 943f
00000050: 91c5 063f 2add ca3f 12cb 913f d146 933f
00000060: a45c d6bd 2049 14bc b4e2 993f c171 0f3d
00000070: 6281 2d3d e2d9 f73d 0e28 febd 5081 873f
00000080: c2a3 823f eee0 8e3f 8c3d f13d 889b 5bbd
00000090: 5da1 7b3f 5203 913f 7628 743f 898a 883f
000000a0: 0409 3fbd aaa1 b93d 278d 863f 26c3 853f
000000b0: 3d98 b93e 1b07 4e3d e5e3 7d3f 32d0 933f
000000c0: be75 fc3d 68d4 1641 8210 cc3d 3320 6f3f
000000d0: 2cb9 13bd 80ac d2bd c034 27bc 9b6b 873f
000000e0: 40c9 ba3d c83b fc3d d37d 143f ab8c b140
000000f0: 988a dfbd bcb8 1cbd 1059 9bbd 5cc0 943c
00000100: c0d6 96bb 10c5 40bd 660f 8d3d be0a af3d
00000110: bcfc cfbd de0d bc3d 1ab9 4ebe 9911 c9bd
00000120: 4c2c 90bd 7f86 8abd d084 d3bd 5cb9 3ebd
00000130: d867 a83c b7ce 14be f78d 81bb 1c34 d03c
00000140: d721 e7bc 0d7a 09be 7a01 8fbd 425c 9c3c
00000150: c242 a939 5211 0dbe 7652 f2bc 923d 29be
00000160: 0462 2abd 20d2 1bbc 450e debd ef52 b1bd
00000170: a900 05be eed4 fa3d 22f6 c0bd 1c81 97bb
00000180: 0722 0f3d a60e 47bd 2022 37bd 1e92 a33d
00000190: 70d4 c9bd 351b 4dbe b55b 90bd eb3b c2ba
000001a0: fad3 ce3d 12c8 b83d 8757 8c3b 97aa 22be
000001b0: 2f03 28be b1be 96bd 0c1a 6fbd 2327 81bd
000001c0: 1060 33bc cd2e 09bd 3c71 e43d 8bf2 44be
000001d0: e08f 44bc fe61 fc3d 60c3 e63b 0535 0dbc
000001e0: 6cc8 a13d 08e4 fbbc 358f eebd 021a f1bd
000001f0: d872 b3bc 6821 49bd 105a 403d 21c7 d43c
00000200: b298 973d ecf0 d4bd 660a b83d dccc ddbd
00000210: a0b6 91bd a89a 5f3d 1adc 91bd 683c 653d
00000220: 746e f4bd 0817 15bd 90b0 8a3c c029 fa3b
00000230: 2a00 933d b06d d6bd a2b7 eb3d e8df f9bd
00000240: 3079 3cbc 80d6 7cbb 12ee ee3d e40e c7bd
00000250: d4f6 2c3d 6084 a0bb 40d8 913d 9a99 abbd
00000260: 60b7 bcbd 20fd 773c ac4d ee3d f49e cb3d
00000270: 98ff a13c d89e c63d 9887 19bd 3643 dfbd
00000280: d091 f83c 748a 8abd a0fa 6ebd ac47 ca3d
00000290: 4c2a 35bd 3852 c4bc 1cfd 393d 5ca6 c73d
000002a0: 3aab b43d 405a bdbd 2ce7 bbbd 341d 5c3d
000002b0: 505a 973d 962d eb3d 1495 46bd c061 dcbc
000002c0: 6077 063c d053 a2bc 2053 ff3c 9077 993d
000002d0: dc93 d23d e826 b23c 60bc e2bc f293 84bd
000002e0: 94e6 88bd 8029 603d fc3d d23d b8bc a53c
000002f0: 5446 4d3d 50f0 7ebd 2e74 b8bd aad3 9dbd
00000300: fd37 cbbe 589d aebd e2d9 adbd a225 ba3d
00000310: 889c fe3c 6e1f 973d 8138 993f f37a 9a3f
00000320: 3ca5 1341 d5d8 8a3f 38fc ce3d 2a43 9bbd
00000330: 3754 6e40 7b53 a13f c8d8 8f3f d70d 8b3f
00000340: 5d21 083f de66 9b3f c002 41bc 490e 963f
00000350: 9507 f03e 7b33 c43f a4e9 853f cdbe 9e3f
00000360: 2457 ad3d 98bb 723d f424 9e3f 555c 333d
00000370: 63f3 fe3d e629 bf3d 40e9 0dbc 7dc4 9b3f
00000380: dff7 953f ae81 7d3f b4b6 c43d 58c3 15bd
00000390: 6654 6c3f 7b11 7f3f a488 573f d22b 9d3f
000003a0: c8bc 863c d80f 49bd 774d a03f f26c 8a3f
000003b0: 0f72 883e bd74 01bd ddfd 813f 5f68 7a3f
000003c0: 504e 2abc af00 1541 a479 ddbd 2214 813f
000003d0: 603e 32bc 78ab ef3d ba74 c7bd 1142 9d3f
000003e0: ba67 cf3d f849 f63d 6c8e 143f 31d2 ae40
000003f0: 8cc5 bebd 4657 bcbd 101e dbbd fb4d aa3d
-0.22244379 0.11352438 0.080461964 -0.10733464 0.1024389 0.055062875 1.0505875 1.0844063
9.195137 1.1988432 0.05519335 -0.0543191 3.566859 1.1503149 1.1719863 1.1661272
0.41781968 1.1957235 -0.10750005 1.1631151 0.5264521 1.5848744 1.1390097 1.1505986
-0.104668885 -0.0090506375 1.2022309 0.035020594 0.042359717 0.12102105 -0.124099836 1.0586338
1.0206225 1.1162393 0.11779317 -0.053615123 0.98293096 1.1329138 0.9537424 1.0667278
-0.046639457 0.09064038 1.0511826 1.045018 0.3624896 0.050299745 0.99175864 1.1547911
0.12327145 9.426857 0.09964086 0.9340851 -0.036065266 -0.10286808 -0.010205448 1.0579714
0.09120417 0.1231609 0.5800449 5.5484214 -0.109151065 -0.038262114 -0.07585347 0.01815813
-0.004603237 -0.047062933 0.06887703 0.08546971 -0.10155627 0.091823325 -0.20187798 -0.098178096
-0.07039699 -0.06763934 -0.10328066 -0.04656349 0.020557329 -0.1453198 -0.003953691 0.025415473
-0.028214378 -0.13425465 -0.069827035 0.01908696 0.0003228393 -0.13776138 -0.029580336 -0.16527393
-0.04159738 -0.009510547 -0.108425654 -0.086583965 -0.12988533 0.12247644 -0.09421946 -0.0046235453
0.03494456 -0.048597954 -0.04471028 0.07986854 -0.09854972 -0.2002991 -0.07048742 -0.0014818882
0.10099025 0.090225354 0.004282895 -0.15885387 -0.16407464 -0.0736059 -0.05837445 -0.06306293
-0.010948196 -0.0334919 0.1115441 -0.19233148 -0.011997193 0.12323378 0.0070423335 -0.008618598
0.078995556 -0.030748382 -0.11648408 -0.11772539 -0.021905348 -0.049104124 0.04696089 0.025973858
0.07402171 -0.10397515 0.08986358 -0.108300894 -0.07114911 0.05459085 -0.07122059 0.05596581
-0.1193513 -0.036398917 0.016929895 0.0076343715 0.07177766 -0.1047014 0.115096346 -0.1220091
-0.011503503 -0.003858 0.11666502 -0.09719637 0.04222758 -0.004898593 0.071213245 -0.083789065
-0.092146635 0.015136033 0.116359085 0.09942427 0.019775197 0.09698266 -0.037482828 -0.10901491
0.030342966 -0.06764689 -0.058344483 0.098769516 -0.04422979 -0.023964986 0.0454074 0.097485274
0.088217214 -0.092457294 -0.09174952 0.053738788 0.073902726 0.11483304 -0.048482016 -0.02690208
0.008207172 -0.019815356 0.031167567 0.07493508 0.10282108 0.021747068 -0.027677715 -0.06473531
-0.06684604 0.054727077 0.10265729 0.02023159 0.0501159 -0.0622409 -0.090065345 -0.07706387
-0.39691153 -0.08526105 -0.084888235 0.09089209 0.0310805 0.073790416 1.1970369 1.2068771
9.22784 1.0847422 0.10106701 -0.0758117 3.72389 1.2603601 1.1238031 1.0863599
0.5317591 1.2140768 -0.011780441 1.172311 0.46880785 1.532821 1.0461926 1.2401978
0.084638864 0.059260935 1.2355027 0.043789227 0.12448766 0.09334163 -0.008661568 1.2169338
1.1716269 0.99026 0.0960516 -0.036563247 0.9231628 0.9963605 0.8419287 1.2278998
0.01644744 -0.049087375 1.252364 1.0814497 0.2664952 -0.03160547 1.0155598 0.9781551
-0.010394648 9.312667 -0.10814217 1.0084269 -0.010879129 0.11702627 -0.09739061 1.2285787
0.10127206 0.12025827 0.5802982 5.463158 -0.09315023 -0.091963336 -0.10699093 0.08315655

bias f4 [32]
00000000: 4232 9e41 594d 28be e0e7 15bd 1c7c 9f41
00000010: 8c63 9f41 b463 6a3d e39a ce41 a882 df3c
00000020: 0f19 c4be 3c61 a441 17eb 963c 07fc a3ba
00000030: 02c9 c6be 3984 a541 5a96 efbe a353 d8be
00000040: d88a f03e 925b 9e41 e670 a341 3413 cfbe
00000050: 5572 9bbf 17e9 a441 f184 acbd 96ea 9d41
00000060: 3962 a341 7963 31be 32df b0bd 5e23 9d41
00000070: 8b7a c3bd 9cba 9e41 91e4 c0bd bc8b e3bd
19.77454 -0.16435756 -0.036598086 19.9356 19.923607 0.05722399 25.825628 0.027283981
-0.38300368 20.547478 0.018422646 -0.0012511023 -0.38825232 20.689562 -0.46794397 -0.4225131
0.4698093 19.794712 20.430126 -0.40444338 -1.2144266 20.613813 -0.08423794 19.739544
20.42296 -0.17323102 -0.08636321 19.64227 -0.095448576 19.841118 -0.094185956 -0.111106366

weight f4 [1, 32]
00000000: 3783 0c40 8516 3b3c 0035 1cbc 80d8 0840
00000010: 36f4 0840 573a 503d e9e7 3640 eac7 e33d
00000020: 91b7 74be cf16 0540 0af9 c0bd bd81 363d
00000030: bedb 7ebe febf 0640 4935 b6bd dc25 50be
00000040: ffc3 d4bd c837 0b40 3ca2 0240 1a73 a23e
00000050: 45cf 9d3d 6a05 0540 06b4 9cbd fba7 0840
00000060: 09f1 0540 6c01 fbbb 6187 c83a e565 0a40
00000070: 0236 503d 9a28 0940 5a89 9bbd 5f80 89bd
2.1955087 0.011418943 -0.009534121 2.138214 2.1399055 0.050836887 2.8579047 0.11122115
-0.2389815 2.0795171 -0.094225004 0.04455732 -0.24888512 2.1054683 -0.08896882 -0.20326942
-0.10388946 2.1752796 2.041152 0.3172844 0.07705549 2.0784554 -0.07651524 2.1352527
2.0928366 -0.0076600816 0.0015299135 2.1624691 0.050832756 2.1431031 -0.07594557 -0.06713938
