api/home_price_model_bhi.pth (torch, 130961 bytes, 7 tensors)

weight f4 [313, 10]
4.270238 3.1223443 -5.4327464 3.8770144 -4.15269 -3.03065 3.6771057 -5.357126
5.250814 4.184238 0.7943903 0.62725365 -0.67715806 -0.26229358 0.78839934 -0.6978325
0.37804624 1.097405 0.10058214 0.40969515 3.6676729 2.84439 0.12342787 0.94121575
-3.3766136 -4.8019047 -0.7929324 -2.8382108 2.7977319 5.6944895 2.3583808 3.0571861
-1.7743188 3.197149 -5.0785017 -2.1752713 1.3854702 -2.5496042 2.7066655 2.244053
5.5552816 4.3836627 -2.552482 4.188533 -1.2920952 -4.2338576 3.3178773 -1.9336126
2.018451 3.682586 0.5032234 0.073181175 0.8425409 1.2728246 0.37218982 0.87124854
0.4737214 -2.962665 -1.4683529 -0.26920035 3.7279818 4.017208 -3.199634 3.7531996
-2.8905551 -5.23689 3.5576296 -2.5866349 5.368671 3.391537 4.86921 1.0909684
-2.5520241 2.72462 -2.8007796 -1.4712753 2.7132099 -1.594937 3.2224088 4.257844
0.70195484 0.25148842 -1.0446908 0.616759 0.17306116 0.3179255 1.4522648 0.4021458
1.1285715 0.11023507 1.6533688 1.7083969 -4.3730707 3.0554867 -4.6668267 -2.253123
1.6168242 -1.8668152 0.789893 1.2452302 5.0864325 2.8129878 -2.837454 2.9868226
-4.0325933 -2.1684988 2.7470045 -4.7487617 3.1533568 4.16395 3.6477132 3.5314274
-0.67856807 2.512784 -1.9438398 -4.388743 3.885141 -2.5715458 3.2437198 5.28873
3.6323726 2.1618526 -1.92236 3.9589279 -1.809673 -3.0227206 3.3030794 -2.9619038
3.4347167 3.1335063 3.7494338 3.9308376 -2.5930383 2.9151807 -2.3139155 -3.0151708
3.0629466 -3.1029577 3.8183298 1.6677363 -2.3108582 3.5780683 -3.24236 2.7473443
-2.4780571 -1.5728979 4.223982 -0.59345406 3.528819 2.1253295 10.637002 12.712144
-11.932029 12.674321 -13.693899 -9.495812 12.132057 -12.610285 12.338639 11.704325
0.061808348 -0.28491652 -0.12870973 -1.7683922 -0.11832675 1.0994805 -0.041816026 1.790365
0.32900533 -1.0587285 7.0590305 2.960255 -0.8764008 2.9915502 -0.093355864 -4.1423683
-1.5104437 -3.7275589 0.9936386 3.2593439 8.194356 2.0395694 -2.2407558 5.1231284
-2.9465141 -4.480902 1.6896703 -4.034656 4.3801537 2.9120364 1.3259315 0.49135146
-0.57246333 1.1108289 -2.0460794 -0.30973238 0.4891584 -2.7186182 1.5804176 2.3970938
6.3749595 0.8436292 -2.8657382 1.9910439 -2.367737 -5.5335493 2.1956103 -3.0426385
1.4479313 2.5915918 2.2242346 2.135698 -2.7704268 3.0798504 -1.6260158 -4.086453
2.7539065 -1.811719 1.1364017 2.4389813 5.3380995 5.608657 -4.9775496 4.1959205
-5.025693 -5.3794394 7.034382 -4.567732 5.152236 5.1048265 5.1853275 0.1540892
0.83382124 0.029467955 0.631367 -2.7866883 -0.45936018 -1.4815178 0.15604211 2.7509825
7.5611815 2.187573 0.68484074 3.8543994 -1.5325233 -3.7583816 -4.376038 -6.3853307
0.92221844 2.9546683 4.038222 0.81616825 1.0851872 0.8583363 -1.4150599 -2.0825977
00000000: caa5 8840 7dd4 4740 0fd9 adc0 0121 7840
00000010: d6e2 84c0 2bf6 41c0 b355 6b40 946d abc0
00000020: ab06 a840 47e5 8540 2a5d 4b3f b293 203f
00000030: 3b5a 2dbf 584b 86be 8ad4 493f 27a5 32bf
00000040: 478f c13e c477 8c3f 02fe cd3d 90c3 d13e
00000050: 27bb 6a40 7c0a 3640 c0c7 fc3d 84f3 703f
00000060: 701a 58c0 34a9 99c0 9efd 4abf 3fa5 35c0
00000070: 0a0e 3340 4239 b640 b6ef 1640 f0a8 4340
00000080: e11c e3bf 179e 4c40 1683 a2c0 a537 0bc0
00000090: 1657 b13f b72c 23c0 023a 2d40 909e 0f40
000000a0: dec4 b140 f746 8c40 dd5b 23c0 7608 8640
000000b0: 6063 a5bf c37b 87c0 1a58 5440 9e80 f7bf
000000c0: 4d2e 0140 7daf 6b40 40d3 003f 03e0 953d
000000d0: c3b0 573f ebeb a23f aa8f be3e 250a 5f3f
000000e0: 9d8b f23e 4e9c 3dc0 fdf2 bbbf a1d4 89be
000000f0: 4197 6e40 f88c 8040 cec6 4cc0 6c34 7040
00000100: dbfe 38c0 9a94 a7c0 34b0 6340 6d8b 25c0
00000110: 27cc ab40 f10e 5940 91d0 9b40 daa4 8b3f
00000120: 5d54 23c0 2d60 2e40 f93f 33c0 c052 bcbf
00000130: 3ba5 2d40 e526 ccbf f23b 4e40 4240 8840
00000140: 50b3 333f 17c3 803e 6eb8 85bf ebe3 1d3f
00000150: f236 313e 22c7 a23e d0e3 b93f 0ee6 cd3e
00000160: 0875 903f edc2 e13d 97a1 d33f c0ac da3f
00000170: 32f0 8bc0 188d 4340 a556 95c0 2b33 10c0
00000180: 18f4 ce3f cdf3 eebf 6d36 4a3f b463 9f3f
00000190: 0ec4 a240 fe07 3440 d998 35c0 1a28 3f40
000001a0: 010b 81c0 afc8 0ac0 ecce 2f40 dbf5 97c0
000001b0: 99d0 4940 143f 8540 2274 6940 e802 6240
000001c0: a3b6 2dbf 74d1 2040 becf f8bf 9570 8cc0
000001d0: 26a6 7840 3594 24c0 1b99 4f40 473d a940
000001e0: cb78 6840 cb5b 0a40 e40f f6bf 135f 7d40
000001f0: 5da3 e7bf 4174 41c0 a765 5340 d58f 3dc0
00000200: 66d2 5b40 5e8b 4840 b9f6 6f40 d892 7b40
00000210: 57f4 25c0 5292 3a40 3117 14c0 8ff8 40c0
00000220: 5107 4440 dc96 46c0 845f 7440 6278 d53f
00000230: 1ae5 13c0 12ff 6440 d482 4fc0 7dd4 2f40
00000240: 7d98 1ec0 b854 c9bf dc2a 8740 9bec 17bf
00000250: 2cd8 6140 6605 0840 2931 2a41 f164 4b41
00000260: 97e9 3ec1 05ca 4a41 361a 5bc1 d9ee 17c1
00000270: e81c 4241 bac3 49c1 116b 4541 ea44 3b41
00000280: c02a 7d3d 94e0 91be 7ccc 03be ad5a e2bf
00000290: 4c55 f2bd c7bb 8c3f 4847 2bbd ae2a e53f
000002a0: 6373 a83e 6a84 87bf 94e3 e140 d174 3d40
000002b0: ce5b 60bf 8f75 3f40 5c31 bfbd 488e 84c0
000002c0: 3856 c1bf 5390 6ec0 195f 7e3f 1799 5040
000002d0: 151c 0341 4e88 0240 8b68 0fc0 abf0 a340
000002e0: b093 3cc0 8d63 8fc0 1e47 d83f e71b 81c0
000002f0: 382a 8c40 ce5e 3a40 20b8 a93f 6b92 fb3e
00000300: f58c 12bf a42f 8e3f f7f2 02c0 3e95 9ebe
00000310: f872 fa3e d7fd 2dc0 204b ca3f fc69 1940
00000320: abff cb40 15f8 573f 4168 37c0 87da fe3f
00000330: 0189 17c0 d612 b1c0 e184 0c40 97ba 42c0
00000340: d055 b93f a4dc 2540 dc59 0e40 47af 0840
00000350: ac4e 31c0 451c 4540 4921 d0bf 39c4 82c0
00000360: 0140 3040 68e6 e7bf 9c75 913f 4518 1c40
00000370: b6d1 aa40 1e7a b340 1648 9fc0 fb44 8640
00000380: 7ad2 a0c0 5e24 acc0 a819 e140 dc2a 92c0
00000390: 1edf a440 bd5a a340 34ee a540 8fc9 1d3e
000003a0: 4f75 553f c866 f13c 45a1 213f 1a59 32c0
000003b0: 4231 ebbe 60a2 bdbf 81c9 1f3e 1910 3040
000003c0: 33f5 f140 3201 0c40 b951 2f3f 7bae 7640
000003d0: b929 c4bf 5389 70c0 8108 8cc0 a154 ccc0
000003e0: 8216 6c3f 4919 3d40 1d39 8140 67f0 503f
000003f0: 6ae7 8a3f eebb 5b3f af20 b5bf 4849 05c0

weight f4 [1563, 10]
-1.8643683 -0.41900852 0.37474418 -0.08522942 0.34092727 -1.1112744 -0.8218561 -0.9784598
-1.3141145 -1.2767259 6.01822 2.2872303 -3.7570055 1.0948917 -2.0897474 2.900827
3.308219 -2.5142384 -4.1442194 2.4205196 1.2969414 3.2838647 -2.927724 2.513898
-4.593801 3.5774157 2.9203293 -2.2437656 -1.5672146 2.801738 5.553297 7.2127357
-4.4760427 5.0495424 -1.7739108 5.0330286 5.2568197 -5.696734 -5.85829 5.336406
0.3408646 2.1771858 -1.956748 1.8501782 -2.3210118 2.4372537 2.3323767 -1.8107562
-1.7428741 1.2847297 0.31013826 0.55423856 -1.9712623 1.5058228 0.49176177 0.6178849
-0.1694367 -0.0004975224 0.8665306 1.2262677 1.7843745 -0.7730431 2.480183 0.6487074
-0.52201074 -0.14856683 -0.09830029 -0.5725774 -0.6161274 1.8157642 -0.33855608 0.070752114
-1.4609455 1.3963414 -0.45546213 0.46794966 -0.01192908 -1.0275506 -1.5049766 1.5122081
3.6151447 2.940529 -2.780455 4.566879 -4.5844584 3.114897 4.560551 -1.3095459
-2.30691 4.124477 -0.12996992 0.7631932 -2.7946105 0.9414604 -1.0959504 1.9184126
-0.968894 0.3748107 -0.28089237 0.57727057 3.007017 0.21805786 -2.3702617 1.1509496
-2.8011687 0.8437593 1.1942317 -2.0808852 -0.18253636 1.7932884 -1.0133646 -1.2672739
1.6924019 -2.5469594 3.085991 -0.37383163 -1.7230277 2.019321 1.8000826 1.0323795
0.48090854 1.8100102 0.8121451 0.016012894 1.1796356 0.68599164 -0.074457206 -0.2238702
1.8699272 0.20992832 -1.5876449 1.0118613 0.64105904 -0.73662347 2.1490054 0.8096157
-1.1316087 2.3637211 0.14390773 -1.9139589 -0.13221972 1.049442 0.9029969 2.148025
0.6940703 0.9596354 2.2309563 3.030539 0.22099708 0.8455462 -0.23810749 -1.7478787
2.5293708 -0.1648772 1.4225029 -2.1944385 -2.5104089 3.305518 -0.7129099 -0.25568336
-2.730825 -0.40440637 0.7782804 -1.3237367 1.96993 -0.6025795 -1.2884207 1.5595458
0.5518873 -1.0819937 -1.5292503 -1.6873434 2.8183818 -2.666017 1.9520814 0.89797056
-3.3126073 2.4793222 1.0443217 -0.8641114 0.78943825 -1.339453 0.99987596 1.2735623
0.027261646 0.3053504 0.26320112 1.233787 -0.50480664 0.29523522 -0.46990883 -0.8753744
0.5759457 0.4383332 -0.3460573 -0.85026 -1.5565573 0.10318091 -0.9937612 -0.97334546
0.7835062 -0.44955862 0.18225914 1.2695506 -0.88945585 -0.45351547 -1.0067438 0.66266364
-0.84319055 0.50530684 2.1539938 -1.3779304 0.6511544 0.53191096 -0.962418 0.16370562
0.46686575 0.18531306 0.20337917 0.36106235 -3.2665024 -4.2952147 10.0626135 -3.5002766
7.422877 -3.0078194 -1.3762213 5.6047244 3.4781063 -3.0816982 -3.3199255 -1.7527362
1.9470538 -2.2613282 1.963479 -1.1002864 1.7991477 2.0230663 0.27604803 -2.1585038
0.66738033 -1.1295036 0.13902268 -0.17812164 -0.5227929 0.9937647 -0.18679708 1.4030765
-0.4428735 0.672297 0.989286 1.9902164 -0.19582053 -0.14164208 -0.11469053 -0.25408107
00000000: 9fa3 eebf 4988 d6be 78de bf3e c38c aebd
00000010: 058e ae3e 3d3e 8ebf 2965 52bf 577c 7abf
00000020: e734 a8bf c16b a3bf 4295 c040 fb61 1240
00000030: c772 70c0 6925 8c3f 6cbe 05c0 26a7 3940
00000040: dcb9 5340 48e9 20c0 729d 84c0 cbe9 1a40
00000050: 2d02 a63f d72a 5240 d45f 3bc0 b4e3 2040
00000060: 6b00 93c0 61f4 6440 ade6 3a40 db99 0fc0
00000070: 7d9a c8bf ad4f 3340 9cb4 b140 bbce e640
00000080: be3b 8fc0 da95 a140 820f e3bf 920e a140
00000090: de37 a840 a54b b6c0 1d77 bbc0 d7c3 aa40
000000a0: ce85 ae3e 0357 0b40 b876 fabf a4d2 ec3f
000000b0: 758b 14c0 f7fb 1b40 a945 1540 dcc6 e7bf
000000c0: 8016 dfbf 0672 a43f 71ca 9e3e 94e2 0d3f
000000d0: 5352 fcbf cdbe c03f 33c8 fb3e b42d 1e3f
000000e0: d080 2dbe 2a6c 02ba f3d4 5d3f 57f6 9c3f
000000f0: 6266 e43f 27e6 45bf 51bb 1e40 b011 263f
00000100: 7fa2 05bf e721 18be aa51 c9bd 6f94 12bf
00000110: 86ba 1dbf f66a e83f 3957 adbe 7ce6 903d
00000120: 4300 bbbf 51bb b23f 5532 e9be 1997 ef3e
00000130: 3072 43bc c786 83bf 13a3 c0bf 0990 c13f
00000140: 885e 6740 a131 3c40 faf2 31c0 df23 9240
00000150: e2b3 92c0 795a 4740 09f0 9140 339f a7bf
00000160: 6aa4 13c0 b7fb 8340 d616 05be a160 433f
00000170: e6da 32c0 8c03 713f 1a48 8cbf 8b8e f53f
00000180: 7009 78bf 30e7 bf3e 20d1 8fbe 01c8 133f
00000190: f772 4040 8f4a 5f3e 5eb2 17c0 5152 933f
000001a0: 5946 33c0 9c00 583f 96dc 983f 392d 05c0
000001b0: d0ea 3abe 798a e53f eeb5 81bf 0836 a2bf
000001c0: a0a0 d83f 6201 23c0 e080 4540 dc66 bfbe
000001d0: 2c8c dcbf 8e3c 0140 1b69 e63f 0325 843f
000001e0: a539 f63e 6aae e73f bee8 4f3f 792d 833c
000001f0: 4dfe 963f 269d 2f3f 057d 98bd 3b3e 65be
00000200: c659 ef3f 73f7 563e f337 cbbf ac84 813f
00000210: 721c 243f 5b93 3cbf 4e89 0940 f942 4f3f
00000220: 8ed8 90bf 3547 1740 8c5c 133e 9bfc f4bf
00000230: 9b64 07be 1e54 863f ce2a 673f 3e79 0940
00000240: 97ae 313f aaaa 753f fdc7 0e40 5af4 4140
00000250: 0f4d 623e b775 583f 73d2 73be 7dba dfbf
00000260: 36e1 2140 92d5 28be 9314 b63f ae71 0cc0
00000270: 8aaa 20c0 9b8d 5340 4381 36bf eee8 82be
00000280: d6c5 2ec0 5a0e cfbe 623d 473f 3470 a9bf
00000290: ab26 fc3f a642 1abf f8ea a4bf 329f c73f
000002a0: 7c48 0d3f c57e 8abf 79be c3bf defa d7bf
000002b0: 5e60 3440 06a0 2ac0 cedd f93f 66e1 653f
000002c0: c201 54c0 37ad 1e40 55ac 853f 6836 5dbf
000002d0: a018 4a3f 3273 abbf dff7 7f3f 1704 a33f
000002e0: d153 df3c e356 9c3e 4cc2 863e bbec 9d3f
000002f0: 023b 01bf 1229 973e e497 f0be 8918 60bf
00000300: 2d71 133f 366d e03e 6c2e b1be a4aa 59bf
00000310: 453d c7bf 8350 d33d 2267 7ebf 2b2d 79bf
00000320: dd93 483f 8c2c e6be 24a2 3a3e a280 a23f
00000330: 61b3 63bf 2e33 e8be fbdc 80bf 53a4 293f
00000340: 56db 57bf ca5b 013f 09db 0940 0660 b0bf
00000350: 0eb2 263f 512b 083f 0761 76bf 72a2 273e
00000360: 0709 ef3e b5c2 3d3e a142 503e 2add b83e
00000370: 600e 51c0 6672 89c0 7700 2141 8804 60c0
00000380: 3588 ed40 1d80 40c0 0528 b0bf e759 b340
00000390: 4b99 5e40 8b3a 45c0 a979 54c0 a959 e0bf
000003a0: 0f39 f93f 9ab9 10c0 4853 fb3f 2fd6 8cbf
000003b0: 794a e63f eb79 0140 2b56 8d3e ed24 0ac0
000003c0: 70d9 2a3f 9393 90bf f65b 0e3e 8565 36be
000003d0: c1d5 05bf 5d67 7e3f bc47 3fbe 0398 b33f
000003e0: 51c0 e2be a81b 2c3f d941 7d3f 69bf fe3f
000003f0: 2d85 48be 9f0a 11be dee2 eabd ea16 82be

weight f4 [64, 25]
0.1554857 -0.12797633 -0.0826622 -0.0075026453 -0.061274573 -0.1743424 0.13749863 0.1934696
-0.05826524 -0.13661915 0.15197016 0.11182262 0.12670912 0.08637865 0.0566826 -0.14184162
-0.14772768 0.028616697 -0.010560989 -0.14111578 -0.10548949 0.043075398 0.14532398 0.14826028
-0.1658001 14.102063 16.010805 -11.411561 14.406424 -13.531107 -14.706214 8.935679
-15.197698 13.40283 15.018189 10.157817 1.4375821 3.8845043 7.739912 4.9711533
9.87852 7.937472 9.350962 -1.8714256 10.493499 0.1439553 -9.172197 17.776417
34.843426 -36.28987 10.724778 10.847623 -8.512611 8.422855 -7.686229 -8.560123
6.6803727 -10.069533 6.582411 9.472609 21.433155 12.292109 -11.422575 18.135088
-10.561926 17.696901 18.624708 -4.0438905 -12.983805 17.569782 0.08101818 -12.687406
13.141444 31.090574 -42.56436 0.08098264 -0.19613269 -0.14047244 0.06560384 0.025549859
0.18458845 -0.16004746 0.12200265 -0.09731958 0.027985975 0.03163734 -0.19712256 -0.14242247
0.15828307 -0.13273248 0.0359641 -0.18341108 -0.061561197 -0.10016086 -0.1691124 -0.0022813082
-0.16147688 -0.13803935 -0.1881346 0.047411844 14.076656 16.297928 -11.570557 14.762547
-13.377121 -14.868206 9.104678 -15.517444 13.624075 15.153493 10.293395 1.6267554
3.5454116 7.8750367 5.154335 9.846931 8.043359 9.192439 -1.6468805 10.358911
0.13149303 -9.213782 17.790733 35.251617 -36.331985 13.885603 16.141375 -11.388856
14.633181 -13.231195 -14.548205 9.0024605 -15.258448 13.325813 15.257778 10.522888
1.6284978 3.6756535 7.810897 4.8028026 9.887671 7.960067 9.263932 -1.9680036
10.45376 0.12672126 -9.002563 17.710762 34.841393 -36.24134 0.0865381 0.00038549316
-0.045892682 -0.14589144 0.09799282 -0.033258844 0.0094231 -0.12326974 -0.073033996 -0.06049952
-0.09626365 0.024433872 0.06862624 -0.08276685 0.13994797 -0.06694635 -0.24975155 0.01835177
0.10928649 0.12845704 -0.05053374 -0.20966452 -0.25260788 -0.23682866 -0.11770577 -0.08955047
0.08664133 -0.044740766 -0.13585332 -0.16721681 -0.039541557 -0.0025871694 -0.17846552 -0.046575516
0.06510045 -0.13101763 0.016041562 0.11436172 0.04573576 0.18158884 -0.19530194 0.097811475
0.023045465 0.0110402405 0.10197772 -0.05883737 -0.11157107 0.08316107 0.07421543 -0.13091993
-0.017223075 -0.12561078 0.0054605007 0.027851105 -0.08577893 0.16764165 0.15383567 -0.03750038
0.1289338 -0.14997351 -0.14088114 0.14589693 0.05044107 -0.12755245 0.17641772 -0.053771824
0.13085185 -0.037292212 0.062068358 -0.1704442 -0.1965061 -0.15715823 -0.1404489 -0.0012196004
-0.1628379 -0.036882207 -0.10484488 0.05622615 0.06118323 0.06803544 -0.11663856 -0.004701525
-0.18614104 -0.08053117 0.02406542 -0.12726343 0.048401594 -0.020516708 -0.05737436 0.035392523
0.16240059 -0.19590607 -0.018598825 0.12264235 -0.114213705 -0.011298329 0.12340717 0.051999107
0.0884359 -0.15306696 14.03841 16.346556 -11.885877 14.717629 -13.297436 -14.871321
00000000: a537 1f3e 3a0c 03be cd4a a9bd c0d8 f5bb
00000010: 0cfb 7abd d086 32be 71cc 0c3e e51c 463e
00000020: 88a7 6ebd e4e5 0bbe 119e 1b3e 4203 e53d
00000030: 09c0 013e 4ae7 b03d 042c 683d ee3e 11be
00000040: ed45 17be 906d ea3c 0008 2dbc a880 10be
00000050: e00a d8bd d46f 303d cfcf 143e 8bd1 173e
00000060: 80c7 29be 0da2 6141 2116 8041 c195 36c1
00000070: b680 6641 6a7f 58c1 a74c 6bc1 8bf8 0e41
00000080: c529 73c1 fe71 5641 814a 7041 6b86 2241
00000090: b102 b83f b89b 7840 5cad f740 b013 9f40
000000a0: 6b0e 1e41 c5ff fd40 8a9d 1541 e08a efbf
000000b0: 5fe5 2741 0569 133e 52c1 12c1 1a36 8e41
000000c0: ab5f 0b42 d428 11c2 b198 2b41 dd8f 2d41
000000d0: a833 08c1 04c4 0641 97f5 f5c0 44f6 08c1
000000e0: 9dc5 d540 cf1c 21c1 1ca3 d240 ce8f 1741
000000f0: 1a77 ab41 7aac 4441 dec2 36c1 a914 9141
00000100: a6fd 28c1 4193 8d41 67ff 9441 8d67 81c0
00000110: aabd 4fc1 ea8e 8c41 dcec a53d 9dff 4ac1
00000120: 5b43 5241 7fb9 f841 e841 2ac2 3ada a53d
00000130: 02d7 48be 02d8 0fbe 4e5b 863d f04d d13c
00000140: c104 3d3e 7be3 23be 86dc f93d 7d4f c7bd
00000150: d842 e53c 2896 013d 7fda 49be 32d7 11be
00000160: f514 223e 06eb 07be 184f 133d 1dd0 3bbe
00000170: 9827 7cbd 2321 cdbd cd2b 2dbe 0082 15bb
00000180: 325a 25be 305a 0dbe 5ba6 40be ec32 423d
00000190: fc39 6141 2862 8241 0021 39c1 6433 6c41
000001a0: b008 56c1 2ce4 6dc1 c3ac 1141 7347 78c1
000001b0: 36fc 5941 b574 7241 bfb1 2441 8539 d03f
000001c0: 06e8 6240 4d00 fc40 50f0 a440 088d 1d41
000001d0: 99b1 0041 3b14 1341 fbcc d2bf 19be 2541
000001e0: 1ca6 063e a76b 13c1 6c53 8e41 a801 0d42
000001f0: f453 11c2 6e2b 5e41 8921 8141 c138 36c1
00000200: 8221 6a41 fab2 53c1 73c5 68c1 140a 1041
00000210: 9a22 74c1 8836 5541 dc1f 7441 c05d 2841
00000220: 9e72 d03f e83d 6b40 def2 f940 8fb0 9940
00000230: e733 1e41 deb8 fe40 1139 1441 8be7 fbbf
00000240: 9a42 2741 38c3 013e 800a 10c1 a4af 8d41
00000250: 965d 0b42 22f7 10c2 e33a b13d 041c ca39
00000260: f7f9 3bbd 9164 15be 76b0 c83d 6d3a 08bd
00000270: 5963 1a3c d874 fcbd d992 95bd 58ce 77bd
00000280: e025 c5bd 8b29 c83c ea8b 8c3d ab81 a9bd
00000290: 854e 0f3e 2b1b 89bd dfbe 7fbe 7356 963c
000002a0: 98d1 df3d 3e8a 033e 78fc 4ebd 4cb2 56be
000002b0: d255 81be 3683 72be b90f f1bd 3d66 b7bd
000002c0: 0271 b13d 1842 37bd 221d 0bbe e23a 2bbe
000002d0: 54f6 21bd 808d 29bb aabf 36be f8c5 3ebd
000002e0: 6253 853d 7c29 06be 9869 833c 7a36 ea3d
000002f0: 6c55 3b3d 6df2 393e 3bfd 47be 6251 c83d
00000300: d8c9 bc3c 20e2 343c b2d9 d03d 74ff 70bd
00000310: 607f e4bd 5a50 aa3d 42fe 973d e00f 06be
00000320: 6817 8dbc 1da0 00be 00ee b23b 0028 e43c
00000330: ddac afbd 41aa 2b3e 1987 1d3e 009a 19bd
00000340: 3907 043e a892 19be 2543 10be 0166 153e
00000350: 4c9b 4e3d 1c9d 02be d9a6 343e d83f 5cbd
00000360: 07fe 053e b8bf 18bd 643b 7e3d ed88 2ebe
00000370: e538 49be 16ee 20be d6d1 0fbe 00db 9fba
00000380: fabe 26be cc11 17bd eab8 d6bd 644d 663d
00000390: 449b 7a3d 2a56 8b3d 33e0 eebd 400f 9abb
000003a0: c29b 3ebe 87ed a4bd d824 c53c 5851 02be
000003b0: c040 463d a812 a8bc 6001 6bbd c0f7 103d
000003c0: 574c 263e 9a9b 48be 905c 98bc ea2b fb3d
000003d0: e0e8 e9bd a01c 39bc e6bc fc3d 04fd 543d
000003e0: e21d b53d 96bd 1cbe 549d 6041 bfc5 8241
000003f0: 8d2c 3ec1 697b 6b41 4cc2 54c1 eef0 6dc1

bias f4 [64]
-0.14608423 23.64253 14.066897 0.11960672 23.726803 23.459549 0.049839623 -0.115280464
-0.1069118 0.12612681 23.933846 0.0026409328 0.118598476 0.09861563 23.470554 0.06529771
8.796516 -0.051812977 9.722512 0.082604006 0.0054884404 0.09756364 -0.10484171 23.639883
-11.303806 23.660622 23.872026 23.756111 0.08827667 23.303375 -23.549057 -0.07333624
0.058631048 23.15421 23.922129 23.360823 0.049253777 23.526697 -0.08177996 -1.5950357
22.25207 0.06550653 23.335838 -0.1980145 -0.06676093 0.04960966 23.681833 23.176344
23.86716 2.6054707 23.559267 0.1341965 -0.15448663 24.093754 23.524763 -0.13780153
23.74416 23.677416 -25.228834 0.06474848 23.498154 23.910208 -0.045299843 0.044073522
00000000: 1b97 15be e723 bd41 0312 6141 5ef4 f43d
00000010: 7ed0 bd41 28ad bb41 a224 4c3d 2a18 ecbd
00000020: 93f4 dabd 6327 013e 8478 bf41 8013 2d3b
00000030: c2e3 f23d fef6 c93d b2c3 bb41 ceba 853d
00000040: 88be 0c41 d839 54bd 698f 1b41 4a2c a93d
00000050: 60d8 b33b 72cf c73d 40b7 d6bd 7b1e bd41
00000060: 64dc 34c1 f448 bd41 e9f9 be41 840c be41
00000070: 66ca b43d 506d ba41 7864 bcc1 5031 96bd
00000080: 1c27 703d d23b b941 8560 bf41 f7e2 ba41
00000090: 54be 493d ad36 bc41 407c a7bd 212a ccbf
000000a0: 3d04 b241 4a28 863d ccaf ba41 50c4 4abe
000000b0: f4b9 88bd 8033 4b3d 6574 bd41 2769 b941
000000c0: f2ef be41 08c0 2640 6179 bc41 cf6a 093e
000000d0: be31 1ebe 02c0 c041 b732 bc41 d81b 0dbe
000000e0: 0af4 bd41 596b bd41 a7d4 c9c1 da9a 843d
000000f0: 38fc bb41 1b48 bf41 548c 39bd 7086 343d

weight f4 [32, 64]
-0.10015176 0.015046464 -0.01984245 0.011036605 -0.1190891 -0.023956789 -0.03276509 -0.09856349
-0.060854226 -0.03095664 -0.13174938 0.06480223 0.029225677 -0.17006089 -0.0007334394 0.10983439
0.022100227 -0.08102955 -0.011047053 -0.058745414 0.053132653 0.050919414 -0.022249565 -0.07036653
0.018905118 -0.19608366 -0.09976588 -0.04553132 -0.10241802 0.012900092 -0.02922981 -0.0686674
-0.06536783 -0.09121456 -0.041289967 -0.06349256 0.038915157 0.030600496 -0.07833584 0.011357775
0.017265642 -0.044960305 -0.12518959 0.07861388 -0.06222117 -0.0076737255 -0.07029819 -0.12972444
-0.08859025 0.015475725 -0.20701058 0.07487023 0.043046072 -0.06849848 -0.18515018 -0.06319222
0.035450358 -0.0854515 -0.1604054 -0.09228398 -0.17265376 -0.16852608 -0.065733895 -0.057585564
-0.02299741 -0.605069 -0.15440023 -0.08108345 -0.670834 -0.53191847 -0.0065443963 -0.052648097
0.012609005 0.048177227 -0.4386882 -0.08235024 -0.01805824 -0.11217767 -0.32818383 0.026008993
-0.1961977 -0.07653737 -0.077575475 -0.0038756132 0.024564862 0.12341301 0.1117008 -0.5287566
-0.15939966 -0.61739993 -0.25624043 -0.32727966 0.123953745 -0.24386513 -0.018839553 -0.12398364
0.11536099 -0.27077717 -0.38193375 -0.29757768 0.07121156 -0.57856727 0.10780126 -0.12969556
-0.32430655 0.012352154 -0.26002365 0.027166829 0.11808409 -0.0024327636 -0.7340202 -0.40121448
-0.37027568 -0.097372696 -0.34413442 -0.018483236 0.062219813 -0.27380124 -0.43577436 -0.010642946
-0.5940284 -0.4180026 -0.03328232 0.11459567 -0.65039396 -0.31535527 -0.060387135 0.071104646
0.014901429 -0.403349 -0.29849216 -0.045521125 -0.29614487 -0.3636494 -0.12225486 0.021978691
-0.040220305 -0.092763215 -0.28095633 0.05422473 -0.06902805 -0.059785813 -0.23473817 -0.0006714612
-0.29995835 0.11701833 -0.24238476 -0.02545625 -0.077916235 0.100742385 0.049495816 -0.20008442
-0.27912164 -0.270917 -0.1987342 -0.17866622 -0.0805707 -0.27259916 -0.29830602 0.047076672
0.017776191 -0.3914646 -0.39750877 -0.3350653 0.086930886 -0.19291249 0.114133894 -0.29249626
-0.33946803 -0.111002445 -0.41724116 0.004688248 0.12461066 -0.043324783 -0.40676156 -0.40395033
-0.2756383 -0.1855023 -0.3045689 -0.120273724 0.10115124 -0.32812068 -0.21121399 -0.095525175
-0.1733886 -0.25016007 -0.23225416 0.09251547 -0.3993864 -0.30932245 -0.028162852 -0.095546514
-0.08617379 -0.120112926 0.01551497 -0.088187456 -0.10677637 -0.0030943006 0.062225014 -0.109956235
0.12356493 0.03837329 0.044323057 0.095461726 -0.04307449 -0.10316764 -0.072239146 0.06960176
-0.10308708 0.108845085 -0.037938997 -0.031688243 0.062301785 -0.05587603 0.054965973 -0.022511378
0.11186382 -0.023522973 -0.028957143 0.06133327 0.020105511 0.037964568 -0.09898448 0.010304257
-0.017066956 0.06511566 -0.012204707 -0.051219463 0.005375698 0.018933326 -0.03521554 0.0016142279
-0.009239212 0.037991688 -0.10474084 0.052091047 0.038229883 -0.07645702 -0.12333849 -0.07232991
0.081591755 0.054593384 -0.0710794 0.086873025 -0.078288496 0.05830291 -0.07853624 -0.09604953
0.06282945 -0.041933417 -0.086716026 0.06342642 -0.009785503 -0.017533049 -0.10655248 0.036501437
00000000: 5e1c cdbd 7285 763c a28c a2bc e0d2 343c
00000010: fce4 f3bd 0741 c4bc b034 06bd a8db c9bd
00000020: 4842 79bd c898 fdbc 4fe9 06be 08b7 843d
00000030: b06a ef3c 7124 2ebe 4944 40ba daf0 e03d
00000040: 890b b53c d2f2 a5bd b3fe 34bc 089f 70bd
00000050: a0a1 593d e090 503d b844 b6bc 541c 90bd
00000060: e8de 9a3c 28ca 48be 0e52 ccbd 0d7f 3abd
00000070: 8ac0 d1bd e85a 533c 5b73 efbc 7ea1 8cbd
00000080: 92df 85bd b3ce babd ab1f 29bd 6308 82bd
00000090: 8065 1f3d e4ad fa3c 8a6e a0bd f615 3a3c
000000a0: ad70 8d3c 4c28 38bd b331 00be 5000 a13d
000000b0: a0db 7ebd e073 fbbb 7ff8 8fbd 7cd6 04be
000000c0: ce6e b5bd e58d 7d3c 95fa 53be 9055 993d
000000d0: 1451 303d ee48 8cbd 0298 3dbe ec6a 81bd
000000e0: 6534 113d 3201 afbd 5041 24be 62ff bcbd
000000f0: 26cc 30be 1a92 2cbe 7e9f 86bd d7de 6bbd
00000100: 1065 bcbc cde5 1abf 181b 1ebe 140f a6bd
00000110: c7bb 2bbf cf2b 08bf 6072 d6bb 88a5 57bd
00000120: 0096 4e3c 7c55 453d bd9b e0be 3ea7 a8bd
00000130: e0ee 93bc 68bd e5bd b607 a8be d010 d53c
00000140: 0de8 48be a0bf 9cbd e4df 9ebd 00fe 7dbb
00000150: 403c c93c f6bf fc3d 64c3 e43d 985c 07bf
00000160: aa39 23be ec0d 1ebf f231 83be 3391 a7be
00000170: 76db fd3d c8b7 79be 6855 9abc 22eb fdbd
00000180: 6242 ec3d 4ea3 8abe d28c c3be 1a5c 98be
00000190: 5ed7 913d fc1c 14bf e8c6 dc3d eace 04be
000001a0: 820b a6be b060 4a3c d221 85be f88c de3c
000001b0: 12d6 f13d 006f 1fbb bfe8 3bbf fc6b cdbe
000001c0: c694 bdbe 566b c7bd 6332 b0be 286a 97bc
000001d0: 34da 7e3d ad2f 8cbe d11d dfbe c05f 2ebc
000001e0: 3f12 18bf 7004 d6be 0b53 08bd 22b1 ea3d
000001f0: 3880 26bf 3f76 a1be 8058 77bd 509f 913d
00000200: 2025 743c c383 cebe f7d3 98be 5c74 3abd
00000210: 4da0 97be 4130 babe c260 fabd a80c b43c
00000220: 0cbe 24bd a4fa bdbd 82d9 8fbe c01a 5e3d
00000230: 945e 8dbd f8e1 74bd 345f 70be 0005 30ba
00000240: 2494 99be 4ea7 ef3d b633 78be a089 d0bc
00000250: 8c92 9fbd 0652 ce3d 20bc 4a3d eee2 4cbe
00000260: 08e9 8ebe a2b5 8abe fa80 4bbe 47f4 36be
00000270: 4002 a5bd 1e92 8bbe 91bb 98be 78d3 403d
00000280: 609f 913c 0c6e c8be 4586 cbbe ae8d abbe
00000290: d208 b23d da8a 45be 08bf e93d 12c2 95be
000002a0: c1ce adbe 4055 e3bd a2a0 d5be e09f 993b
000002b0: e033 ff3d 5475 31bd 0d43 d0be 94d2 cebe
000002c0: 7720 8dbe 51f4 3dbe 74f0 9bbe 1252 f6bd
000002d0: 6228 cf3d 6fff a7be 7b48 58be b4a2 c3bd
000002e0: c88c 31be fb14 80be 09d4 6dbe c078 bd3d
000002f0: 607c ccbe 835f 9ebe c8b5 e6bc e4ad c3bd
00000300: e27b b0bd c4fd f5bd 8032 7e3c a09b b4bd
00000310: 92ad dabd c0c9 4abb a8df 7e3d bc30 e1bd
00000320: 9c0f fd3d 502d 1d3d 188c 353d 7081 c33d
00000330: e06e 30bd 8e49 d3bd 1ef2 93bd 5e8b 8e3d
00000340: 521f d3bd 2cea de3d ec65 1bbd 88cb 01bd
00000350: 2830 7f3d 44de 64bd 0024 613d c869 b8bc
00000360: dc18 e53d 40b3 c0bc 8837 edbc 9838 7b3d
00000370: 50b4 a43c bc80 1b3d 60b8 cabd 30d3 283c
00000380: 00d0 8bbc 5c5b 853d 40f6 47bc 80cb 51bd
00000390: a026 b03b 101a 9b3c 2c3e 10bd 8094 d33a
000003a0: 1060 17bc 2c9d 1b3d 5e82 d6bd 6c5d 553d
000003b0: f096 1c3d 8095 9cbd e498 fcbd b421 94bd
000003c0: 9419 a73d 509d 5f3d 1492 91bd 7cea b13d
000003d0: b855 a0bd 08cf 6e3d 9cd7 a0bd 9eb5 c4bd
000003e0: baac 803d 60c2 2bbd 2c98 b1bd b6e5 813d
000003f0: 6053 20bc 78a1 8fbc 3038 dabd 8882 153d

bias f4 [32]
-0.14832355 -0.45210385 -0.30952036 0.018797293 0.047660902 20.22004 0.11653121 0.11603315
0.060436696 0.017903656 -0.065326326 20.90889 -0.3712995 -0.082392216 -0.21523075 24.931845
-0.011142075 20.798328 23.613712 -0.41090605 -0.008085802 -0.06799011 -0.092118695 0.0009984374
-0.11031902 -0.20942026 21.343763 -0.014487681 -0.37936148 -0.053839557 0.026904091 -0.055405166
00000000: 21e2 17be 287a e7be 7479 9ebe c8fc 993c
00000010: 1438 433d a4c2 a141 eaa7 ee3d caa2 ed3d
00000020: 788c 773d b0aa 923c cfc9 85bd 6845 a741
00000030: f81a bebe 40bd a8bd 7365 5cbe 6b74 c741
00000040: 408d 36bc fa62 a641 e2e8 bc41 4762 d2be
00000050: 507a 04bc 663e 8bbd baa8 bcbd 00de 823a
00000060: f0ee e1bd 4472 56be 07c0 aa41 bd5d 6dbc
00000070: ab3b c2be de86 5cbd f865 dc3c 87f0 62bd

weight f4 [1, 32]
0.002168785 0.10696921 0.17880212 0.041102856 -0.11157687 2.7770615 0.15050666 0.166517
-0.17406513 0.05495432 -0.057438474 2.6946902 -0.27269003 0.00096632866 -0.25144574 5.246868
0.03169337 2.69744 2.6976645 -0.22787791 -0.069924854 0.10290469 0.06090632 0.005736649
0.06251705 -0.29875782 2.6711833 -0.022516813 -0.21560155 0.00012780786 -0.10732395 0.048360836
00000000: 2d22 0e3b ac12 db3d e717 373e 785b 283d
00000010: 6a82 e4bd 60bb 3140 6b1e 1a3e 6f83 2a3e
00000020: 213e 32be c817 613d 9b44 6bbd ce75 2c40
00000030: 079e 8bbe 3851 7d3a 7fbd 80be 58e6 a740
00000040: e8d0 013d dba2 2c40 89a6 2c40 d458 69be
00000050: c334 8fbd b2bf d23d e878 793d 80fa bb3b
00000060: f008 803d c9f6 98be abf4 2a40 2e75 b8bc
00000070: a7c6 5cbe 2904 0639 a9cc dbbd 0316 463d
