api/home_price_model_bhi.pth (torch, 82193 bytes, 7 tensors)

weight f4 [313, 5]
0	0x40b32a63	5.598924
1	0x40a88efe	5.267455
2	0xc0ad667f	-5.4187617
3	0xc0c415a3	-6.127641
4	0x4094093d	4.6261277
5	0x3c5fd1bc	0.013660844
6	0x3f3a9377	0.72881263
7	0xc05dbfdd	-3.4648354
8	0xbfe5a022	-1.7939494
9	0x3fcfeba6	1.6243789
10	0x40a7ec90	5.2476273
11	0x3ff563f4	1.9171128
12	0xc042f00b	-3.045901
13	0xc0af816a	-5.4845476
14	0x3fc2fddc	1.5233722
15	0x408bf62e	4.373801
16	0x40a0c28c	5.0237484
17	0xbfd6dec3	-1.6786731
18	0xc0481cc3	-3.1267555
19	0x405309d9	3.297476
20	0x40d2a23a	6.582303
21	0x3fed9850	1.8562107
22	0xc0c63edf	-6.1951747
23	0xc0cb87d5	-6.360331
24	0x40968552	4.7037745
25	0xbf4d5cab	-0.80219525
26	0xbf03a42e	-0.51422393
27	0x3e9182b6	0.28420037
28	0x3ed1cdb9	0.40977266
29	0x3f804ed3	1.0024055
30	0x409fc0d8	4.9922905
31	0x405e9ec1	3.4784396
32	0xc0a44697	-5.133617
33	0xc0a69c76	-5.206599
34	0x40c82f55	6.255778
35	0x40690063	3.6406486
36	0x3fffe956	1.9993083
37	0xc05e9c7b	-3.4783008
38	0xc0a27ea7	-5.0779605
39	0x405d1b51	3.4547923
40	0x3fbceffb	1.4760736
41	0x4032e0eb	2.794978
42	0xbfac3f89	-1.3456889
43	0xc03697ad	-2.8530076
44	0x3f0116f1	0.5042563
45	0x4069590c	3.64606
46	0x3fa3a726	1.2785385
47	0xc084ae48	-4.1462746
48	0xc00d76e7	-2.2103822
49	0x4018ca46	2.3873458
50	0x4080ca72	4.0247126
51	0x405652e4	3.3488092
52	0xc09d21a6	-4.9103575
53	0xc094e2de	-4.6526937
54	0x40a90af4	5.282587
55	0x40a441c6	5.133029
56	0x405924ca	3.3928704
57	0xc084f453	-4.1548247
58	0xc07cc3ef	-3.9494588
59	0x408b8707	4.360233
60	0x404d51c2	3.208115
61	0x40944138	4.6329613
62	0xc03bc150	-2.9336739
63	0xbffb8fe5	-1.9653288
64	0x40cd41b3	6.41427
65	0x4077196f	3.8609273
66	0x40a6c787	5.2118564
67	0xc0802756	-4.0048018
68	0xc0b02fbd	-5.5058274
69	0x40a210e3	5.0645614
70	0x406bb246	3.682756
71	0x3f8bd07b	1.0922998
72	0xc05b30c2	-3.424851
73	0xbff23293	-1.8921684
74	0x400add61	2.169762
75	0x415437e8	13.263649
76	0x416f8ac6	14.97138
77	0xc1758220	-15.344269
78	0xc15ec290	-13.922501
79	0x415f0aab	13.9401045
80	0xbe96113d	-0.29310027
81	0x3f4a237a	0.7896038
82	0xbec3d3ef	-0.3824763
83	0x3e952a6c	0.29133928
84	0xbf89a633	-1.0753845
85	0x40accc8c	5.399969
86	0x3f3449b5	0.7042497
87	0xc0626197	-3.5372064
88	0xc0cae2a2	-6.340165
89	0xbf9292d8	-1.1451063
90	0x40c3f608	6.123783
91	0x40b7ff57	5.7499194
92	0xc0c7adc8	-6.2399635
93	0xc0bf91f9	-5.986569
94	0x409c7606	4.889407
95	0xbe906022	-0.28198344
96	0x402ff8d6	2.7495627
97	0xbf15e195	-0.58547336
98	0x3f254d40	0.64571
99	0x4023d8cd	2.5601075
100	0x4057ee32	3.3739133
101	0x40055e40	2.0838776
102	0xc05fac28	-3.4948826
103	0xc04c8185	-3.1954052
104	0x408cb93f	4.397613
105	0x405af151	3.4209788
106	0x4012b2de	2.2921672
107	0xc0008098	-2.0078487
108	0xc0824b98	-4.0717278
109	0x401523da	2.3303132
110	0x40e97884	7.2959614
111	0x41008ac0	8.0338745
112	0xc0c52122	-6.1602945
113	0xc0e92597	-7.2858386
114	0x40ebfd5e	7.3746786
115	0x3e879820	0.2648325
116	0x3f33d26e	0.70242965
117	0xbf4351b1	-0.76296526
118	0xbfe431b4	-1.7827668
119	0x40011daf	2.0174367
120	0x410e70c7	8.902534
121	0xbf53c4d9	-0.8272224
122	0xc0027f01	-2.0390017
123	0xc0b3e36d	-5.621512
124	0xbfa0d35e	-1.2564504
125	0x402ab432	2.6672482
126	0x3fd19cd6	1.6375988
127	0xbe1b882d	-0.15188666
128	0xc04e40d6	-3.2227073
129	0x3f9a5315	1.2056605
130	0x3fe2a30d	1.7706009
131	0x3f8b9241	1.0904008
132	0xc021fa91	-2.5309184
133	0xc00580b0	-2.0859795
134	0x401c54eb	2.442683
135	0x40544683	3.3168037
136	0x401a4253	2.410298
137	0xc04d2dcc	-3.2059202
138	0xc044f820	-3.0776443
139	0x3fdd266f	1.7277354
140	0x404f9ea5	3.244058
141	0x408143f3	4.0395446
142	0xc09b99fb	-4.8625464
143	0xc05bcd2f	-3.4343984
144	0x4091e003	4.558595
145	0x40bb357a	5.850278
146	0x4013fcb3	2.3122985
147	0xc0941ef3	-4.628778
148	0xc09eee5f	-4.966598
149	0x3fefd55a	1.8736985
150	0x3fc5e74b	1.546121
151	0x400c2a56	2.190084
152	0xbf60e988	-0.8785634
153	0xbf89d84e	-1.0769136
154	0x3e8298d2	0.25507218
155	0x40f47592	7.639352
156	0x403625ea	2.846064
157	0xc0a648af	-5.1963725
158	0xc0aaa584	-5.3327045
159	0x405b66ca	3.4281487
160	0x409622ea	4.691762
161	0x3ffe1773	1.9850906
162	0xc04a5908	-3.161684
163	0xc09b324b	-4.8498893
164	0x4064c36c	3.5744276
165	0x40d25b76	6.5736647
166	0xbc3dccb0	-0.011584446
167	0xc07adc3e	-3.9196925
168	0xc0a4d685	-5.1511865
169	0x403dce22	2.9657063
170	0x413c1d31	11.757127
171	0x4149feb2	12.624681
172	0xc139531b	-11.582789
173	0xc132c66f	-11.173446
174	0x414e1370	12.8797455
175	0x40498b79	3.1491377
176	0x40949690	4.643379
177	0xc032d0f1	-2.7940028
178	0xc02b4346	-2.675981
179	0x4048dfcd	3.1386597
180	0x40398e9d	2.8993294
181	0x4023a0a9	2.556681
182	0xbf43061f	-0.76181215
183	0xbfc720c0	-1.555687
184	0x401e635f	2.4748151
185	0x40cce9d3	6.403543
186	0x3fecc79a	1.8498414
187	0xbfc39737	-1.5280522
188	0xc05ee42d	-3.4826767
189	0x3fd3f550	1.6559238
190	0x3e189881	0.14901926
191	0xc011e212	-2.2794232
192	0xbfaecf23	-1.3656963
193	0x3fa8dbbb	1.3192056
194	0x3dc5f848	0.096664965
195	0x3fefc935	1.8733279
196	0x406f2a86	3.7369704
197	0xc04ef641	-3.2337801
198	0xbffae87a	-1.9602196
199	0x404b05b9	3.1722243
200	0x411a8fec	9.660137
201	0xbf6e8d69	-0.93184525
202	0xbfc3960f	-1.5280169
203	0xc0cbfa87	-6.374332
204	0xbf042975	-0.5162576
205	0x40a35862	5.104539
206	0x3f07dbf9	0.53070027
207	0xbf2935a4	-0.66097474
208	0xc02c3aec	-2.6910963
209	0xbedc2ed6	-0.43004483
210	0x408c536b	4.385183
211	0x3fa6524d	1.2993866
212	0xc03855a4	-2.880227
213	0xc0a67583	-5.2018447
214	0x3fbc049c	1.4688907
215	0x40d3f8a1	6.6241
216	0x4029eacf	2.6549566
217	0xbfc82179	-1.5635215
218	0xbf96c1b0	-1.1777859
219	0x4048194d	3.1265442
220	0x410a7b63	8.655124
221	0x40c41319	6.1273313
222	0xc0ca523f	-6.32254
223	0xc0b04b98	-5.5092278
224	0x4103b2b7	8.231132
225	0x3f9985d1	1.1993963
226	0x3f4a9d32	0.7914611
227	0xc004cf2d	-2.075145
228	0xc0246b23	-2.569039
229	0x404d07c6	3.2035995
230	0x409e133a	4.939847
231	0x40728432	3.7893186
232	0xc087692b	-4.231588
233	0xc096cd0b	-4.7125297
234	0x408b4574	4.352228
235	0x40188fd0	2.3837776
236	0x4054f084	3.32718
237	0xc0099826	-2.1499114
238	0xc02ca505	-2.697572
239	0x402174ca	2.5227532
240	0x4051006c	3.2656507
241	0x40a0723b	5.013944
242	0xc0399821	-2.8999102
243	0xc0836ef8	-4.107296
244	0x40566118	3.3496761
245	0x41357285	11.340459
246	0x41150863	9.314548
247	0xc12f0af1	-10.940171
248	0xc140c0e3	-12.0470915
249	0x4128fb9a	10.561426
250	0x40b4a489	5.645085
251	0x40b89925	5.7686944
252	0xc0ad7485	-5.4204736
253	0xc09c2778	-4.879818
254	0x409d1920	4.909317
255	0x40534569	3.3011115

weight f4 [1563, 5]
0	0xbfad6f38	-1.3549566
1	0xbf35a9b2	-0.7096206
2	0x3f3ae0f7	0.7299952
3	0xbf72713a	-0.9470402
4	0xbf936f44	-1.151833
5	0x405d298e	3.4556613
6	0xc0b31ea0	-5.5974884
7	0xc06f1335	-3.7355473
8	0x408d23a2	4.4105997
9	0x4084b169	4.1466565
10	0x402733af	2.6125295
11	0xbf4c0187	-0.7968983
12	0xc08d5b1e	-4.4173727
13	0x40623f9d	3.5351326
14	0x408de4ef	4.434196
15	0x40fd79bc	7.92111
16	0xc0d4ba64	-6.647753
17	0xc0ccb042	-6.396516
18	0x41008481	8.03235
19	0x410619ba	8.381281
20	0x3ffa2b1b	1.9544405
21	0xc0661e24	-3.5955896
22	0xbd6aaa4d	-0.057291318
23	0x3fee7613	1.8629783
24	0x4027de7c	2.6229544
25	0x3fc28617	1.5197171
26	0xbf319401	-0.6936646
27	0xbee33304	-0.4437486
28	0x3f7d72c9	0.99003273
29	0x3f2c7629	0.673678
30	0x3f0cfdf3	0.55074996
31	0xc00cccec	-2.2000074
32	0x3f04d48b	0.51886815
33	0x3ef215e2	0.4728232
34	0xbe86a181	-0.26295093
35	0xbce7e4cb	-0.02830734
36	0xbf761c69	-0.961371
37	0xc0069d15	-2.1033375
38	0x3f560491	0.8360072
39	0x3f5dce5e	0.86643016
40	0x409887a9	4.76656
41	0xc06ebc73	-3.730252
42	0xc08b3d68	-4.351246
43	0x40b6f05f	5.716842
44	0x40c51676	6.158992
45	0x40012525	2.0178921
46	0xbeaac3c3	-0.3335248
47	0xc00148f7	-2.0200784
48	0xbf5ae3d2	-0.85503876
49	0x400afcf3	2.1716888
50	0x401d6ec0	2.4598846
51	0x3e2bab18	0.16764486
52	0xc04cf802	-3.2026372
53	0x3ffc85f5	1.972838
54	0x3fe54c7b	1.7913965
55	0xbfe24e46	-1.7680137
56	0xbe9721bf	-0.29517934
57	0x40842950	4.130043
58	0xbf8c9f95	-1.09862
59	0xbf570a86	-0.8400043
60	0x3ed5235e	0.41628546
61	0x3edb72e8	0.42861104
62	0xbf1c9c06	-0.6117557
63	0x3ff01136	1.8755252
64	0xbea8e0a3	-0.32983884
65	0xbf61cdfa	-0.8820492
66	0x3e4de788	0.20107853
67	0x3f897dca	1.0741513
68	0xbfb8971f	-1.4421118
69	0x3efde67d	0.4958991
70	0xc0037ecd	-2.0546143
71	0xbfafc5a7	-1.3732194
72	0xbf005135	-0.5012391
73	0x3fbe5713	1.4870323
74	0xbf2ed91d	-0.6830004
75	0xbfbf2af0	-1.4934978
76	0x40491a61	3.142235
77	0x3fcd1b67	1.6023988
78	0x3e2d0201	0.16895296
79	0xbf769b55	-0.9633077
80	0xbe713e8f	-0.2355902
81	0x4000ebcb	2.0143917
82	0x3ee6a46f	0.45047328
83	0xbf93a3d0	-1.1534367
84	0x3ee72c8d	0.45151177
85	0xbf3504c2	-0.70710385
86	0x400ab18d	2.1670868
87	0xbe938abf	-0.28816792
88	0xbf3f4b03	-0.74723834
89	0xc0220ffa	-2.5322251
90	0x3ee74c4f	0.45175406
91	0xbf5cfe25	-0.86325294
92	0xbfaea9d6	-1.364558
93	0xbe92a677	-0.28642628
94	0xbf7c4795	-0.98546726
95	0xbf6e1fdb	-0.9301736
96	0x3f8bb1a6	1.0913589
97	0x3f29284d	0.6607712
98	0xbf7d5317	-0.9895491
99	0xbfef2d4e	-1.8685701
100	0x3f3b08c4	0.7306025
101	0x3d386dd4	0.045026615
102	0x3fe67884	1.8005528
103	0xbd5d23e7	-0.053989317
104	0x3fbc4e26	1.4711349
105	0x3f62fdc1	0.8866845
106	0xbfe8395e	-1.8142507
107	0x3eb0972e	0.3449034
108	0x3e310f90	0.17291093
109	0xbedb28c1	-0.4280453
110	0xc0a77c55	-5.2339272
111	0x40a3a7e0	5.1142426
112	0x40891309	4.2835736
113	0xc09bc774	-4.8680973
114	0xc0321b59	-2.7829192
115	0x3ecdcb35	0.40194097
116	0xbfa7a807	-1.3098153
117	0x3ebbe708	0.366997
118	0xbf9a5283	-1.205643
119	0x3fa39abf	1.27816
120	0x3f232e10	0.6374216
121	0x3fa17869	1.2614871
122	0x3d307808	0.04308322
123	0x3f98cd72	1.1937697
124	0xbfb173d6	-1.3863475
125	0x3eb137f7	0.3461301
126	0xbf9c6ef6	-1.2221363
127	0xbf66c6b9	-0.90146977
128	0x3f4676dc	0.77525115
129	0x3f7dc6f8	0.9913173
130	0x3fe75fd3	1.8076118
131	0x3e793483	0.24336438
132	0x3f84d76a	1.0378239
133	0x3fb939ee	1.4470804
134	0x3fbb3514	1.4625573
135	0x3f78907d	0.9709547
136	0xbfac43d2	-1.3458197
137	0xbf52bbd6	-0.82317865
138	0x3f8b7753	1.089579
139	0x3fe26ceb	1.7689489
140	0xc0782262	-3.8770986
141	0x409bda22	4.8703775
142	0x406cc5e7	3.699579
143	0xc0946127	-4.6368594
144	0xc04842b2	-3.1290708
145	0x3fd4e1d8	1.6631422
146	0xbf00b6bf	-0.5027885
147	0xbf17d98f	-0.59316343
148	0x3fd17119	1.636264
149	0x3d71bfd5	0.059020836
150	0xbec91812	-0.39276177
151	0xbef8a186	-0.48560733
152	0x3f7e0086	0.9921955
153	0x3faa9a08	1.3328257
154	0x3f5e875b	0.86925286
155	0x3fdeda70	1.7410412
156	0xc047613b	-3.1153095
157	0x3effeb4d	0.49984208
158	0x3fe574f3	1.7926315
159	0xbf806a24	-1.0032392
160	0xbede4bfd	-0.4341735
161	0xbfe0510d	-1.7524735
162	0x3d9ec974	0.07753268
163	0xbfe9f400	-1.8277588
164	0xbf73e7bc	-0.95275474
165	0x3fb125d8	1.3839674
166	0xbe8fda4c	-0.28096235
167	0xbe1f64ee	-0.15565845
168	0x3f508887	0.81458324
169	0x3e011bcc	0.1260826
170	0x3faf601d	1.3701206
171	0xbfe6f264	-1.8042722
172	0xbe014035	-0.1262215
173	0x3fcb1e56	1.5868633
174	0x3fb99caf	1.4500941
175	0xbf512024	-0.8168967
176	0xbf7e497d	-0.99330884
177	0xbf6788d3	-0.9044315
178	0x3f2a86bc	0.6661184
179	0xbef6db34	-0.48214114
180	0x3e294095	0.16528542
181	0xbe653ea5	-0.22387178
182	0x3f7e9190	0.9944086
183	0xbf2215b3	-0.6331436
184	0xbf397b26	-0.72453535
185	0x3f8a1e60	1.079052
186	0x3e3d38b2	0.18478659
187	0xbd9c945d	-0.076454856
188	0x3f2bda97	0.67130417
189	0x3f06c35e	0.52641857
190	0x3f1eb9c9	0.62002236
191	0xbfe6643a	-1.7999337
192	0xbfc8538b	-1.5650495
193	0x3fb3f0ac	1.4057822
194	0xbfac5c9a	-1.346576
195	0x4027acfa	2.6199327
196	0x3ea6a7aa	0.32549793
197	0xc0734211	-3.8009074
198	0x3f8de7d0	1.1086369
199	0x404061da	3.0059724
200	0xbebfdb32	-0.3747192
201	0xbf2bff1e	-0.6718615
202	0xbfba4cdc	-1.4554706
203	0x40152323	2.3302696
204	0x3ef4eea6	0.47838324
205	0xbf81bc93	-1.0135673
206	0x3f9bdf6d	1.2177559
207	0x3e941888	0.28924966
208	0x3f3c6f30	0.7360716
209	0xbfb3bc11	-1.4041768
210	0x3f5004e6	0.81257474
211	0xbf8b17e3	-1.0866665
212	0x3f490a0c	0.78530955
213	0x3f9f9d54	1.2469888
214	0x3fabe2df	1.342861
215	0x4025400f	2.5820348
216	0xc00a5976	-2.1617103
217	0xbf5a436a	-0.85259116
218	0x3ecf51cb	0.4049209
219	0x3f866025	1.0498091
220	0xbfbd9616	-1.4811428
221	0x3ff20e65	1.8910643
222	0x3ff1f667	1.8903321
223	0xbf61c528	-0.8819146
224	0xbe9effa2	-0.31054407
225	0xbd9b69c2	-0.07588531
226	0xbfabb4a3	-1.3414501
227	0xbed97cd2	-0.42478043
228	0x3fc1111c	1.5083346
229	0x3fa807c9	1.3127376
230	0xbe655f11	-0.22399546
231	0x3f33620a	0.7007147
232	0x3f1fc052	0.6240283
233	0xbfba6e41	-1.4564897
234	0x3f8552d6	1.0415905
235	0x3f3e89e2	0.7442914
236	0x3f63308e	0.88745964
237	0xbf1d0102	-0.6132966
238	0x3f39eb52	0.72624695
239	0x3fcea110	1.6142902
240	0xbf486596	-0.7828001
241	0x3ffe5137	1.9868535
242	0x40493c90	3.1443214
243	0xbbb5ad56	-0.005544345
244	0xbf9d65c8	-1.2296686
245	0x3f8070dd	1.0034443
246	0x3e4b86f1	0.19875695
247	0x3f213109	0.62965447
248	0xbf1ad1d3	-0.60476416
249	0xbee8247d	-0.45340338
250	0xbe902041	-0.28149608
251	0xbed3c97f	-0.41364667
252	0xbf4b7665	-0.7947753
253	0xbebb1398	-0.36538386
254	0x3f39eef8	0.7263026
255	0x3fbe0314	1.4844689

weight f4 [32, 15]
0	0x41b734a1	22.900698
1	0x419be771	19.488008
2	0xc196746f	-18.806852
3	0xc1b448a6	-22.535473
4	0x418c04cb	17.50234
5	0x40b32b6d	5.599051
6	0xc0e3bef6	-7.1170607
7	0xc0e3a130	-7.113426
8	0x4154d399	13.30166
9	0x4184c0a2	16.594059
10	0x3e58afac	0.21160764
11	0xc1169ac9	-9.412789
12	0x41b64f27	22.788649
13	0x421f373c	39.80394
14	0xc20feb63	-35.97987
15	0x3dfea1c4	0.12433198
16	0xbe6a151b	-0.22859614
17	0xbd3f8e08	-0.04676631
18	0xbdaed62e	-0.08536945
19	0xbe197fb8	-0.14990127
20	0xbe1c99cc	-0.15293044
21	0xbdb3ec0e	-0.08785258
22	0xbe7302ec	-0.23731583
23	0xbe7a1868	-0.24423373
24	0x3e7ee746	0.24892911
25	0xbe2e9726	-0.17049846
26	0x3e58e060	0.21179342
27	0xbe3c3de9	-0.18382992
28	0xbe33c1d8	-0.17554414
29	0xbe4df95c	-0.20114654
30	0x3e107352	0.14106491
31	0x3da6f07c	0.081513375
32	0x3cc32110	0.023819476
33	0x3e61d83c	0.22055143
34	0x3dda5824	0.10661343
35	0x3e015a0a	0.12632003
36	0x3dab15f0	0.083537936
37	0x3da792d4	0.08182302
38	0xbe699fa8	-0.2281481
39	0xbe731b38	-0.23740852
40	0xbe6d3812	-0.2316592
41	0x3d2d2ef0	0.04228109
42	0xbda27dae	-0.07934128
43	0xbd1bbfb0	-0.038024604
44	0xbe1868f1	-0.14883782
45	0x41b99d83	23.20191
46	0x419981d3	19.18839
47	0xc1984560	-19.033875
48	0xc1b5bc54	-22.716957
49	0x418aa6a1	17.331362
50	0x40bca058	5.894573
51	0xc0f09741	-7.5184636
52	0xc0e4dd10	-7.151985
53	0x415d89ec	13.846172
54	0x418761d1	16.922762
55	0x3e3e183d	0.18563934
56	0xc111201e	-9.070341
57	0x41b7b10a	22.961445
58	0x42212939	40.290257
59	0xc210e2af	-36.22137
60	0x3d80cd24	0.062891275
61	0x3e31476e	0.17312405
62	0xbdfef9c6	-0.12449984
63	0x3cbb7e30	0.02288732
64	0xbdfa072a	-0.12208398
65	0x3e020346	0.12696561
66	0x3dfa3bec	0.122184604
67	0xbe40ef0d	-0.1884119
68	0xbd27466c	-0.040838644
69	0x3d977558	0.073954284
70	0xbddfe09a	-0.10931511
71	0x3e7b6fea	0.2455441
72	0x3ddbbe78	0.107296884
73	0x3cdca410	0.0269337
74	0x3e027ab6	0.12742123
75	0x3dccaf48	0.0999437
76	0x3dc3b550	0.09556067
77	0xbdae4850	-0.08509886
78	0xbc50ff10	-0.012756124
79	0x3d2228d8	0.039589733
80	0x3d086630	0.03330058
81	0x3e17e804	0.148346
82	0x3e347c6e	0.17625591
83	0x3ca59170	0.020210952
84	0xbd98c152	-0.07458748
85	0xbdd8fb82	-0.10594846
86	0xbe61701e	-0.22015426
87	0xbbe9ed00	-0.0071388483
88	0x3e6a2d84	0.22868925
89	0xbe1b0458	-0.15138376
90	0x3e2f9f4a	0.17150608
91	0x3e36965a	0.17830792
92	0x3a40cc00	0.0007354617
93	0x3cbc0130	0.022949785
94	0x3e51e2be	0.20496652
95	0x3e2d89ec	0.16947144
96	0xbe1f63d3	-0.15565424
97	0xbe84015c	-0.25782287
98	0x3e5c7856	0.2153028
99	0x3ddcfce8	0.107904255
100	0xbe7a84ce	-0.24464723
101	0x3e309582	0.17244533
102	0xbc78da70	-0.015188798
103	0xbc431930	-0.011907861
104	0x3e12b5a4	0.14327103
105	0xbcc07488	-0.023493066
106	0xbcdd1b58	-0.026990578
107	0x3d3d3f20	0.04620278
108	0xbaaa4800	-0.0012991428
109	0xbe39147b	-0.18074219
110	0xbe4b88f0	-0.19876456
111	0x3e26c1e8	0.16284907
112	0xbe40b6b5	-0.18819697
113	0xbe5375bf	-0.20650385
114	0x3e09677a	0.1341838
115	0xbe3f0564	-0.186544
116	0x3dc17778	0.09446615
117	0xbbd55100	-0.0065099
118	0xbe4da378	-0.2008189
119	0x3e7d820a	0.24756637
120	0x41bb8554	23.440102
121	0x419cdf4c	19.609032
122	0xc1988ea8	-19.069656
123	0xc1b35ec3	-22.42127
124	0x418a1f3b	17.26525
125	0x40bc8db7	5.892299
126	0xc0f45ec5	-7.6365685
127	0xc0ea2db4	-7.318079
128	0x415af4d7	13.684775
129	0x418a21ec	17.266563
130	0x3e116fa2	0.14202741
131	0xc10d9d08	-8.850838
132	0x41b7b15e	22.961605
133	0x422089d4	40.134598
134	0xc2106a1c	-36.103622
135	0x3e2e68d8	0.17032182
136	0x3d84cc6c	0.06484303
137	0x3e2ad80c	0.16683978
138	0x3c815c20	0.015790999
139	0x3e6df22a	0.2323691
140	0xbe7fe8ab	-0.249911
141	0x3dcbf814	0.099594265
142	0xbbcf21c0	-0.006321162
143	0xbdb06b3e	-0.08614205
144	0x39b97000	0.00035369396
145	0xbe6a112b	-0.22858112
146	0x3e095ee8	0.1341511
147	0x3d38fc30	0.04516238
148	0xbce1cac8	-0.027562514
149	0xbe0a2310	-0.13489938
150	0x41b90411	23.126986
151	0x419d56d2	19.667393
152	0xc1994d72	-19.162815
153	0xc1b79fab	-22.952963
154	0x418b244b	17.392721
155	0x40c6f957	6.217937
156	0xc0f14884	-7.540102
157	0xc0e837ec	-7.2568264
158	0x4159d5ad	13.614667
159	0x41881ca0	17.013977
160	0x3e01adde	0.12663981
161	0xc11348d3	-9.205279
162	0x41b86eda	23.054127
163	0x4221f02e	40.48455
164	0xc2112cb6	-36.293663
165	0xbe10e2f4	-0.14149076
166	0x3d696a98	0.05698642
167	0x3def1894	0.1167461
168	0xbe17e0ac	-0.148318
169	0xbe15fa44	-0.1464625
170	0x3d3054a8	0.043049484
171	0xbdbb7d9c	-0.091548175
172	0xbe3bfd08	-0.18358243
173	0x3cdaad30	0.02669391
174	0x3def6418	0.11689013
175	0xbd837620	-0.06419015
176	0x3d77c440	0.060489893
177	0xbcb45458	-0.022012874
178	0x3d943178	0.07235998
179	0xbdd8fbcc	-0.105949014
180	0xc1b7e71d	-22.987848
181	0x4112de02	9.179201
182	0x3fecc8da	1.8498795
183	0x4184ad92	16.584751
184	0x4186922f	16.821379
185	0x4220341f	40.0509
186	0xc21d24d7	-39.285976
187	0xc220ab62	-40.167366
188	0x4216b89d	37.680286
189	0x4201d7aa	32.46061
190	0x3e18e3c0	0.1493063
191	0xc1e0b16a	-28.086628
192	0x401d0f40	2.4540558
193	0x40ac760d	5.3894105
194	0xc2842d5c	-66.08859
195	0x3e7d5968	0.24741137
196	0x3ef81d4a	0.48459846
197	0xbd09c99a	-0.033639528
198	0xba5f1c4c	-0.00085109915
199	0x3e99bc94	0.30026686
200	0xbdf6bbf5	-0.12047569
201	0x3d8c56ed	0.06852517
202	0x3d05fa20	0.03270924
203	0xbe856b72	-0.26058537
204	0xbeaf37e1	-0.3422232
205	0xbe778e56	-0.2417539
206	0xbe5904db	-0.21193258
207	0xbe0ab4eb	-0.13545577
208	0x3b70ce8c	0.0036744205
209	0xbe166a2e	-0.14688942
210	0xbe4d2033	-0.20031814
211	0xbd54a4d0	-0.05191499
212	0xbd509bcc	-0.05092983
213	0x3dfcb0e0	0.12338424
214	0x3e224ac8	0.1584884
215	0xbe301e6a	-0.17199102
216	0xbe31b770	-0.17355132
217	0x3e2b8252	0.16748932
218	0xbe82a785	-0.25518432
219	0x3e2fdbc2	0.17173675
220	0xbe0f2842	-0.13980201
221	0x3e0e40c2	0.1389189
222	0x3d1e5fe0	0.038665652
223	0x3df00eb0	0.117215514
224	0xbd53af74	-0.051680997
225	0xc097721c	-4.7326794
226	0x415e32b1	13.887376
227	0xc09e0a53	-4.9387603
228	0x3fdc4b81	1.7210542
229	0x4174af07	15.292731
230	0x421ad7ed	38.710865
231	0xc21e6da9	-39.60709
232	0xc20e5998	-35.587494
233	0x4203e24d	32.970997
234	0x4200e013	32.218822
235	0x3e34c110	0.17651772
236	0xc1beb89e	-23.840145
237	0x40d2d202	6.5881357
238	0x419200ef	18.250456
239	0xc24ec54d	-51.692677
240	0x41b7aa3c	22.958122
241	0x4199a0d8	19.203537
242	0xc1978ef0	-18.944794
243	0xc1b436dc	-22.526787
244	0x418c0c25	17.50593
245	0x40ba995e	5.8312216
246	0xc0ec6597	-7.387401
247	0xc0e9050a	-7.281865
248	0x415e3075	13.88683
249	0x41897444	17.18177
250	0x3e3ac3fb	0.18238823
251	0xc11019e2	-9.006319
252	0x41b80191	23.000765
253	0x421f718a	39.860878
254	0xc20fd8c7	-35.961697
255	0x41b6b503	22.838385

bias f4 [32]
0	0x420973a2	34.362923
1	0x3e3a31c8	0.18183053
2	0xbded938a	-0.116004065
3	0x420a9a98	34.65097
4	0xbcd73c58	-0.026273891
5	0xbdf23e20	-0.11828256
6	0xbd778fc0	-0.060439825
7	0x3c82c5e0	0.015963495
8	0x420bdff7	34.968716
9	0x3e05d632	0.1306999
10	0x420b5197	34.829678
11	0x3e05924a	0.13044086
12	0xc1d10192	-26.125767
13	0xbebe46cc	-0.3716339
14	0xbe7549ba	-0.23953906
15	0xc074f607	-3.8275163
16	0x420a2ec7	34.54568
17	0x420a4c35	34.57442
18	0xbacb3900	-0.0015504658
19	0x3e243e1e	0.16039321
20	0xbdc07ee8	-0.093992054
21	0x42095d9d	34.34142
22	0x420aaf72	34.671333
23	0x3dd847ec	0.10560593
24	0x3db701e0	0.089359045
25	0x3e442630	0.19155192
26	0x3e45b86a	0.1930863
27	0xbd8938f6	-0.067003176
28	0x3e480176	0.19531807
29	0x420a2498	34.535736
30	0xbe1aef98	-0.1513046
31	0x420b128c	34.768112

weight f4 [16, 32]
0	0x4027bb53	2.6208084
1	0x3e0770e5	0.1322666
2	0xbd964b9a	-0.073386386
3	0x40297aae	2.6481128
4	0xbe08278d	-0.13296337
5	0x3dcb3df6	0.099239275
6	0xbc9fcfa8	-0.019508198
7	0xbdc6897d	-0.096941926
8	0x40289872	2.6343045
9	0x3e1e451f	0.15456055
10	0x4030b19b	2.7608402
11	0x3e133bdd	0.14378305
12	0x41465cc7	12.397651
13	0xbec88303	-0.39162454
14	0x3c4fbbc0	0.01267904
15	0x40d68203	6.7033706
16	0x40174e76	2.3641639
17	0x401a220e	2.4083285
18	0x3df341ee	0.118778095
19	0x3e2e434d	0.1701786
20	0xbe276a2f	-0.163491
21	0x4026ead7	2.6080835
22	0x4026a139	2.6035903
23	0x3dc7f41e	0.097633585
24	0xbc74c2e0	-0.01493904
25	0x3cb4ce10	0.022070915
26	0x3cbf51c0	0.023354411
27	0x3e331563	0.17488627
28	0xbcbbf748	-0.022945061
29	0x401d1f4d	2.4550354
30	0xbde806f8	-0.11329454
31	0x40285b0f	2.6305578
32	0x3d479852	0.04872925
33	0x3db9769a	0.090558246
34	0x3dea6f4a	0.11447008
35	0xbe2daa0a	-0.16959396
36	0xbe07289a	-0.13199082
37	0x3da1e30e	0.07904635
38	0x3dd485a6	0.10377054
39	0xbbd56620	-0.0065124184
40	0x3ce47c39	0.027891265
41	0xbdfd333e	-0.12363289
42	0xbe610e86	-0.21978197
43	0x3e05b7f1	0.1305845
44	0xbd95ee15	-0.07320801
45	0x3db5cf46	0.08877425
46	0xbe2ed81a	-0.17074624
47	0xbdf1deca	-0.11810072
48	0xbd4cd9c6	-0.050012372
49	0xbe096492	-0.13417271
50	0xbdc4dbc4	-0.096122295
51	0x3dc7f386	0.09763245
52	0x3dd379f2	0.103259936
53	0x3da3fbae	0.080069885
54	0xbe44fef1	-0.19237877
55	0xbdeec98e	-0.11659537
56	0x3b903f60	0.004402086
57	0x3e006d53	0.12541704
58	0xbd40d944	-0.0470822
59	0x3e0c9ad5	0.13730939
60	0xbdbaf9ac	-0.091296524
61	0x3de11418	0.10990161
62	0x3d6cdfd8	0.05783066
63	0xbe563e3c	-0.20922178
64	0x3dd06306	0.10175137
65	0x3d5287dc	0.051399097
66	0x3e221311	0.15827586
67	0xbe118483	-0.14210705
68	0xbd2d7e30	-0.04235667
69	0xbcbec4f0	-0.023287266
70	0xbda3d1c0	-0.07998991
71	0xbd7c73c0	-0.061633825
72	0x3d689324	0.05678095
73	0xbd298b50	-0.041392624
74	0xbe2dda73	-0.16977863
75	0xbd81cedf	-0.06338286
76	0xbdb500b2	-0.08838023
77	0x3c2219e0	0.009893864
78	0xbe17a13a	-0.14807597
79	0x3db8d3ae	0.0902475
80	0xbdec1421	-0.11527277
81	0xbdf75605	-0.12076954
82	0xbda56be8	-0.08077222
83	0x3e1ff805	0.15621956
84	0x3c802918	0.015644595
85	0x3bf44640	0.0074546635
86	0x3e030519	0.12794913
87	0xbd14fadc	-0.03637205
88	0xbe0d813f	-0.13818835
89	0xbdf19e66	-0.1179779
90	0xbdd0a2ec	-0.10187325
91	0x3c7de8a0	0.015497357
92	0x3db2c6e2	0.0872934
93	0xbe0a871f	-0.13528107
94	0x3e1229e9	0.142738
95	0xbe28f258	-0.16498697
96	0xbeb6351a	-0.35587388
97	0x3d5923f8	0.053012818
98	0x3da8d4ae	0.082436904
99	0xbebac650	-0.36479425
100	0x3d0666f0	0.032813013
101	0x3e15766f	0.1459596
102	0xbda0bba9	-0.07848293
103	0x3d91a1b0	0.071109176
104	0xbe915296	-0.2838332
105	0x3d6719ec	0.056421205
106	0xbeb05bc4	-0.34445012
107	0x3e16e1e9	0.14734615
108	0xbc9e2466	-0.019304466
109	0xbe22d94e	-0.15903208
110	0x3dd35b52	0.10320152
111	0xbe989550	-0.29801416
112	0xbdb8aeef	-0.09017741
113	0xbe5b538e	-0.21418592
114	0x3e01cf5b	0.12676756
115	0x3e2a5003	0.16632085
116	0x3d0f7f3c	0.03503345
117	0xbe28137d	-0.16413684
118	0xbeadf0ae	-0.33972687
119	0x3da9fa92	0.082997456
120	0x3c8328b0	0.016010612
121	0xbdc22760	-0.094801664
122	0xbd96fe36	-0.07372706
123	0x3d11acb4	0.035565093
124	0x3d40b1f4	0.04704471
125	0xbd618e37	-0.055067267
126	0xbc5da8d0	-0.013529018
127	0xbdd1fec9	-0.102536745
128	0x3ef66137	0.48121044
129	0xbdfb2508	-0.122629225
130	0x3d7985a4	0.060918465
131	0x3eb4f596	0.35343617
132	0xbdb6d0e9	-0.08926565
133	0xbd749ed0	-0.059721768
134	0x3d888b54	0.066672
135	0xbdc0fbe7	-0.094230466
136	0x3edd9688	0.4327891
137	0x3d951394	0.07279125
138	0x3edbcd34	0.42929995
139	0x3d13aca4	0.036053315
140	0x416fd979	14.990594
141	0x3e170491	0.14747836
142	0xbd2b12ec	-0.041766092
143	0x4120477b	10.017451
144	0x3e6ba8e2	0.23013642
145	0x3ede6a70	0.4344058
146	0x3e0ecf5b	0.13946287
147	0xbe207e1a	-0.15673104
148	0xbca9f498	-0.020746514
149	0x3e38019d	0.17969365
150	0x3e4d858f	0.2007048
151	0x3d5c0ce4	0.05372323
152	0x3d9afc3e	0.07567643
153	0xbc8d2460	-0.017229259
154	0xbe1dda9f	-0.15415429
155	0xbe165f42	-0.14684775
156	0xbd85e60a	-0.06538017
157	0x3e34155c	0.17586273
158	0xbdfcfaea	-0.123525456
159	0x3e965db8	0.29368377
160	0xbe34dd8f	-0.17662643
161	0x3e1b64b9	0.15175141
162	0xbd4ee6f0	-0.050513208
163	0xbea4bc2d	-0.32174817
164	0x3c3b6890	0.011438504
165	0xbdbd9f8b	-0.09258946
166	0x3b20de40	0.0024546534
167	0xbe0bb41d	-0.13642927
168	0xbe85995b	-0.26093563
169	0x3ddf71d6	0.10910384
170	0xbeb80802	-0.3594361
171	0x3d93fcfa	0.07225986
172	0xbcc70019	-0.024292039
173	0xbe12a670	-0.14321303
174	0x3dc27806	0.09495549
175	0xbdfcd751	-0.12345756
176	0xbed1404f	-0.40869376
177	0xbed22bdc	-0.41049087
178	0xbd16501c	-0.036697492
179	0xbe30ef7f	-0.1727886
180	0x3df5fd1a	0.12011166
181	0xbe3a8e7e	-0.18218419
182	0xbe19b499	-0.15010299
183	0xbdae1997	-0.085009746
184	0x3da2ea7a	0.07954879
185	0xbd6f370c	-0.058402106
186	0xbcb8c548	-0.022555009
187	0xbe1b1f55	-0.15148671
188	0xbddfe32e	-0.10932003
189	0xbea735b0	-0.32658148
190	0x3dc47a3a	0.09593625
191	0xbeacf5d7	-0.3378131
192	0xbb8fd860	-0.0043898076
193	0x3de756da	0.112958625
194	0x3d8a0dc6	0.06740908
195	0xbdea2344	-0.11432508
196	0x3e0c8f0d	0.13726445
197	0xbe33701d	-0.17523237
198	0xbe01026c	-0.1259858
199	0xbda35419	-0.07975025
200	0xbe0efba8	-0.13963187
201	0x3dd6ed36	0.10494463
202	0x3e1caa43	0.15299325
203	0xbd779200	-0.06044197
204	0xbe0d29c6	-0.13785467
205	0xbe1ef1d3	-0.15521936
206	0x3e2fc857	0.17166267
207	0xbe029e64	-0.12755734
208	0xbddb449f	-0.10706448
209	0x3db81b62	0.08989598
210	0xbba12800	-0.0049180984
211	0xbd3473e8	-0.04405585
212	0xbdff7a0d	-0.12474451
213	0x3a840200	0.0010071397
214	0xbd017ccc	-0.031613156
215	0x3d298ee0	0.04139602
216	0x3dc51a8e	0.096242055
217	0x3e0a3cc5	0.13499744
218	0xbdec20b6	-0.115296766
219	0x3e06297d	0.13101764
220	0x3d3d4044	0.046203867
221	0xbb9b5f80	-0.004741609
222	0x3e189f01	0.14904405
223	0x3dccaf4a	0.09994371
224	0x401ee503	2.4827278
225	0xbd8d6ad7	-0.06905144
226	0x3ce9a4f0	0.028521031
227	0x401ec244	2.480607
228	0x3da91ee2	0.082578436
229	0x3dfaff1e	0.12255691
230	0xbd1f25f8	-0.03885457
231	0x3e17b8d9	0.14816608
232	0x401b68d3	2.428273
233	0xbdc0c75b	-0.09413024
234	0x4034fe6a	2.8280282
235	0x3d4c597c	0.049890026
236	0x4146e006	12.429693
237	0xbe7d1134	-0.24713594
238	0xbd85c893	-0.06532397
239	0x40d8fbc9	6.7807355
240	0x40143fe2	2.316399
241	0x4014abfe	2.3229976
242	0xbe023cde	-0.12718531
243	0x3da51baa	0.08061917
244	0x3e2da853	0.16958742
245	0x401fab74	2.4948397
246	0x4031ba6f	2.777004
247	0x3e08567f	0.13314246
248	0xbccfc6e8	-0.0253634
249	0xbda9d40d	-0.082923986
250	0xbe3295fa	-0.17440024
251	0x3e11a915	0.14224656
252	0x3e016a23	0.12638144
253	0x4029158c	2.64194
254	0x3e1232d7	0.14277206
255	0x402a3d36	2.659986

bias f4 [16]
0	0x41f91dc6	31.139538
1	0x3da3310a	0.07968338
2	0x3d96128e	0.07327758
3	0xbd96804c	-0.073486894
4	0x41f03016	30.02348
5	0xbf2a13e9	-0.6643663
6	0xbddad7d9	-0.10685701
7	0x41fae17a	31.360096
8	0x41ff14f1	31.885225
9	0xbde87092	-0.11349596
10	0x41fbaf1c	31.460503
11	0x41fa2249	31.26674
12	0xbdd6a25f	-0.104801886
13	0xc0094411	-2.1447794
14	0xbe8582d2	-0.2607637
15	0x41fb8a58	31.44255

weight f4 [1, 16]
0	0x40808124	4.015764
1	0xbd56537c	-0.05232571
2	0xbe7c0a4c	-0.24613303
3	0xbe4fec98	-0.20305097
4	0x40e18e35	7.0486093
5	0xbd673e24	-0.056455746
6	0x3e5c50f0	0.2151525
7	0x40812d0c	4.036749
8	0x407ac5e0	3.9183273
9	0x3e773992	0.24143055
10	0x407d94d1	3.962208
11	0x4080e23e	4.0276175
12	0xbe191e6c	-0.14953011
13	0x3e20ad3e	0.15691087
14	0xbe182ecb	-0.148616
15	0x407e1601	3.970093
