api/home_price_model_zonda.pth (torch, 718757 bytes, 7 tensors)

weight f4 [2748, 20]
0	0xbd20c32b	-0.039248627
1	0xc0574adb	-3.3639438
2	0xc05fe2e1	-3.4982226
3	0x3fafea55	1.3743387
4	0xc0a1945d	-5.0493608
5	0x4083201b	4.097669
6	0xc060f476	-3.5149207
7	0x4094e045	4.6523767
8	0x40808cce	4.017188
9	0x4039be1c	2.9022284
10	0xc0c027b0	-6.0048447
11	0x407ac1ed	3.9180863
12	0xc0884ce8	-4.259388
13	0xc09eac26	-4.958514
14	0x3c72bb64	0.014815185
15	0x3f9805d9	1.1876785
16	0x40690561	3.6409533
17	0xc090d5e3	-4.526109
18	0xc0924647	-4.571079
19	0xc01f6368	-2.4904423
20	0xbfd996b6	-1.6999118
21	0x3fb4ece3	1.4134792
22	0x3fc33da7	1.525319
23	0x3f08bcaa	0.5341288
24	0x402fc6fb	2.7465198
25	0x3e5253f2	0.20539835
26	0x3fc1b3aa	1.5132954
27	0x4055545a	3.3332734
28	0xc06852a3	-3.6300437
29	0xc0559d1b	-3.337714
30	0x3ff3dce4	1.9051785
31	0xc0ad15a1	-5.4088902
32	0xbecbe793	-0.39825115
33	0x40a0665f	5.0124965
34	0x3e956397	0.29177544
35	0xbe885176	-0.2662465
36	0xc02994d0	-2.6497078
37	0x3f289eee	0.6586751
38	0xbe19026d	-0.14942332
39	0xbeeef6f8	-0.46672797
40	0xc0cdf7d4	-6.4365025
41	0x40f380b6	7.609462
42	0x40cc5736	6.385646
43	0x3f9ec2af	1.2403163
44	0x406350b9	3.551802
45	0xc0fc6301	-7.8870854
46	0x40deb0e2	6.959092
47	0xc0787031	-3.8818476
48	0xc0cb580f	-6.3544993
49	0xc0935ded	-4.6052155
50	0x40ff226a	7.972951
51	0xc04f2e72	-3.2372098
52	0x40709b8e	3.7594943
53	0x4108fc00	8.561523
54	0xc01a6f6b	-2.4130504
55	0xbfb7f280	-1.437088
56	0xc056066c	-3.344142
57	0x40fd285c	7.9111767
58	0x40750070	3.8281517
59	0x40c3d572	6.1198053
60	0x3e1c4035	0.15258868
61	0x400dc35d	2.215049
62	0x4060f02e	3.5146594
63	0xbeedd4c3	-0.46451387
64	0x3ee7f64e	0.45305103
65	0xc02ea386	-2.7287307
66	0x408474dc	4.139265
67	0xbf582e72	-0.8444587
68	0xc038f3d0	-2.8898811
69	0xbf691add	-0.91056615
70	0x3fa13fab	1.2597555
71	0xc0099218	-2.1495419
72	0x4008abf7	2.135496
73	0x409685a0	4.7038116
74	0xbf4c7841	-0.7987099
75	0xc0226e7e	-2.537994
76	0xbddf2fe1	-0.10897804
77	0x402611db	2.5948398
78	0xbfc1a668	-1.5128908
79	0x3ff43390	1.9078236
80	0x40f3538e	7.6039495
81	0xbfac82c1	-1.3477403
82	0xbf254942	-0.6456491
83	0xc08803ad	-4.2504487
84	0xc1048f9b	-8.28506
85	0x3ffdbcfd	1.98233
86	0x406b67c3	3.678208
87	0x4099051e	4.7818747
88	0x4114880c	9.283215
89	0x404ac9f2	3.1685758
90	0xc01ff966	-2.499597
91	0x40c00ef5	6.001826
92	0xc16da208	-14.852058
93	0xc01ac6b1	-2.4183772
94	0x4047ec95	3.1238148
95	0x4136b410	11.418961
96	0x3f576227	0.84134144
97	0xbfedf007	-1.8588876
98	0xc0df3cee	-6.9761877
99	0x3f98c607	1.1935433
100	0x41265993	10.396869
101	0x406463de	3.5685954
102	0x412b385f	10.701262
103	0xbe964741	-0.29351237
104	0xbf0ebd04	-0.55757165
105	0x40a70e4e	5.220496
106	0x3fb7fbaf	1.4373683
107	0x3e12b223	0.14325766
108	0xbeebf3ee	-0.4608454
109	0x41257394	10.340717
110	0x3fda224e	1.7041719
111	0x3e5f11c3	0.2178412
112	0xc03122eb	-2.7677562
113	0xbfda7da2	-1.706959
114	0xbf36af74	-0.7136147
115	0x408a28f8	4.317501
116	0x3e7a4102	0.24438861
117	0x406d9da2	3.7127461
118	0xbff46ff7	-1.9096669
119	0x40c06ced	6.0132966
120	0xc1d1d0e1	-26.226992
121	0xc0929b62	-4.5814676
122	0x4091524a	4.541295
123	0x414073d6	12.02828
124	0x4147236c	12.446148
125	0x4136ad05	11.417241
126	0xc0201a7e	-2.501617
127	0xc205ef8d	-33.483936
128	0xc18438b3	-16.527685
129	0xc03c07fc	-2.9379873
130	0xc0c9a060	-6.300827
131	0xc12780cc	-10.468945
132	0xc00fc42f	-2.246349
133	0x410e884b	8.908275
134	0xc1a29dbf	-20.327024
135	0xc1867288	-16.805923
136	0x41243166	10.26206
137	0xc090d000	-4.5253906
138	0x410de196	8.867575
139	0xc14fddbf	-12.991637
140	0xc106c4c5	-8.423039
141	0x408c810e	4.3907537
142	0x40ec3dfe	7.3825674
143	0x40b9b4ed	5.8033357
144	0x4115c739	9.361138
145	0x3f787dc4	0.97066903
146	0x410d7c50	8.84285
147	0xc0ed1eb2	-7.409997
148	0xc0b05ad8	-5.5110893
149	0xc086f0be	-4.2168875
150	0x40dd95b7	6.9245257
151	0xbf8d5eaa	-1.1044514
152	0x40e1b4d5	7.053324
153	0x40c7e89f	6.247146
154	0xc0814e13	-4.0407805
155	0xc10b1974	-8.693714
156	0xc0b0a118	-5.519665
157	0x410777a4	8.466709
158	0xbf0be9b7	-0.54653496
159	0x40cc5126	6.384906
160	0xbf82b448	-1.0211267
161	0x40b1f337	5.5609393
162	0x40994c26	4.7905455
163	0x40868305	4.2034936
164	0x402f5f22	2.7401814
165	0xbfe7be11	-1.8104879
166	0x402f62cf	2.7404058
167	0xbfb685c2	-1.425957
168	0xc06b5267	-3.6769044
169	0xc06ab68d	-3.667392
170	0x40997f66	4.7968016
171	0xbe726f24	-0.2367521
172	0x40fd15d1	7.908913
173	0x3fa72665	1.3058592
174	0xc03cc14a	-2.9492974
175	0xc082bded	-4.0856843
176	0xc04c6ce1	-3.1941454
177	0x40431a5d	3.048484
178	0x4034ae68	2.823145
179	0x40277f58	2.6171474
180	0x3f7b8eb3	0.98264617
181	0x3fe6b989	1.8025371
182	0x4045f80d	3.0932648
183	0xc06823ad	-3.6271775
184	0x3e0f41a3	0.13989882
185	0xc031d435	-2.778577
186	0x3fe98107	1.8242501
187	0xbf104970	-0.56362057
188	0x408e0806	4.4384794
189	0x407c68bf	3.9438932
190	0x4020728e	2.5069919
191	0xbfdb2c1f	-1.712284
192	0x3e80acbc	0.25131786
193	0xbff58500	-1.9181213
194	0xbf5b3a23	-0.85635585
195	0xbff1ffe7	-1.890622
196	0xc0113065	-2.2685788
197	0x3fc1e78c	1.5148787
198	0x3fed8939	1.8557502
199	0x406a0ebe	3.6571498
200	0xc09e0f4f	-4.9393687
201	0xbf1c46ae	-0.6104535
202	0xc046d5e5	-3.106805
203	0x3f7f2155	0.99660236
204	0x4016dc06	2.3571792
205	0xc01bcdd9	-2.434439
206	0x401c8e38	2.4461803
207	0xbf9cfd2e	-1.2264764
208	0xc02da773	-2.7133453
209	0xc0e05d14	-7.011362
210	0x402182bb	2.5236042
211	0x3acb2225	0.0015497847
212	0x404d6fe3	3.209954
213	0x402040f9	2.5039656
214	0xbff95695	-1.9479548
215	0xc0239dd7	-2.5565088
216	0xc04ebc86	-3.2302566
217	0x3fe9ca6b	1.8264898
218	0x403d18ec	2.954646
219	0xc00d0eff	-2.2040403
220	0xc139478a	-11.579966
221	0x4117267d	9.446897
222	0x412e50f8	10.894768
223	0x4111552f	9.083297
224	0x4116cb70	9.424667
225	0xc1171314	-9.442158
226	0x41484a90	12.518204
227	0xc12526a4	-10.321934
228	0xc1343bd4	-11.264606
229	0xc0aff5e2	-5.498765
230	0x413f28c4	11.947453
231	0xc10125bf	-8.071715
232	0x41287d51	10.530595
233	0x41243520	10.26297
234	0xc1114eca	-9.081736
235	0xc104c653	-8.298419
236	0xc1194db1	-9.581468
237	0x41285f7d	10.523313
238	0x41257fe0	10.3437195
239	0x411ec1db	9.922328
240	0xc0248263	-2.5704582
241	0x400c5077	2.1924112
242	0x402b6c28	2.6784763
243	0x40179598	2.3685055
244	0x3ff4f597	1.9137448
245	0xc07312bc	-3.7980185
246	0x3f85b26f	1.0445079
247	0xbfaa38f2	-1.3298628
248	0xbf870a9d	-1.0550114
249	0xc0a83ef3	-5.257684
250	0x40082be0	2.127678
251	0xc02f9166	-2.7432494
252	0x40123633	2.284558
253	0x3ff7c43b	1.935676
254	0xc030f424	-2.7649012
255	0x3fa0ecac	1.2572227

weight f4 [4075, 20]
0	0xc0f8b64f	-7.7722545
1	0xbf968625	-1.1759688
2	0xc0237f74	-2.5546541
3	0x413df114	11.871357
4	0x3ff3b4df	1.9039572
5	0x411a6dad	9.651776
6	0xc068b8b9	-3.6362746
7	0xc11295b5	-9.16155
8	0x3f700c7a	0.9376904
9	0x401886eb	2.3832347
10	0x3d4dcb86	0.050242923
11	0xc1281bc5	-10.50678
12	0x408c8f58	4.392498
13	0x401c8e7e	2.446197
14	0xc02d36c1	-2.706467
15	0x3f994f04	1.1977239
16	0xc0751cb8	-3.8298779
17	0x40523888	3.2847004
18	0xc07a60d4	-3.91216
19	0xc1208312	-10.032
20	0x40ee06a8	7.4383125
21	0xc0e53e7b	-7.163877
22	0xc080a306	-4.0199003
23	0xc0b5e808	-5.684574
24	0x40b039f8	5.5070763
25	0xc052d239	-3.294081
26	0xc073f5b8	-3.8118725
27	0x409ce0d9	4.902447
28	0x40ae4bd4	5.4467564
29	0x40ae269c	5.442213
30	0x40ba039a	5.8129396
31	0x409b485d	4.8525834
32	0x408fc108	4.4923134
33	0x40a354f7	5.1041217
34	0xc06bc772	-3.6840482
35	0x40c8d98e	6.276557
36	0xc0ad7bd9	-5.421368
37	0x4088acef	4.27111
38	0xc0ba4915	-5.821421
39	0x40a19628	5.0495796
40	0xbd197184	-0.037461773
41	0xbfc13b2b	-1.5096182
42	0xc0a541c6	-5.164279
43	0xbfe1d3cf	-1.7642764
44	0x3fd58b3b	1.6683115
45	0xc0475322	-3.114449
46	0xbfba9c90	-1.4579029
47	0x3f431c52	0.7621509
48	0x40105238	2.2550182
49	0xc003045c	-2.047141
50	0x40112ffa	2.2685533
51	0x3fc90b83	1.5706638
52	0xbf5e8d6d	-0.8693455
53	0x3ccb27cf	0.024799256
54	0x3dd8d414	0.10587326
55	0x4046d0bb	3.10649
56	0xc00a2573	-2.1585357
57	0x40684a57	3.6295373
58	0xbfe55c0e	-1.7918718
59	0xc05af11e	-3.4209666
60	0xbf8da67d	-1.1066433
61	0xbf99d773	-1.2018875
62	0x3f557a94	0.83390164
63	0xbfbf0c8e	-1.4925706
64	0x41003600	8.013184
65	0x3fde6b91	1.7376577
66	0xbfee45a9	-1.8615009
67	0x40161145	2.344804
68	0x405b869c	3.430091
69	0xbf441585	-0.76595336
70	0xbfdd3a68	-1.7283449
71	0x3eb64b02	0.356041
72	0xbffa2edd	-1.9545552
73	0xbfb85a53	-1.4402565
74	0xc0199b7d	-2.4001153
75	0xbe1bda54	-0.15220004
76	0xbfe8a4e3	-1.817532
77	0xbfcd3f78	-1.6034994
78	0x4009e37a	2.154509
79	0x3f8092a2	1.0044749
80	0x40a829de	5.2551107
81	0xc0a34ad4	-5.1028843
82	0xc0d973e4	-6.795397
83	0xc0c6709d	-6.2012467
84	0x4093b276	4.615535
85	0xc0bbc381	-5.867615
86	0xc0a9ce17	-5.3064075
87	0x40c3b141	6.1153874
88	0x407d8f45	3.9618695
89	0x408a2d81	4.3180547
90	0x4081083f	4.0322566
91	0x4081491f	4.040176
92	0x4091e40c	4.5590878
93	0x408296d7	4.080913
94	0xc093ea90	-4.622383
95	0x409df993	4.9367156
96	0xc0b9d75a	-5.807538
97	0x405119e7	3.267206
98	0xc08dd7f4	-4.4326115
99	0x40ab135e	5.346114
100	0x40bbb709	5.866093
101	0xc13a1049	-11.628976
102	0xc1160c0c	-9.377941
103	0xc0e3864f	-7.110145
104	0x410ffa9f	8.998687
105	0xc0d996f1	-6.7996755
106	0xc1365476	-11.39562
107	0x4039fc0e	2.9060092
108	0x412c93ae	10.786055
109	0x41323311	11.137467
110	0x41059324	8.348423
111	0x40b11f2f	5.5350566
112	0x40cc179d	6.3778825
113	0x4125a388	10.352425
114	0xc1280bca	-10.502878
115	0x40d0ec63	6.528856
116	0xc10b7be0	-8.717743
117	0x4136875a	11.408045
118	0xc15dfa74	-13.873646
119	0x403ffb82	2.9997258
120	0x40e8a003	7.2695327
121	0x404cf6b9	3.2025588
122	0xc0fefb61	-7.968186
123	0xc0a456b3	-5.1355834
124	0x40c98cb5	6.298426
125	0xc0d193a0	-6.5492706
126	0xc0d2045b	-6.5630317
127	0x407f9da9	3.9939978
128	0x40adcfe3	5.431627
129	0x40e6ca9a	7.2122316
130	0x40e8665c	7.262495
131	0x40776e06	3.8660903
132	0x40a6f19b	5.216993
133	0x403d6879	2.9595015
134	0xc0d72aeb	-6.723989
135	0x40da55f8	6.822994
136	0xc0e6470d	-7.196173
137	0x40fdfc25	7.9370294
138	0xc0f2fba7	-7.5932193
139	0x40a64dad	5.196982
140	0x3f648150	0.89259815
141	0xbeeb6ef6	-0.45983094
142	0xbf2efb55	-0.6835225
143	0x3f553fd2	0.8330051
144	0x3fd9e889	1.7024089
145	0xbfa179cc	-1.2615294
146	0xc0109596	-2.25913
147	0x3eac0fb4	0.3360573
148	0x400dfc62	2.2185292
149	0xbeef5978	-0.46747947
150	0xbf248e22	-0.6427938
151	0x3fdd670b	1.7297071
152	0x4011778a	2.272921
153	0xbf6ec739	-0.9327274
154	0xc005fcdc	-2.0935583
155	0x3e8e9534	0.27848208
156	0xbec8c466	-0.3921234
157	0x3f85613a	1.0420296
158	0xbf720567	-0.94539493
159	0x3c6dcc03	0.014513972
160	0x40e43ef4	7.1326847
161	0xc0941770	-4.627861
162	0xc0c15968	-6.042164
163	0xc0d27e2a	-6.577901
164	0x40b49367	5.6429935
165	0xc0cf18d1	-6.4717793
166	0xc0b464ea	-5.6373186
167	0x40caaf99	6.3339353
168	0x40ab723f	5.357696
169	0x40a21150	5.0646133
170	0x40d611f8	6.6896935
171	0x4074550d	3.817691
172	0x40aecc5d	5.4624467
173	0x402c7126	2.694406
174	0xc0840211	-4.1252522
175	0x40c3b502	6.1158457
176	0xc0c99a9b	-6.3001227
177	0x40c8afc6	6.2714567
178	0xc0c314e7	-6.0963016
179	0x40da6433	6.8247313
180	0x40843776	4.13177
181	0xc08ae1c8	-4.340061
182	0xc04b3f9b	-3.1757572
183	0xbf4d29e5	-0.8014205
184	0xbda60429	-0.08106262
185	0xc0815dd0	-4.0427017
186	0xc0827942	-4.077302
187	0x40a4acf1	5.146111
188	0x3fe2a55b	1.7706712
189	0x3fd8531f	1.6900367
190	0x401874fa	2.3821397
191	0x40abf7e8	5.374012
192	0x4073ae0c	3.807498
193	0x40d61687	6.69025
194	0xc056004a	-3.3437676
195	0x408b1a72	4.346978
196	0xc0d06fac	-6.513632
197	0x40818d79	4.0485196
198	0xc0ce9aaf	-6.4563823
199	0x4046610d	3.0996735
200	0x3fd77da2	1.6835215
201	0xbfe13b5e	-1.7596242
202	0x402ae1aa	2.6700234
203	0xc092e7bf	-4.5907893
204	0x3f12b5c0	0.5730858
205	0xc018a62e	-2.3851428
206	0xbe8daad7	-0.27669403
207	0xbd08a8e6	-0.0333642
208	0xc096df46	-4.714755
209	0xbf5cc87f	-0.8624343
210	0x40479f8a	3.1191125
211	0x3ff7326c	1.9312263
212	0xbe70733c	-0.23481458
213	0x40eea8ed	7.458121
214	0x3d8e53a4	0.06949547
215	0x40bb5cd8	5.8550835
216	0xc01fdfbe	-2.4980311
217	0xc0994f7d	-4.790953
218	0x3fe507b8	1.789298
219	0x3fb276df	1.3942527
220	0x401cb64c	2.4486265
221	0xc06c568e	-3.6927829
222	0xc030a21b	-2.7598941
223	0xc06262d2	-3.5372815
224	0x402f619b	2.7403324
225	0xc05c0327	-3.4376924
226	0xc0617559	-3.5227873
227	0x4037f8b9	2.8745558
228	0x3fe6538b	1.7994245
229	0x40823497	4.0689197
230	0x408bef0c	4.3729305
231	0x406a0520	3.6565628
232	0x400122d4	2.0177507
233	0x4071d74c	3.7787657
234	0xc061886e	-3.523952
235	0x40903752	4.506753
236	0xbe1eec2b	-0.15519778
237	0x4089d2c7	4.3069797
238	0xc04fefbb	-3.249007
239	0x3fe17e40	1.7616653
240	0xbfd5882f	-1.6682185
241	0x40393d34	2.8943605
242	0x3ec249db	0.37946972
243	0x40544359	3.3166106
244	0x3e762978	0.24039257
245	0x3f6a8146	0.91603506
246	0x404ebb37	3.2301767
247	0xbf8aee43	-1.0853962
248	0xbf980bfe	-1.187866
249	0xc05d2119	-3.4551451
250	0xbf9a5631	-1.2057554
251	0xc033a08f	-2.8066747
252	0x3f18596c	0.59511447
253	0xbf953e23	-1.1659588
254	0x40264313	2.597844
255	0xbe7e0b37	-0.24808966

weight f4 [128, 47]
0	0x42080493	34.004467
1	0x41f00310	30.001495
2	0xc2051268	-33.267975
3	0x423d07ba	47.257545
4	0x40a9c6cd	5.3055177
5	0x418006fb	16.003408
6	0x4179c100	15.609619
7	0xc13c116b	-11.754252
8	0xc038e7a8	-2.8891392
9	0x42928341	73.256355
10	0xc1686ae3	-14.526095
11	0xc1bad7fe	-23.355465
12	0x41ec4daf	29.537931
13	0xc1176c2e	-9.463911
14	0xc23abf90	-46.687073
15	0xc1c65aad	-24.794275
16	0x42433677	48.80319
17	0xc19d6a96	-19.677044
18	0x42a6dcc3	83.431175
19	0xc095b183	-4.677919
20	0x415cf018	13.808617
21	0x4291e77f	72.95214
22	0xc1fc9064	-31.570503
23	0x41ad95de	21.698177
24	0x427c6aa0	63.104126
25	0xc156bd63	-13.421237
26	0xc17224df	-15.134002
27	0x40bf916c	5.9865017
28	0x419ef29d	19.868464
29	0xc275eb01	-61.479496
30	0x41c5a0ba	24.70348
31	0xc104bdac	-8.296307
32	0x4278dd0b	62.215862
33	0xc0c5be23	-6.17946
34	0x3fec1b16	1.8445766
35	0x42649e4c	57.154587
36	0xc196ca71	-18.848848
37	0xc247331d	-49.799915
38	0x426758bb	57.83665
39	0x4261e882	56.47706
40	0x3ee9b45c	0.45645416
41	0xc1497cbf	-12.592956
42	0x429c7adb	78.23995
43	0x426dd71d	59.46007
44	0xc2d33f42	-105.62355
45	0xbce16f01	-0.027518751
46	0x427e1661	63.521854
47	0x40a1aaec	5.0521145
48	0x4192fd00	18.373535
49	0x40cfffd7	6.4999804
50	0x41b4290d	22.520044
51	0x416b3ed6	14.702841
52	0x40943182	4.6310434
53	0xc0365953	-2.849202
54	0xc147336f	-12.450057
55	0xc1a92f52	-21.148106
56	0x418ab4c7	17.33827
57	0xc1876757	-16.925459
58	0x40c2db78	6.0892906
59	0x419e794b	19.809225
60	0x41af833a	21.939075
61	0xc19fa1ab	-19.95394
62	0xc1594618	-13.579613
63	0x41a988a2	21.191715
64	0xc121ce89	-10.112924
65	0x4116cfbd	9.425717
66	0x415414bf	13.255065
67	0x40fbdf9c	7.871046
68	0x4234b4e6	45.17666
69	0xc1bbe60e	-23.487331
70	0x415b4562	13.704439
71	0xc16af94c	-14.6858635
72	0x41980b2a	19.005451
73	0x4186f447	16.869276
74	0xc1ab5647	-21.417128
75	0x40bf8462	5.98491
76	0x415a84f4	13.657459
77	0xc209a5d8	-34.411957
78	0x400a961c	2.165412
79	0x41206539	10.024713
80	0xc1818fff	-16.19531
81	0xc0bcc106	-5.8985624
82	0x40cdc0ba	6.429776
83	0x418c4b4f	17.536772
84	0x41e750f5	28.91453
85	0xc1684a16	-14.518087
86	0xc1886b8c	-17.052513
87	0xbf4cfd3a	-0.80073893
88	0xc12a5142	-10.644838
89	0x422fea4e	43.978813
90	0x42823832	65.10976
91	0xc25b3c17	-54.80868
92	0xbf84d75a	-1.037822
93	0x422b1a8e	42.775932
94	0xc128c64f	-10.548415
95	0x3e5c06e2	0.21487
96	0x415a01b3	13.625415
97	0x4133e622	11.243685
98	0x415ae834	13.68169
99	0x3fc94ec9	1.5727168
100	0xbf1cdbb7	-0.6127276
101	0xc0a11a4a	-5.034459
102	0xc18bef83	-17.49195
103	0xc068a6aa	-3.6351724
104	0xc14d7656	-12.841391
105	0x3fd923de	1.6964071
106	0x40018d13	2.0242355
107	0x4184a093	16.578405
108	0xc0d2b691	-6.584786
109	0xc10d36f5	-8.825917
110	0x40c73869	6.225636
111	0x40687feb	3.6328075
112	0xc0d714a8	-6.7212715
113	0x419e8cf7	19.81883
114	0x40d33f9f	6.6015162
115	0xc051ea91	-3.2799418
116	0xc132854a	-11.157541
117	0x418850aa	17.039387
118	0xbe06653e	-0.13124558
119	0x419eb0ac	19.836266
120	0xc10b8f15	-8.722432
121	0xc021de6d	-2.5292008
122	0xc098c1bf	-4.7736506
123	0xc046d21f	-3.1065748
124	0xc0bbc261	-5.867478
125	0x40448cfd	3.0711052
126	0x403b313b	2.9248798
127	0xbda7034a	-0.08154924
128	0xc0326510	-2.7874184
129	0xc107a2aa	-8.477213
130	0xbedb7e16	-0.42869633
131	0xbf7e3e04	-0.9931338
132	0xc1210c27	-10.065467
133	0xc0c492ad	-6.1429048
134	0xbf3b106a	-0.7307192
135	0xbfaf533e	-1.3697278
136	0x41eebb71	29.841524
137	0x42198d9e	38.388298
138	0xc2143b22	-37.057747
139	0xbf76153f	-0.9612617
140	0x41684c28	14.518593
141	0xc1aa727e	-21.305904
142	0x41aa5946	21.29359
143	0x4204d1eb	33.204998
144	0x40280aad	2.6256516
145	0x4043fa27	3.062143
146	0x41306a60	11.02597
147	0x408fd6f6	4.4949903
148	0xc1327466	-11.153418
149	0xc1220026	-10.125036
150	0xc1bdd3e4	-23.728462
151	0xc19b5b69	-19.419634
152	0xc1889453	-17.072424
153	0x4025d03c	2.5908346
154	0x412673e2	10.403292
155	0x40840c99	4.126538
156	0xc20bd32f	-34.956234
157	0xc17dc9a3	-15.861728
158	0xc0f07791	-7.5145955
159	0x42175dbe	37.841545
160	0x40885062	4.2598124
161	0x41808f85	16.070078
162	0xc1558b56	-13.346518
163	0xc1ba6676	-23.30003
164	0xc1a1bb30	-20.2164
165	0x40c7844f	6.234901
166	0xc1b09f42	-22.077763
167	0xc1c34f5d	-24.413752
168	0x414877bb	12.529231
169	0x40919a3e	4.5500784
170	0x416d4ec3	14.831729
171	0x41da5beb	27.294882
172	0x41a068e9	20.051226
173	0x41f4a616	30.581097
174	0x413ddc4e	11.866285
175	0xc0bf038c	-5.969183
176	0x41dd88d8	27.691818
177	0xc1ab799e	-21.434383
178	0x418c539e	17.540829
179	0xc1ba243b	-23.26769
180	0x41877a61	16.934755
181	0xc022a677	-2.5414102
182	0x4106a237	8.414603
183	0x40d575e1	6.6706395
184	0x414af721	12.685334
185	0x416cbaaa	14.795572
186	0xbf23aad6	-0.6393255
187	0x42440f9b	49.01524
188	0xbfde2b44	-1.7356954
189	0xc026f657	-2.6087854
190	0xc0f6f592	-7.717477
191	0x418be44d	17.486475
192	0x411dc05a	9.859461
193	0x403e9f47	2.9784715
194	0xc12eac1b	-10.917018
195	0xc0ef63cc	-7.480932
196	0xc1200cee	-10.003157
197	0x407de381	3.9670107
198	0xbef8e294	-0.48610365
199	0xc19c77a6	-19.558422
200	0x4172820d	15.156751
201	0x411e877a	9.908075
202	0xc1b51cff	-22.639158
203	0xc1834be0	-16.412048
204	0xc0d4c060	-6.6484833
205	0xc14ed826	-12.927771
206	0x42087cab	34.121746
207	0x4059dbd8	3.4040432
208	0x416ebb50	14.920731
209	0x40dbc4f9	6.8677945
210	0x4152410c	13.140881
211	0xc1848ec9	-16.56972
212	0x41b9e51a	23.236866
213	0x40b43751	5.6317525
214	0xc0eea54b	-7.4576774
215	0x41289b2a	10.537882
216	0x3fffb11e	1.9975927
217	0xc1b8b667	-23.089064
218	0xbf1d79f0	-0.61514187
219	0x41990062	19.125187
220	0x41fa79c2	31.309452
221	0x4183e227	16.485426
222	0x40fae6be	7.840667
223	0x418fab5a	17.958668
224	0xc1a4f74e	-20.620754
225	0xc1be6041	-23.796999
226	0x41c889d8	25.067307
227	0x41cb97fc	25.449211
228	0xbfcfc272	-1.6231215
229	0x406917c7	3.6420763
230	0x41d74500	26.908691
231	0x41da9cc1	27.32654
232	0xc1be0b3d	-23.755487
233	0xc003ad7c	-2.0574636
234	0x426c8360	59.128296
235	0x3dbd4442	0.09241535
236	0x3d23b63c	0.039968714
237	0xbddae2dc	-0.10687801
238	0x3d4f03f8	0.050540894
239	0x3dcb4e78	0.09927076
240	0x3d954bd6	0.07289855
241	0xbe0ae82d	-0.1356513
242	0x3d697bd8	0.057002872
243	0x3df621a4	0.12018135
244	0x3c917450	0.017755657
245	0xbd2fe91e	-0.042946927
246	0xbcdc55ec	-0.02689644
247	0xbd6d1c00	-0.05788803
248	0x3d5f6320	0.054537892
249	0xbdba5866	-0.09098892
250	0x3d724d8c	0.059155986
251	0x3e150e12	0.14556149
252	0xbdab2183	-0.08356001
253	0xbd3469a2	-0.04404605
254	0x3dd3d9be	0.103442654
255	0xbd5c28b0	-0.05374974

bias f4 [128]
0	0x41f608b5	30.754251
1	0x42172473	37.785595
2	0x41e225ca	28.268452
3	0x41152e0d	9.323743
4	0x41c89328	25.071854
5	0x3bf96100	0.0076104403
6	0x420abcdd	34.684437
7	0x41c8dd41	25.108034
8	0xbd1f220c	-0.03885083
9	0x3daf2f00	0.085538864
10	0x41b03998	22.028122
11	0x4227a5d3	41.911938
12	0xc0d60c84	-6.689028
13	0xbdc905f9	-0.09815592
14	0xbda385b9	-0.0798449
15	0x42141093	37.016186
16	0xb8c638b0	-9.4519346e-05
17	0x3fb415d4	1.4069161
18	0x3d8bac14	0.06819931
19	0x42001d88	32.02884
20	0x3d7acd0c	0.061230704
21	0x416a56fc	14.646236
22	0x3e04d34a	0.12971225
23	0x41381cbd	11.507016
24	0xc0dcbacb	-6.897802
25	0x41d99bcc	27.201073
26	0x421bd2fc	38.95604
27	0xc1d93cb1	-27.154634
28	0x41ec7d53	29.561193
29	0xbddd6d32	-0.10811843
30	0x41e2c915	28.348185
31	0x413a66c3	11.650088
32	0x42418b6f	48.386166
33	0xbd57c5c8	-0.052678853
34	0x4232a0af	44.656918
35	0x3c37e550	0.011224106
36	0xbdd48d91	-0.10378564
37	0x41d9da01	27.231447
38	0x3e04ba28	0.12961638
39	0x41d97c6d	27.185755
40	0x420623d8	33.535004
41	0xbe0f2172	-0.13977602
42	0x423a40ad	46.56316
43	0x4067e5f1	3.6234095
44	0xbdc23975	-0.09483615
45	0x41c76a1e	24.926815
46	0x3df40be0	0.119163275
47	0x41c22d08	24.271988
48	0xc182ba6c	-16.341026
49	0x421e6f8e	39.60894
50	0x41fb1b1f	31.388243
51	0x418153d4	16.165932
52	0x41c0e985	24.114023
53	0x41e91397	29.134565
54	0x42335a2a	44.83805
55	0xbde9d768	-0.114180386
56	0x41e9097b	29.12963
57	0xbe017afc	-0.12644571
58	0x41d978ba	27.183949
59	0x425cedf9	55.232395
60	0x422f53e2	43.831917
61	0x42303a30	44.056824
62	0x42306224	44.09584
63	0x41e66eb2	28.80405
64	0x3d4503ac	0.048099205
65	0x41deed1a	27.865772
66	0xbdd367c2	-0.103225246
67	0xbde226f4	-0.11042586
68	0x41ae3219	21.774462
69	0x41822b8d	16.271265
70	0x41c830d2	25.023838
71	0xc1f9a6ad	-31.206385
72	0xbd87cd51	-0.06630958
73	0xbd294bb2	-0.041331954
74	0x41bf6c65	23.927927
75	0x42310dee	44.263603
76	0xbd00ec78	-0.031475514
77	0x4232db15	44.713947
78	0x3d35a417	0.04434594
79	0xbe4b693f	-0.19864367
80	0xbd465f4f	-0.048430737
81	0xbd605af1	-0.05477423
82	0x41ce4b71	25.786837
83	0x41e4078c	28.503685
84	0xbd2b64c2	-0.041844137
85	0x4236276d	45.5385
86	0x4218e7a2	38.226204
87	0x4166e02e	14.429731
88	0x3d730ea4	0.059340134
89	0x418bdd3b	17.483023
90	0x41e2711f	28.305235
91	0x42283036	42.04708
92	0x4233b177	44.923306
93	0x41a9d6d9	21.229906
94	0xbc807493	-0.015680587
95	0x3cb265c8	0.021777049
96	0x41f202f9	30.251451
97	0x41ed5f1a	29.671436
98	0x423b4f57	46.82748
99	0x41ef7e4a	29.936665
100	0x42343913	45.055737
101	0xbc7e2ee0	-0.015514106
102	0x424cdd71	51.21625
103	0xbdc71f78	-0.09722799
104	0x423766a1	45.850224
105	0xc0e521c9	-7.160374
106	0x41ef14b5	29.88511
107	0x41e970ef	29.180143
108	0x41ff0afc	31.880363
109	0x420a4bb1	34.573917
110	0x42027c6c	32.621506
111	0x3d245cc4	0.04012753
112	0x41eb03b7	29.376814
113	0x3d5bfa86	0.053705715
114	0xbd48e5fa	-0.049047448
115	0x416f0050	14.937576
116	0xbda0ecf3	-0.078576945
117	0xc0d89a12	-6.7688074
118	0xbac54c00	-0.0015052557
119	0x41d016dc	26.011162
120	0x3df8b65c	0.12144157
121	0xbdf0c0f7	-0.11755555
122	0x41d6c640	26.846802
123	0xbdb4db1e	-0.08830856
124	0x420f6d54	35.856766
125	0x418958f9	17.168444
126	0x3dd39c7e	0.10332583
127	0xc2c91b4d	-100.55332

weight f4 [64, 128]
0	0x400d8e3e	2.2118068
1	0xc00ff709	-2.2494528
2	0xbe8af0b2	-0.2713676
3	0xc04befa9	-3.1865027
4	0x3ef350dc	0.47522628
5	0xbcb0b04c	-0.02156844
6	0x400ca160	2.1973495
7	0x3fadc68e	1.3576219
8	0xbc764b28	-0.015032567
9	0xbcbe1ea4	-0.02320797
10	0x3faa0b72	1.3284743
11	0x40fd9eb4	7.925623
12	0x3fda0680	1.7033234
13	0x3d731822	0.059349187
14	0xbd635601	-0.05550194
15	0xbe0c65bb	-0.13710682
16	0x3c626f8b	0.013820539
17	0x40c3ffac	6.12496
18	0x3d81f48f	0.06345474
19	0x403b5f1d	2.9276803
20	0x3b8bb240	0.0042631924
21	0x3fd4d176	1.6626422
22	0xbd9e6b6a	-0.07735331
23	0xbe8db934	-0.2768036
24	0x3e7e84b0	0.24855304
25	0x3e54d2ed	0.20783587
26	0x40d262fd	6.5745835
27	0x40b2045b	5.5630317
28	0xc032e0f2	-2.7949796
29	0xbd3b7214	-0.04576309
30	0x3fdb23c2	1.7120287
31	0xc02115d3	-2.516957
32	0x404c781c	3.194831
33	0xbd9cff56	-0.07665889
34	0x40fed7f8	7.9638634
35	0x3da59cdf	0.080865614
36	0x3b304fe5	0.002690309
37	0x3e02a354	0.12757617
38	0xbbe1b850	-0.006888427
39	0xbe740a5d	-0.23832078
40	0xbedc74a2	-0.43057734
41	0x3d3479d2	0.04406149
42	0x404f52ca	3.239428
43	0xc05fae8c	-3.4950285
44	0x3d2e13be	0.042499296
45	0x3deb7a95	0.1149799
46	0xba694580	-0.0008898601
47	0x3fb5d580	1.420578
48	0x409fa3ea	4.988759
49	0x3f6fa439	0.9360996
50	0xbfcbaf73	-1.5912918
51	0x3fe448fb	1.7834772
52	0x3f7c85c2	0.986416
53	0xbe5a280e	-0.21304342
54	0x40510e73	3.266507
55	0x3d836ce5	0.06417254
56	0xc0b014f7	-5.502559
57	0xbcbeb798	-0.023280904
58	0x3f24d638	0.6438937
59	0xc08183ad	-4.0473237
60	0x403c6e5b	2.9442356
61	0x40471691	3.1107523
62	0x404747de	3.1137614
63	0x3ff1eee2	1.8901026
64	0xbd0b6271	-0.034029428
65	0x40c5b0d1	6.177834
66	0x3d627d26	0.055295132
67	0xbd8d04ca	-0.06885679
68	0x3fc31c57	1.5243024
69	0x3fa811ea	1.3130467
70	0x3f965279	1.1743919
71	0x40e69ec1	7.206879
72	0x3d9cffb1	0.07665957
73	0xbce9c662	-0.02853698
74	0x40621f50	3.5331612
75	0x403d9e45	2.962785
76	0xbc544f48	-0.012958355
77	0x40595872	3.3960233
78	0xbbcbe296	-0.0062220795
79	0x3d249d42	0.040189035
80	0xbde0e940	-0.10981989
81	0x3d06f70f	0.032950457
82	0x40a90e02	5.28296
83	0x3fbe72d2	1.487879
84	0xbd0e6ad5	-0.03476985
85	0x402afdc2	2.6717381
86	0x403ca51e	2.947578
87	0x3fec612a	1.8467152
88	0xbd745f42	-0.059661157
89	0x40896f31	4.294823
90	0xc0079dde	-2.1190104
91	0xc0741cda	-3.814261
92	0x405559ca	3.3336053
93	0x3e037e72	0.12841204
94	0x3d6e8e45	0.058241148
95	0x3d6b253e	0.057408564
96	0x402cbe37	2.6991098
97	0x3f2e3fa1	0.6806584
98	0xc0c4ecc3	-6.1539016
99	0x3ec82599	0.39091185
100	0x4042ed82	3.0457463
101	0x3c3343e8	0.010941483
102	0xbdb8f230	-0.090305686
103	0x3ce58f1c	0.028022341
104	0x405d256a	3.4554086
105	0x4005fc5b	2.0935276
106	0x405c2860	3.4399643
107	0xc0878556	-4.2350264
108	0x40dc8fd0	6.892555
109	0x3f507bd5	0.8143895
110	0x3e5b4424	0.21412712
111	0xbc9b1128	-0.01892908
112	0x403412f0	2.8136559
113	0x3d2e9353	0.042620968
114	0x3d41bb26	0.04729762
115	0x3fe8ffa9	1.8203021
116	0xbd09f8e1	-0.033684615
117	0x3ef6ca01	0.48200992
118	0x3c866dfc	0.016409867
119	0xbe8c17a5	-0.2736179
120	0x3d1b07be	0.03784918
121	0xbcb0714c	-0.0215384
122	0x3eb53e3d	0.35399047
123	0xbd7dd3f4	-0.061969712
124	0x3f54455d	0.8291834
125	0x400c5827	2.1928804
126	0xbda7ac52	-0.08187164
127	0xc007f36c	-2.1242323
128	0xbdc87f0b	-0.097898565
129	0xbfff9e0c	-1.9970107
130	0xbe971f3b	-0.29516014
131	0xc06d8c9e	-3.7117076
132	0x3e8bb47d	0.2728614
133	0x3da5b399	0.08090896
134	0x3fa76a19	1.3079253
135	0x3fb34bf1	1.400755
136	0x3cb05c20	0.021528304
137	0x3d29bbea	0.041438974
138	0x3f674d51	0.9035235
139	0x40861d0b	4.1910453
140	0x3fdea780	1.7394867
141	0x3d77a17a	0.06045673
142	0x3da39553	0.07987466
143	0xbf1c6b66	-0.61101377
144	0x3dddef19	0.1083662
145	0x40a081e5	5.0158563
146	0x3daad921	0.08342195
147	0xbfe31b0e	-1.7742631
148	0x3d9f88df	0.07789778
149	0x3fb84b8a	1.4398053
150	0xbfdeb4d0	-1.739893
151	0xc0866414	-4.1997166
152	0x3e14526c	0.14484566
153	0xc0525b37	-3.2868173
154	0x40dfbab2	6.99154
155	0x3d844a54	0.064594895
156	0xc0d19d7b	-6.5504737
157	0x3d106cec	0.035260126
158	0x3fb80dd5	1.4379221
159	0xc08a2e45	-4.318148
160	0x3ebaafd5	0.36462274
161	0xbcdfb72a	-0.02730902
162	0x4113a3fc	9.227535
163	0x3ca470e0	0.020073354
164	0x3bb13412	0.0054078186
165	0xbe280d67	-0.16411363
166	0xbc5df940	-0.013548195
167	0x3db773c9	0.08957631
168	0xbe93b762	-0.28850847
169	0x3d9f66fb	0.07783314
170	0x3ec65038	0.38733077
171	0xc0df3240	-6.974884
172	0x3cab9260	0.02094382
173	0xbe43b771	-0.19112946
174	0x3d231f12	0.039824553
175	0x3f8de354	1.1085
176	0x402b5425	2.6770108
177	0xbf16484d	-0.5870407
178	0xbf9ca153	-1.2236732
179	0xbe34564a	-0.17611042
180	0xc08becd2	-4.3726587
181	0xbea27821	-0.31732276
182	0x3f21ce5d	0.6320551
183	0x3b569340	0.0032741576
184	0xc197c9b5	-18.97349
185	0x3d8f24b1	0.0698942
186	0xbf43e45f	-0.7652034
187	0xc19334a6	-18.400707
188	0x3efcea57	0.49397537
189	0x3ea07964	0.31342614
190	0x3e596fbc	0.2123403
191	0x3fc3166a	1.5241215
192	0xbd621d51	-0.05520374
193	0xbf9198c9	-1.1374751
194	0xbbca4777	-0.00617307
195	0x3b0ed780	0.0021795928
196	0x3fae082e	1.3596246
197	0xbf1b6173	-0.6069557
198	0x3f6c8d60	0.9240322
199	0x40b5f78d	5.6864686
200	0xbd6ae02f	-0.057342704
201	0xbd3cef60	-0.046126723
202	0xbde248ad	-0.11049018
203	0x3eb9a546	0.36258906
204	0x3d610be2	0.054942973
205	0x3f2bc1d5	0.6709264
206	0x3db5d16e	0.08877836
207	0xbc19682f	-0.009363218
208	0xbe0aa3ea	-0.13539091
209	0x3d5c668b	0.05380873
210	0x4053349e	3.3000865
211	0x3f04c231	0.5185881
212	0x3d819a0f	0.063282125
213	0xbd977ce5	-0.073968686
214	0x3ea4ac4c	0.32162702
215	0x3fcdc282	1.6074984
216	0x3d9eee0d	0.07760248
217	0x40d09f6a	6.5194597
218	0xc15f2ebd	-13.948911
219	0xc0a0ff09	-5.031132
220	0x3f721a64	0.9457152
221	0xbf3f86d9	-0.74815136
222	0x3e15e945	0.14639767
223	0x3d9fb8ed	0.07798944
224	0x3eba45b6	0.3638131
225	0x3f2977e4	0.66198564
226	0xbeca25e5	-0.39482036
227	0x3e74410d	0.2385294
228	0x3dce4876	0.100724146
229	0xbc249e90	-0.01004757
230	0xbf3416c1	-0.7034722
231	0x3d813de5	0.063106336
232	0x3f132e5a	0.574926
233	0x400cfb9d	2.2028573
234	0x4024be50	2.5741158
235	0x3f34af8a	0.7058035
236	0x403e4cce	2.9734378
237	0x3f3859d8	0.7201209
238	0x3e63208e	0.22180387
239	0xbd8c7510	-0.068582654
240	0x3fcd44c8	1.6036615
241	0x3d145018	0.036209196
242	0xbd9e5a78	-0.07732099
243	0x3fdfcb1d	1.748386
244	0x3d6f384a	0.05840329
245	0xbd2da96a	-0.042397894
246	0xbac92180	-0.0015345067
247	0xbd86133b	-0.06546637
248	0xbd4ac5a6	-0.0495049
249	0x3daf7221	0.0856669
250	0x3f181ff4	0.59423757
251	0x3da7f5ef	0.08201205
252	0xc0206964	-2.5064325
253	0xbfa50fb1	-1.2895414
254	0x3d35c49a	0.044376947
255	0xbff5ffdb	-1.9218706

bias f4 [64]
0	0x4217d7e5	37.960835
1	0x420ae454	34.722977
2	0xbe089675	-0.13338645
3	0x41b8a695	23.081339
4	0xbee7ceb5	-0.45274892
5	0xbb21efc9	-0.0024709573
6	0xbecbe907	-0.39826223
7	0xbe9c2cf4	-0.30503047
8	0x42175ab4	37.838577
9	0xbe8fe822	-0.2810679
10	0x3d92420f	0.07141506
11	0xbeb316d2	-0.34978348
12	0xbee582b2	-0.44826275
13	0xbeb1c875	-0.3472325
14	0xbe7f534d	-0.2493412
15	0x42125510	36.58307
16	0x4217513a	37.829323
17	0xbea5409d	-0.3227586
18	0x420e6584	35.599136
19	0xbd90965d	-0.070599295
20	0xbd5e53c3	-0.0542791
21	0x42160b14	37.51082
22	0xbda9a382	-0.0828314
23	0xbd059f42	-0.032622583
24	0xbde5eaf3	-0.11226454
25	0xbd3f34b4	-0.04668112
26	0x42174c4d	37.824512
27	0x4213ff26	36.99917
28	0xbe6e8114	-0.23291427
29	0xbedf61f6	-0.43629426
30	0xbf23e076	-0.64014375
31	0xbbb68434	-0.005569959
32	0x415ac128	13.672157
33	0xbf087af3	-0.53312606
34	0x42134f4c	36.82744
35	0xbf00d777	-0.50328773
36	0xbeaeff5d	-0.34179202
37	0xbdd6040e	-0.10449992
38	0x3dd85480	0.10562992
39	0xbe93ad1a	-0.28843004
40	0xbebf9d25	-0.3742458
41	0xbea53a6e	-0.3227114
42	0x41f55676	30.667217
43	0xbe79ebbd	-0.24406333
44	0xbd9e26a8	-0.07722217
45	0xbf373b8b	-0.7157523
46	0xbecce0f3	-0.40015373
47	0xbe9e0694	-0.30864394
48	0x3ca160d6	0.019699495
49	0xbe13a6a3	-0.14419036
50	0x42296672	42.350044
51	0x4215c81b	37.445415
52	0xbd2792e1	-0.04091156
53	0xbe8451ee	-0.25843757
54	0x41aa9d0c	21.326683
55	0x4196631d	18.798395
56	0xbf11c810	-0.56945896
57	0x41ea8ba0	29.318176
58	0xbd6209cc	-0.055185124
59	0xc215d7a4	-37.460587
60	0xbf044adc	-0.51676726
61	0xbee82dcd	-0.45347443
62	0x4209545f	34.332394
63	0xbdbafab0	-0.09129846

weight f4 [1, 64]
0	0x3fc1499d	1.510059
1	0x3f35adcd	0.70968324
2	0x3da53883	0.080674194
3	0x3f999173	1.1997513
4	0x3e920ee2	0.2852698
5	0xbbf1fe0e	-0.007385022
6	0x3e1fdbd1	0.15611197
7	0x3e827fe6	0.25488204
8	0x3fbb10c1	1.4614488
9	0xbe7c1207	-0.24616252
10	0xbdd0bfd2	-0.10192837
11	0xbe66a814	-0.22525054
12	0x3dc49137	0.0959801
13	0xbe3d309e	-0.18475577
14	0x3e6d1e66	0.23156127
15	0xbf4d1844	-0.8011515
16	0x3fb038fd	1.3767391
17	0xbe8c069e	-0.273488
18	0xc058527d	-3.3800347
19	0xbd0a75ca	-0.03380374
20	0x3d13dacd	0.036097337
21	0x3f83354c	1.025064
22	0x3e86adef	0.26304576
23	0x3cb1b0ec	0.021690808
24	0x3d2c611b	0.042084794
25	0xbccb8552	-0.024843846
26	0x3fba1d66	1.4540222
27	0x3f062fdf	0.52416795
28	0x3e8db9c5	0.27680793
29	0x3e988011	0.29785207
30	0x3d6b7c13	0.057491373
31	0xbca3a2a7	-0.01997502
32	0x3f5490d5	0.83033496
33	0xbda700dc	-0.08154461
34	0x3eb765e2	0.35819918
35	0xbe534ab9	-0.20633973
36	0x3e95d9ed	0.29267827
37	0xbd848b31	-0.06471861
38	0x3e2c93f8	0.1685332
39	0xbe88a08a	-0.26684982
40	0x3e965741	0.29363444
41	0x3e8d535f	0.2760267
42	0xc07374ff	-3.8040159
43	0x3e6ccf52	0.23125961
44	0xbd659573	-0.05605073
45	0x3e5e0678	0.21682155
46	0x3e8cebfa	0.27523786
47	0xbe843b88	-0.2582667
48	0x3bbb9c74	0.005725438
49	0xbc60d4ac	-0.01372258
50	0xc0466c86	-3.1003737
51	0x3f60d33c	0.8782232
52	0xbce4966d	-0.02790376
53	0xbe73b50e	-0.23799536
54	0x4018e120	2.3887405
55	0x4025ded3	2.591725
56	0xbe7b2a40	-0.24527836
57	0x3fbcb2a7	1.474202
58	0x3cffcdcc	0.031226061
59	0xc0bb29ea	-5.8488665
60	0x3d975c3a	0.07390638
61	0x3e9e974e	0.3097481
62	0xbe79d563	-0.24397807
63	0xbe67b7a7	-0.22628652
