api/home_price_model_zonda.pth (torch, 718309 bytes, 7 tensors)

weight f4 [2748, 20]
000000 15 0f 82 40 7b 4c 67 40 90 33 9c 40 18 d7 76 c0
       4.064341 3.614043 4.8812943 -3.8568783
000010 9b 21 89 40 aa cc 2c 40 6d c9 cb 3f 94 94 38 bf
       4.285352 2.6999917 1.5920845 -0.7210171
000020 52 5a 23 bf 00 27 d5 c0 93 c2 24 40 85 4f a9 c0
       -0.6380969 -6.6610107 2.5743759 -5.290957
000030 ae 71 6a c0 1d 12 14 40 3f 44 78 c0 20 c0 10 c0
       -3.6631885 2.3136055 -3.8791654 -2.2617264
000040 87 f7 9a c0 2d 21 c2 3e c9 7f c6 40 7a 4f a1 3f
       -4.8427157 0.37915936 6.203099 1.2602379
000050 32 90 c4 3f 1b d5 be 40 85 c7 fa bf 2c 1f fd 3f
       1.5356505 5.963514 -1.9592139 1.9775138
000060 e8 2f 21 bf 57 23 4a 40 14 f1 87 bc 0c f8 9d 40
       -0.62963724 3.158407 -0.016594447 4.936529
000070 84 75 17 be 14 d4 8e 3e d1 9d 51 c0 5e 1e 94 40
       -0.14790922 0.27896178 -3.2752573 4.628707
000080 14 20 ea 3f ed 7d d0 40 57 b4 16 c1 c8 c3 ad c0
       1.829104 6.515372 -9.419028 -5.430149
000090 ee 70 68 40 d6 86 8c bf c1 ab 5c 3f 08 43 d4 bf
       3.6318927 -1.0978649 0.86199576 -1.6582956
0000a0 b2 28 1c c0 8f 3e a5 3e 7c 33 18 c1 aa 7d 13 41
       -2.4399838 0.3227429 -9.512569 9.21818
0000b0 9a 39 d4 c0 12 e3 57 40 d2 78 4e bf f8 7e c0 bf
       -6.6320314 3.3732343 -0.8065311 -1.5038748
0000c0 34 d2 8e 3d 81 51 83 40 f5 c0 7a c0 af 12 06 40
       0.06973687 4.103699 -3.9180272 2.0948904
0000d0 03 8a e5 40 37 39 4b 40 64 9c b9 3f 8f 9e 66 40
       7.173097 3.175367 1.4500852 3.6034276
0000e0 bc b1 a1 3f 18 38 b6 c0 72 f7 b7 c0 86 7b b8 bf
       1.2632365 -5.6943474 -5.7489557 -1.4412696
0000f0 c6 16 be bf 9b d0 bb 3f 5e 7f 94 3e e7 64 4c 40
       -1.48507 1.4673036 0.29003423 3.1936586
000100 08 2a 05 40 e1 34 f7 3e 6b 28 81 40 66 ba ee be
       2.0806904 0.4828253 4.036184 -0.46626586
000110 83 54 8a 40 f0 b3 b7 3f 30 99 14 40 ef ba a7 bf
       4.3228164 1.4351788 2.3218498 -1.3103923
000120 42 93 8b 40 72 1c 07 c0 fc d4 d9 3f 2f bd c5 3d
       4.361726 -2.1111112 1.7018123 0.096552245
000130 47 6f b5 bf 3e 58 a3 3f 98 47 b4 3e 27 2f c3 3e
       -1.4174584 1.2761304 0.35210872 0.38121912
000140 60 b0 0e 3f 4b 59 90 c0 62 bc 60 40 e0 63 8d c0
       0.55737877 -4.5109 3.511498 -4.418442
000150 ec 2d 37 40 cf 39 0d c0 57 ca 0c 40 4d 15 56 3f
       2.8621778 -2.2066534 2.1998498 0.8362625
000160 4f d5 24 40 74 6a ce bf ea 9f 90 40 33 64 fc bf
       2.5755193 -1.6126237 4.5195208 -1.9718078
000170 4a 35 ae bc 3c d1 5e c0 ff 72 37 c0 cc 5e 6f c0
       -0.021265645 -3.4815207 -2.8663938 -3.740161
000180 0e 9a 8a c0 e9 27 06 40 dc 24 60 40 b8 a4 15 40
       -4.3313055 2.096186 3.5022497 2.3381786
000190 39 03 ef 3f 4d 48 ad 3f 61 b1 58 c0 4e ac 9d 3f
       1.8672858 1.353769 -3.3858263 1.2318208
0001a0 f3 78 28 c0 df a1 17 c0 e5 90 db bf 48 39 ed bf
       -2.6323822 -2.3692548 -1.7153593 -1.8533106
0001b0 17 59 3a c0 f2 24 04 40 f5 fc ca c0 2f 03 96 be
       -2.9116876 2.064755 -6.3433785 -0.29299304
0001c0 1d 8d 95 3e 22 51 6a 3f f9 6c 55 40 8c 49 25 c0
       0.29209223 0.9153005 3.3347762 -2.582614
0001d0 a7 8b 4e 40 32 24 2d c0 32 57 93 c0 fc d4 48 c0
       3.2272737 -2.7053342 -4.604394 -3.1379995
0001e0 34 82 0c c1 aa e5 55 41 4d bc 80 c0 9f 53 a0 3f
       -8.781788 13.36857 -4.022986 1.2525519
0001f0 d3 68 d9 c0 5f 55 3b 41 a0 90 a0 40 71 17 6c c1
       -6.794046 11.708343 5.0176544 -14.755723
000200 d5 3f 62 c1 6e 3f ed be 6c d9 f9 c0 c9 5e 4f 41
       -14.140584 -0.46337456 -7.8077908 12.960641
000210 cd 90 b9 bf 33 88 75 41 79 67 48 41 54 83 94 41
       -1.4497315 15.345752 12.525262 18.564125
000220 91 b8 28 41 3d ae df c0 96 84 0f c0 cb 7b c8 c0
       10.54506 -6.9900193 -2.2424674 -6.2651114
000230 85 26 4f c0 16 ed 69 40 a1 4c 9c c0 72 d4 96 40
       -3.236726 3.6550956 -4.884354 4.7134333
000240 f5 a3 b4 c0 ae 95 20 40 16 2d c2 c0 50 50 f9 bf
       -5.6450143 2.5091357 -6.0680037 -1.9477634
000250 d6 80 53 c0 08 90 8b 40 58 63 c9 bf c5 2d 1d 40
       -3.3047385 4.361332 -1.5733442 2.4559186
000260 38 e3 95 40 91 74 19 40 fd f3 bc bf 54 9a 36 40
       4.6839867 2.3977396 -1.4761959 2.8531694
000270 f3 ed 95 40 ff b1 bc c0 9d f7 bf be 54 8f 24 c0
       4.6852965 -5.896728 -0.374936 -2.571248
000280 cf bf e5 3f 96 e9 c8 bf ae f2 f5 bf 47 18 47 40
       1.794916 -1.5696285 -1.9214685 3.1108568
000290 5e 10 03 c1 30 c2 15 40 d5 22 81 c0 5b 95 16 3f
       -8.191496 2.3399773 -4.035502 0.5882165
0002a0 a6 89 25 40 26 5e 0b 41 91 f1 0f c1 1b 52 dd 3e
       2.5865264 8.710485 -8.996476 0.43226704
0002b0 a2 00 a6 40 5f 19 5e 3f 60 4a 11 40 bd 78 f8 3f
       5.1875772 0.86757463 2.2701645 1.9411846
0002c0 49 af fe 40 d8 78 e3 c0 75 7e 7a c0 44 f1 1e c1
       7.958897 -7.1085014 -3.9139683 -9.933903
0002d0 cb 08 96 c0 e0 c6 c1 40 79 93 c9 c0 60 4f 4d 40
       -4.6885734 6.0555267 -6.299252 3.2079697
0002e0 7b d6 b3 c0 fd 31 88 40 d8 88 88 c0 19 c4 92 c0
       -5.6199317 4.256102 -4.2667046 -4.5864377
0002f0 fd a7 ab c0 88 47 5f 40 fd 7a c1 bf ff 84 54 3f
       -5.3642564 3.488741 -1.5115658 0.83015436
000300 08 53 a4 40 fd 6b c9 3f e1 01 0f 40 62 4c 64 40
       5.1351357 1.573608 2.2344897 3.567162
000310 8a 1b 37 40 53 df a4 c0 6e 0e b5 c0 6e 97 68 c0
       2.8610559 -5.1522613 -5.6580114 -3.6342425
000320 e8 c4 b5 c0 10 66 47 40 d0 66 da 40 0f c4 ae c0
       -5.6802864 3.1156044 6.8250504 -5.461433
000330 a8 5d 34 be 0d a1 02 41 2e e3 4d c0 ce 1c 2b c0
       -0.17613852 8.164319 -3.216991 -2.673633
000340 f1 14 8f c0 c7 6d da 3f ee f8 c5 3f 2a 2d bc 40
       -4.4713063 1.7064751 1.5466592 5.880513
000350 4d 51 3c 40 a4 e6 42 bb 68 90 9c 40 a2 83 b3 40
       2.9424622 -0.0029739523 4.8926277 5.6098185
000360 58 56 7a 40 59 03 ce 40 09 cd 8c 40 0d a7 6d 3f
       3.91152 6.4379086 4.4000287 0.92833024
000370 26 b5 17 3e b4 59 d8 be a6 cb 97 bf 51 36 87 3f
       0.14815196 -0.42255938 -1.1859024 1.0563451
000380 96 67 b0 bd 0c 25 76 bf b7 b0 1e 3f 83 26 02 3e
       -0.086135074 -0.9615028 0.61988395 0.12710004
000390 3f a4 52 bd 1a 62 73 3f fc bf 03 3e 21 32 2c be
       -0.05142617 0.95071566 0.12866205 -0.16815998
0003a0 d5 13 34 bd bd 63 0a bf 3f f8 ba 3e ad e2 0f bf
       -0.043964226 -0.5405844 0.36517522 -0.56205255
0003b0 f7 c7 4a bf 5a ba 43 bf 25 a6 8d 3f bf 30 5d be
       -0.7921137 -0.76456225 1.1066328 -0.21600626
0003c0 d0 23 87 be ff 92 da be 69 7f aa 3f 18 ff ab bf
       -0.2639451 -0.42690274 1.3320132 -1.3437223
0003d0 a2 93 90 3f 9f 56 16 3e f3 d6 98 be a7 2a 0e 3f
       1.1295054 0.14681481 -0.29851493 0.5553383
0003e0 22 28 da bf 92 06 80 3f 6d 13 65 bf b4 b3 af 3e
       -1.7043498 1.0002005 -0.89482766 0.3431679
0003f0 65 6d 86 bf da 3e 9d bf 8f 3c 62 3f 83 5e b4 bd
       -1.0502135 -1.2284806 0.88373655 -0.08807089

weight f4 [4075, 20]
000000 60 df 47 be 33 b6 02 3f 5b 5e 5b 40 51 b4 ef 3e
       -0.19518805 0.51059264 3.427634 0.46817258
000010 10 f2 61 c0 11 19 f4 3f c4 0b a9 3f d4 59 c7 bf
       -3.5303993 1.907015 1.3206716 -1.5574288
000020 7d 1e 12 bf d0 00 a5 3b 37 dc a2 3f 24 cf c3 3f
       -0.5707777 0.0050354972 1.2723454 1.5297589
000030 48 53 38 bf 05 d5 c4 bf f0 73 1b bf 59 c3 57 3e
       -0.7200208 -1.5377508 -0.6072378 0.21070613
000040 a8 93 0f c0 ef 75 88 be 0c e0 39 3f 8b 7b bd 3e
       -2.2433872 -0.26652476 0.72607493 0.37008318
000050 4e f2 01 c1 2c a3 e5 40 6c cb 7a 40 5d 76 7f 40
       -8.121656 7.1761684 3.918666 3.9915993
000060 26 f9 97 40 43 67 ee c0 3b b3 06 41 87 15 87 3f
       4.7491636 -7.450105 8.418757 1.0553445
000070 26 42 6d c0 25 92 75 40 47 85 9a c0 c5 30 98 c0
       -3.7071624 3.837045 -4.828769 -4.7559533
000080 38 74 9b c0 84 a1 a2 3f 69 e2 ab 40 b1 0a d9 40
       -4.857937 1.2705541 5.371388 6.782555
000090 ef 61 22 40 c0 46 e5 bf 4c 22 59 c0 b1 0f 03 41
       2.5372274 -1.7912216 -3.3927183 8.191331
0000a0 53 41 27 c0 0d 39 9a 3f 91 15 b0 40 13 a3 10 40
       -2.613362 1.204866 5.5026326 2.2599533
0000b0 f7 f6 18 40 d6 c1 b0 bf bd 27 57 c0 54 ef 80 3f
       2.3900735 -1.3809154 -3.3618004 1.0073037
0000c0 25 68 28 c0 bf 6d 8c 3e 0b b9 3d c0 47 ad 98 3f
       -2.6313565 0.2742748 -2.9644191 1.192788
0000d0 f5 94 67 40 64 66 df 3c e3 a6 f9 3f 0c 7c 0f 40
       3.6184666 0.027270503 1.9504055 2.2419462
0000e0 2c e0 da 3f b3 a7 ca bf 03 8b a8 bf ab 20 5d c0
       1.7099662 -1.5832428 -1.3167423 -3.455119
0000f0 df 30 be c0 ad 15 91 3f 77 f4 8b 40 ca 95 ce 3f
       -5.9434657 1.133474 4.373592 1.6139462
000100 88 2a 11 40 eb e3 4c c0 a7 56 7d 40 83 1e 07 c0
       2.268221 -3.201411 3.9584138 -2.1112373
000110 2e 26 a7 c0 80 1f 65 40 e9 a8 95 c0 90 59 26 c0
       -5.2234106 3.5800476 -4.676869 -2.5992165
000120 e9 95 68 c0 90 fc 82 40 32 c5 cf 3f 4d c1 17 40
       -3.6341498 4.0933304 1.6232054 2.3711731
000130 dd 33 9c 40 89 8e 21 c0 d9 0e 6e c0 bb 39 52 40
       4.881331 -2.5243247 -3.7196562 3.2847736
000140 c0 1e ec bf 2d 26 bd 40 36 cd 87 40 18 29 56 40
       -1.8446884 5.91091 4.2438 3.3462582
000150 43 b2 2d 40 da fe 97 c0 2d 46 d5 40 cb 6c a5 40
       2.7140052 -4.74986 6.6648164 5.1695304
000160 82 4e b4 c0 cb 3c 78 40 d2 ff 5a c0 ea 59 7f c0
       -5.6345835 3.8787105 -3.421864 -3.989863
000170 11 8d 48 c0 3f aa 01 40 0b 5d ef 3f d0 24 83 40
       -3.13361 2.026016 1.870027 4.0982437
000180 34 37 80 40 ff c0 9c c0 c5 d8 32 c0 67 cd 9b 40
       4.0067387 -4.898559 -2.7944806 4.8688235
000190 34 8d e5 c0 a5 7f 34 41 23 d4 06 41 9b 63 02 41
       -7.1734867 11.281163 8.426791 8.149318
0001a0 e9 11 9c 40 c6 7a ef c0 57 87 16 41 3a 3c fe 40
       4.8771863 -7.483737 9.408042 7.944852
0001b0 b1 1c 07 c1 54 7f dd 40 12 7a 17 c1 85 f4 f6 c0
       -8.444505 6.921793 -9.467302 -7.7173486
0001c0 b2 15 e6 c0 32 2c d1 40 9c a2 cc 40 e3 bd 16 41
       -7.1901484 6.536645 6.39485 9.421359
0001d0 fd 4f ad 40 2b d3 cb c0 28 fe c2 c0 af cb d9 40
       5.416014 -6.3695273 -6.093525 6.8061137
0001e0 9f 2f 85 c0 2e 54 6b 40 94 3b 38 3f 8d 76 07 3f
       -4.162063 3.677013 0.7196591 0.5291527
0001f0 f9 31 37 40 2b b9 5d c0 3c f3 13 40 a8 3e 99 40
       2.862425 -3.4644268 2.3117208 4.7888985
000200 05 19 93 c0 a1 78 2a 40 e0 1f 08 c0 ab a4 44 c0
       -4.596804 2.6636126 -2.1269455 -3.0725505
000210 65 80 28 c0 e5 35 4c bf 7c 67 c7 40 a7 f1 70 40
       -2.6328366 -0.79769737 6.2313824 3.7647493
000220 ff d6 f5 3e 63 d1 8b c0 ef 5c a8 be 06 23 1b 40
       0.48015592 -4.36931 -0.32883403 2.4240127
000230 9f e9 3d 40 d2 35 8e 40 d8 49 08 40 9a 20 9f c0
       2.967384 4.44407 2.129507 -4.9727297
000240 4d 4b d1 bd 73 93 4b c0 89 bb 37 40 50 46 5f 3f
       -0.102194406 -3.1808746 2.8708212 0.87216663
000250 79 de 21 40 c8 11 ae 3f e0 33 e0 bf 7e 96 26 be
       2.5292037 1.3599176 -1.7515831 -0.16268346
000260 7b 32 2c c0 9b 1e 33 bd 2a 2c ea 3e 87 6f 80 3f
       -2.690581 -0.04373036 0.4573682 1.0034035
000270 d9 a9 e3 3f 7b ec 62 bf dd db a1 bf 83 d2 2d 40
       1.7786208 -0.8864209 -1.2645222 2.7159736
000280 52 ff d0 3f 6e 8e f4 40 b9 23 e1 40 01 a5 a2 40
       1.6327918 7.6423864 7.0356107 5.082642
000290 e0 96 3b 3f 9d bb c6 c0 5c 41 00 41 05 c5 af 40
       0.7327709 -6.210402 8.015957 5.4928
0002a0 bf 1d 99 bf d9 83 c3 40 c6 07 63 c0 81 e6 75 c0
       -1.1962203 6.1098447 -3.5473495 -3.8421938
0002b0 fb a1 3f c0 77 ea b2 40 83 f4 06 41 ea a8 57 40
       -2.9942615 5.591121 8.434695 3.3696847
0002c0 8a c4 55 40 be 9e e3 c0 c2 11 3d c1 03 ae 48 40
       3.3401208 -7.1131277 -11.816835 3.1356208
0002d0 5f a8 cc c0 29 9c c8 40 3a 14 f5 40 b3 e9 fd 40
       -6.395553 6.2690625 7.658719 7.9347777
0002e0 25 02 ab 40 8c 02 85 c0 58 3e 9a 40 25 4a 7c 40
       5.344012 -4.156561 4.8201103 3.9420254
0002f0 7e db 92 c0 03 d7 4e 40 a0 47 e0 c0 59 9b 9d c0
       -4.5892935 3.2318733 -7.0087433 -4.9252133
000300 b3 8a c1 c0 69 1c d4 40 90 de 5e 40 8d 74 26 3d
       -6.048181 6.628468 3.4823341 0.040638495
000310 2e 37 6c 40 b6 c7 7f c0 b6 3a bc c0 08 46 8d 40
       3.690868 -3.9965644 -5.882167 4.4147987
000320 c0 e4 03 40 41 78 91 40 2b 99 01 40 ee 28 44 40
       2.0608368 4.5459294 2.0249736 3.0649981
000330 ae c4 c6 bf b3 08 4b 40 07 d1 2f c0 d2 f3 59 40
       -1.5528772 3.172406 -2.747133 3.4055066
000340 0b 90 f0 c0 29 fe a0 bf 79 32 09 c1 b6 5c ad c0
       -7.5175834 -1.2577564 -8.574822 -5.4175673
000350 8e bd 64 bf fa 4d 88 40 09 b5 73 bf 86 60 2f c0
       -0.8935174 4.2595186 -0.9519811 -2.7402663
000360 9c 1f 37 c0 0f 8f 25 40 c2 ea 91 c0 03 8b 79 bf
       -2.8613043 2.5868566 -4.559907 -0.9747774
000370 fb 3a 19 c0 7a 56 8b 40 10 23 80 40 96 34 02 40
       -2.394225 4.354306 4.00428 2.0344596
000380 44 a3 b3 be 61 76 ee bf d1 13 8a 40 9c 38 a6 3f
       -0.350855 -1.8629876 4.314919 1.2986026
000390 c4 40 11 c0 ba f2 a1 3e 94 2c 46 c0 b0 19 e9 bf
       -2.269578 0.31630498 -3.0964708 -1.8210964
0003a0 39 3d c5 bf 09 5d 3b 3f e1 bd 32 40 66 e0 4f 3f
       -1.5409309 0.73188835 2.7928393 0.8120178
0003b0 a1 94 e9 3f f8 d7 39 bf 1a e9 b4 bf 95 54 2a 40
       1.8248483 -0.7259517 -1.4133637 2.6614125
0003c0 36 f9 03 41 86 6c de c0 7d 5d 94 c0 29 a2 0c c0
       8.2483425 -6.9507475 -4.636412 -2.1973975
0003d0 6e 3b 34 c0 b6 d2 ad bf b2 dc 9a 3f 4f e0 85 c0
       -2.8161273 -1.3579929 1.2098601 -4.1836314
0003e0 8f c5 f6 40 19 35 81 40 f3 b6 ca 40 f2 a9 b1 40
       7.711616 4.0377316 6.3348327 5.5519953
0003f0 95 76 3d 3f ee cf fd 3f a6 a3 92 3f 7c a9 a3 bf
       0.74009067 1.982908 1.1456192 -1.2786098

weight f4 [128, 47]
000000 b6 1b 4c be 76 2c 2d be 9b 86 ab bd 5b 35 bc bb
       -0.19932446 -0.16911492 -0.08375283 -0.005743665
000010 7e be c6 3c 21 4f 82 bc a4 ad f3 3c 81 82 ff bd
       0.024260756 -0.015906872 0.029745884 -0.124760635
000020 4f d7 41 3e 3e 0d fd bd 0e 1d 10 3e 1d 17 b1 bd
       0.1892979 -0.12356041 0.14073583 -0.08646987
000030 15 35 41 3e 0b e6 1a 3d aa 19 4c 3e cf a7 4d 3d
       0.18867905 0.037817042 0.19931665 0.050208863
000040 0f ac df bc a6 04 03 3e 98 e8 38 3d 74 6f e1 bd
       -0.027303724 0.12794742 0.045143694 -0.11007586
000050 47 bc b0 bc 2a 4a 3f bc 02 57 88 bd b4 c0 a9 bd
       -0.021574153 -0.011675397 -0.066572204 -0.08288708
000060 c7 89 0b be cf 27 fe bc 3b 38 43 3e a1 9a 03 be
       -0.13626777 -0.031024842 0.19064419 -0.12851955
000070 4c 1f 13 3e 2e 86 de bc f7 5c 43 bd 6c e1 0d 3d
       0.14367408 -0.027163591 -0.04769608 0.034638807
000080 c7 34 b5 3d 3e 11 06 be 9a 37 fa 3d 9b a7 9c bd
       0.08847957 -0.13092515 0.122176364 -0.07649156
000090 69 4c db 3c 05 f1 55 3d 9f 85 59 bd 79 0d 1d 3e
       0.026769834 0.052231807 -0.053105947 0.1533717
0000a0 9f 5c ee 3c a0 55 2f 3d 90 c0 ec bd 14 39 21 be
       0.0290969 0.042806268 -0.11560166 -0.1574443
0000b0 c0 c6 7a 3d b6 2d 19 be 4f 59 02 3c 13 44 36 c0
       0.0612247 -0.14958844 0.007955863 -2.847905
0000c0 53 51 5e 42 46 ad ad 41 da 0c 5a c2 57 2a 02 c1
       55.57942 21.709606 -54.51255 -8.135337
0000d0 87 2a 93 41 cb 46 f2 c1 9d 5f 1b c1 36 38 90 c1
       18.395765 -30.284567 -9.710843 -18.027447
0000e0 9a 52 0d 41 5e 98 5e c2 9c d9 80 41 55 10 83 c1
       8.832666 -55.648796 16.106255 -16.382975
0000f0 fd fc 8f 41 b8 27 65 40 09 b4 7e 40 60 44 04 c1
       17.99853 3.5805492 3.9797385 -8.266693
000100 cb f1 00 c2 0b dd b3 c1 b0 15 8e c1 d1 a6 89 41
       -32.236126 -22.482931 -17.76059 17.206453
000110 03 9b 3a c1 87 16 c0 c1 91 8b 4a c2 2d 75 fe c1
       -11.662845 -24.011 -50.636295 -31.807215
000120 c8 73 11 c1 cd 09 d0 41 7e c8 93 41 29 4c 1d 42
       -9.090767 26.004786 18.472897 39.324375
000130 a1 5d b9 c0 3e 28 8a 42 28 a5 a1 c1 e8 3a 08 c2
       -5.7926793 69.0786 -20.205643 -34.057526
000140 f7 ce bc c0 41 8f 14 42 eb 40 56 42 02 78 ed 41
       -5.9002643 37.139896 53.563396 29.683598
000150 71 d1 b0 c1 2c e9 33 c1 bb 7a fe 41 43 62 8c bd
       -22.102266 -11.244427 31.809927 -0.068546794
000160 1e 91 18 c0 e2 82 bb 41 40 ae b8 41 ce d4 c4 40
       -2.3838573 23.438908 23.085083 6.150977
000170 a4 98 1d bf 9d 3e 21 42 0e 4e 08 3e 44 da 08 3e
       -0.61561036 40.311146 0.13311026 0.13364512
000180 9f 82 72 3d d8 50 ea 3c ee 75 0e be 34 f9 54 be
       0.0592066 0.028603002 -0.13912174 -0.20798188
000190 74 a9 12 3e 1c 8c 16 3d c4 df 3f bd 8c c6 ce bd
       0.14322454 0.036754712 -0.04684426 -0.100964636
0001a0 a8 4b 2d 3d 76 18 1a 3e f8 11 29 ba d4 eb fc bb
       0.04230848 0.15048394 -0.0006449516 -0.0077185426
0001b0 26 b4 57 3e ba f1 41 3c 25 3f 57 be 1b db ec 3d
       0.21064815 0.011837417 -0.21020181 0.115652286
0001c0 6a f6 71 3c 25 b5 ca 3b 29 d2 2f be 1f 9f 14 be
       0.014768222 0.006186145 -0.17170013 -0.14513825
0001d0 79 4b 6c be ae 55 b9 bc eb 64 c8 3d 7b 85 92 3d
       -0.23075666 -0.022623863 0.097848736 0.07154366
0001e0 a2 73 5b be 60 04 07 3d 34 0a 9c 3d 7b 96 8d bc
       -0.21430829 0.032963157 0.076191336 -0.017283669
0001f0 70 d1 be bd 8e 44 39 bd 9e 28 40 3e 69 c3 86 3c
       -0.09317291 -0.045231394 0.18765494 0.0164506
000200 d3 2c e2 bd a9 f5 67 bd b3 d7 0e bc 77 59 c6 bd
       -0.11043706 -0.056630764 -0.008718419 -0.09685033
000210 f0 1b 52 3d 16 5c 2a 3d 17 39 83 bd 40 ae a5 bd
       0.051296175 0.041591726 -0.064073734 -0.08089876
000220 5a 25 22 3b 67 d8 0a 3d 9b 69 f0 bb 46 3a 33 be
       0.0024741502 0.033897784 -0.007336808 -0.17502698
000230 3a 71 e3 bb 14 de 08 c2 e6 2d 11 42 93 ca c5 c0
       -0.006940988 -34.216873 36.294823 -6.1809783
000240 d4 40 47 41 34 1e 11 41 df 4d 87 40 0a 20 d3 41
       12.453327 9.069874 4.2282557 26.390644
000250 9d 9c 21 c2 ed 47 10 c2 15 fc b1 40 9a 33 32 c1
       -40.402943 -36.07024 5.5620217 -11.137598
000260 79 d4 07 42 4e 48 67 c1 31 4d d5 41 00 8e 34 42
       33.957493 -14.4551525 26.662691 45.13867
000270 7d 65 fb 41 dc 1d 91 41 2e cd d8 41 00 15 48 41
       31.424555 18.13958 27.100185 12.505127
000280 11 15 54 41 0e a5 97 c1 a3 94 e9 3f 9e 5c 95 c1
       13.255143 -18.955593 1.8248485 -18.670223
000290 07 ab 18 c2 53 44 84 40 ce ab 31 c2 d3 88 14 42
       -38.16702 4.1333404 -44.417778 37.133617
0002a0 16 4f 63 42 97 1e dd 41 4d bd f2 41 f1 43 4b 42
       56.827232 27.639936 30.342432 50.81635
0002b0 20 b5 01 40 b0 c0 18 41 ad 8a 37 c2 08 44 09 42
       2.02668 9.547043 -45.885426 34.316437
0002c0 0a 19 ae bf 5e 30 05 40 1f 77 20 41 a2 5a 8c 42
       -1.3601391 2.081077 10.029082 70.17702
0002d0 06 91 e2 41 49 f1 d2 3c 44 10 4f 41 56 bd a0 41
       28.320812 0.02574982 12.941471 20.09245
0002e0 e5 49 21 41 d9 dc 87 c1 ee 14 86 be d4 e4 de 42
       10.080541 -16.982836 -0.26187843 111.44693
0002f0 94 a6 13 3e 18 94 ac 3c d8 bc ed 3d c0 2c b9 3b
       0.14419013 0.02106671 0.11608285 0.0056510866
000300 52 99 8e 3d 39 11 01 be b8 e0 f2 3c 74 9d e0 3d
       0.06962837 -0.12604226 0.02964817 0.10967532
000310 88 ac 6e 3d b8 fb 07 be a4 fc cd 3d ff 6b fb bd
       0.058270007 -0.13279617 0.10057953 -0.12276458
000320 f8 97 62 3d 5c 03 6c 3d 18 89 9c 3c 75 b6 80 bd
       0.05532071 0.05762039 0.01910834 -0.06284801
000330 f8 75 ed 3c 6c b9 1d 3d 70 78 c5 3d 30 89 6e bc
       0.028986916 0.03850691 0.09642112 -0.014559075
000340 48 0c 94 bc 7b 81 9a bd 3d 64 05 be 5b f5 07 be
       -0.018072262 -0.07544228 -0.13026519 -0.1327719
000350 98 d9 aa 3c 2c b2 12 3e 94 53 7d 3d f5 93 a9 bd
       0.02085571 0.1432578 0.061847284 -0.08280174
000360 68 c4 58 bd 8c 2a 2c bd 20 1a 98 3d 26 c0 8a bd
       -0.052921683 -0.042032763 0.07426858 -0.06774931
000370 62 2d ff bd d0 9d ad bd 34 ae 8c bd 38 40 c3 bc
       -0.12459828 -0.08477366 -0.06869164 -0.023834333
000380 58 2d 8d 3c ea b1 58 bd c8 80 6e 3d a8 b3 f7 3c
       0.017233536 -0.052904047 0.058228284 0.030237034
000390 8c b0 d7 bd 86 4e fd bd 9e 33 0f be 0c fd 10 3d
       -0.105317205 -0.12368493 -0.13984534 0.035397574
0003a0 3a e7 87 3d f2 82 78 bd 20 39 00 3d 8c 95 fd 3d
       0.066359 -0.060671754 0.03130448 0.123820394
0003b0 cd ea a0 bd 4c 94 13 3e f8 0a cd bd b0 35 c2 bc
       -0.07857285 0.1441204 -0.10011858 -0.02370724
0003c0 94 59 15 3d 60 f7 a6 3b 9e 45 9d 3d 40 14 81 3d
       0.03646238 0.0050954074 0.07679294 0.063026905
0003d0 9c 1d d2 bc 4e 84 0b 3e 9f ed ee bd 24 79 0d 3d
       -0.025648884 0.13624689 -0.116664164 0.034539357
0003e0 68 5a c6 3d 0a 87 e5 bd 0c ed 28 bd 00 d4 d4 bd
       0.096852124 -0.11207397 -0.04124169 -0.10391998
0003f0 30 25 b3 bd 30 da f2 3d 00 47 54 3b b2 0c 0d 3e
       -0.08747327 0.11858022 0.0032390952 0.13774374

bias f4 [128]
000000 27 4d 5c be be 8e a4 41 46 fa 9f 3c 88 14 14 42
       -0.21513806 20.569698 0.01952852 37.02005
000010 20 60 a9 bb f8 c3 f4 3c fb 75 49 42 64 92 a1 41
       -0.0051689297 0.029878601 50.365215 20.19648
000020 2f 34 8b 42 98 64 20 3d 74 e4 47 3d 1a f3 ba bd
       69.60192 0.039158434 0.048801854 -0.09128399
000030 a0 bf d4 41 c5 62 92 41 35 86 3d 42 8f 20 69 42
       26.593567 18.298227 47.38106 58.281796
000040 0c 01 59 3c 24 2f 93 3d 0d 43 4b 42 16 43 1c 42
       0.0132448785 0.07186726 50.81548 39.065514
000050 de 05 77 42 15 59 b3 41 80 ee cf 3c 2f 87 01 be
       61.75573 22.418497 0.02538228 -0.12649225
000060 9b 98 45 c1 ed a0 24 3d 66 03 d5 41 05 d1 d1 41
       -12.349757 0.040192533 26.62666 26.22706
000070 54 40 11 3e 10 04 cb bd ce 83 d3 3d 7e f8 c5 bd
       0.14184695 -0.09912884 0.10327874 -0.09666537
000080 34 f3 f0 41 98 d5 83 bd 60 e3 b2 3c 26 e0 42 42
       30.118752 -0.06437224 0.021836936 48.718895
000090 f2 6e 9d bd d3 c2 04 42 17 76 3c c1 a2 86 f6 41
       -0.07687177 33.190258 -11.778831 30.815739
0000a0 b2 20 52 be 38 6f a2 3c 44 45 e4 bc 08 81 39 41
       -0.20520285 0.019828424 -0.02786506 11.594002
0000b0 f7 fd 05 41 35 a6 77 42 2c 43 a4 41 cc 5d af 3d
       8.374503 61.91231 20.532799 0.08562812
0000c0 40 7b e2 41 88 39 53 3d 6b ac d2 41 b6 2b 25 be
       28.31018 0.051568538 26.334188 -0.16129956
0000d0 f4 f4 8a bd 64 30 e4 41 cc 8d fe 41 3c 1a d5 bd
       -0.06785002 28.523628 31.819237 -0.104053944
0000e0 85 3f 35 41 e7 5d cb c0 d0 af 06 3e 7a 37 9d 3d
       11.328008 -6.3552127 0.13153005 0.07676597
0000f0 27 16 ae 41 5c d7 10 42 ca ea d6 41 8b 71 83 40
       21.760817 36.21031 26.864643 4.10761
000100 7d 55 52 42 0e 65 0e 42 00 40 27 42 45 75 40 42
       52.583485 35.598686 41.8125 48.11452
000110 d8 a6 36 42 c9 cf 82 42 9d 31 af 41 d6 87 5b 42
       45.662933 65.40583 21.899225 54.882652
000120 3c 09 a3 bd c8 18 b2 c1 67 b8 0d 42 43 4c 0e 42
       -0.07960746 -22.2621 35.43008 35.574474
000130 18 6e 37 bd f2 98 df 41 ae 17 bd 41 da f8 f6 bd
       -0.044782728 27.94968 23.636562 -0.120591834
000140 2d 7c b5 41 04 56 70 42 ec 5a d6 41 1e f1 ee 41
       22.685633 60.084 26.794395 29.867733
000150 b5 9b 63 be 32 49 a0 41 c0 71 9b 3b 48 55 aa bd
       -0.22227366 20.03574 0.0047437847 -0.08317047
000160 f3 cd e0 bd 97 38 87 3d d4 8f ce 41 99 ed 4b 41
       -0.10976782 0.066025905 25.820229 12.745507
000170 4c b3 52 42 8a e6 dc 41 d2 25 c2 bd ea 4e d4 40
       52.675095 27.612568 -0.0947987 6.634633
000180 e9 29 50 42 2b 43 00 41 0c 85 50 bd 67 28 fa bd
       52.040928 8.016398 -0.050908133 -0.122147374
000190 06 8f 07 42 ee 07 a2 bd f4 72 41 41 b0 42 12 3e
       33.88967 -0.07911669 12.090565 0.14283252
0001a0 16 0b ee 41 c0 b4 fd 41 c1 3e 65 42 74 ba 5a 42
       29.755413 31.713257 57.311283 54.682083
0001b0 6f 4c a8 bd b8 36 e2 41 29 24 2c be 5e 26 61 42
       -0.082177036 28.276718 -0.16810669 56.287468
0001c0 9c 33 0a 42 57 db a8 bd c3 a3 53 42 74 cc 57 42
       34.5504 -0.08244961 52.909924 53.94966
0001d0 91 6e d1 41 78 5a 99 3d 17 08 a7 bd a2 f9 33 c1
       26.178988 0.07487959 -0.0815584 -11.2484455
0001e0 34 61 e2 bd 58 7f 02 42 57 e6 a7 bd c5 51 4d 42
       -0.11053696 32.62436 -0.08198231 51.329853
0001f0 8a af 0e 42 16 f5 91 3d 99 0c af 3c 8c 66 49 3d
       35.671425 0.071268246 0.021368312 0.049170062

weight f4 [64, 128]
000000 a2 fc fa bd 3d cb 0e be dc 1a b6 3c 1e d4 95 bc
       -0.12255217 -0.13944717 0.022229604 -0.018289622
000010 b6 be 6a 3d 29 f8 92 3d 22 f8 29 bd 25 17 01 bb
       0.057310782 0.07176239 -0.041496404 -0.0019697633
000020 5e 86 5a 3c d2 9a 87 bd 24 8d 93 bd 1b 72 9a 3d
       0.0133377 -0.066213265 -0.07204655 0.07541295
000030 a5 f0 69 3c 71 94 b0 bd 17 7b 16 bd 91 0f 09 bd
       0.0142785655 -0.08622063 -0.03673848 -0.03346211
000040 1d b3 d3 bb 9e b6 1e 3d c0 4b 8b 3c 12 1c 07 be
       -0.006460561 0.038748376 0.017003894 -0.13194302
000050 81 2b da bd f2 30 98 bd b2 39 19 3d ee ef 15 3d
       -0.10652829 -0.074312106 0.03740854 0.036605768
000060 fe c7 23 bd 1d fb 9e bc 71 b1 6f bd 2e ef 48 bd
       -0.03998565 -0.01940685 -0.05851883 -0.049056225
000070 cd d6 a4 bd 5a 4d 8c bd 11 cc 26 bd 3c 6d 85 3c
       -0.080487825 -0.06850691 -0.040721957 0.016287439
000080 87 38 95 bc aa 7f 40 bd 13 73 56 bd d1 2e 0c be
       -0.01821543 -0.04699675 -0.052355837 -0.13689734
000090 e7 bc a5 bd b7 3e 76 bd ef 4e a0 3c 2b cf e9 bd
       -0.08092671 -0.060118403 0.019568888 -0.11416467
0000a0 16 50 85 bb d9 3a 92 3d 04 19 94 3c e7 3b bb 3b
       -0.004068385 0.071401305 0.018078335 0.005713928
0000b0 20 1d 16 be 73 bf 0b bb f1 3a 3c bd e9 45 b0 3d
       -0.14659548 -0.002132383 -0.04595465 0.08607084
0000c0 aa 39 a6 bd 38 cb d5 3c 58 3b 8c bc 98 c3 3c 3c
       -0.08116467 0.026097879 -0.017118141 0.011521243
0000d0 ab 74 ac bd 41 2e 8e bd 02 45 8b bd 37 75 9a 3d
       -0.0842069 -0.06942416 -0.068002716 0.07541888
0000e0 ab 0f c7 bd 87 b5 2e bc c8 e1 45 bc d2 88 2c 3d
       -0.09719785 -0.010663397 -0.012077756 0.04212267
0000f0 a6 25 82 bd 41 86 6d bd 4b 31 b0 3d 35 a7 f2 bb
       -0.06354837 -0.057989363 0.08603152 -0.0074051865
000100 cd 4f be bc 6e 7d 4a bd 0f 89 e7 bd 5b 56 03 be
       -0.023231411 -0.049436025 -0.11305439 -0.12825911
000110 7a 87 da bb 05 22 d7 bd 41 4f 8b bd 50 ac 02 bd
       -0.006668982 -0.105045356 -0.06802226 -0.03190261
000120 5b 3b 12 bd e1 db 62 bd b3 0a 14 be a6 9d 49 bd
       -0.035701137 -0.055385474 -0.14457206 -0.04922261
000130 ac 97 c5 bd ac ef e8 bd e4 37 b7 bd 22 e7 a7 bd
       -0.0964807 -0.11373839 -0.08946207 -0.08198382
000140 da c8 cb bd 84 44 e8 bd 2a 8a 0c be 65 3a 8c bd
       -0.09950419 -0.11341193 -0.1372458 -0.068470754
000150 5c e2 79 bc 81 d4 db 3b 2b 3e 84 bd 0c 53 dd 3c
       -0.015251722 0.006708682 -0.0645717 0.027017139
000160 0d ce 9c 3d 18 2a a8 bd d1 90 54 bd 58 cf 13 bd
       0.076564886 -0.08211154 -0.05189592 -0.03608641
000170 02 89 3b bd 03 09 27 bd 00 59 ac bd 39 0e a4 bd
       -0.045784958 -0.04078008 -0.08415413 -0.08010525
000180 53 56 91 3b df 33 0d 3c a0 fe c7 bb 62 e7 42 3d
       0.0044353395 0.008618324 -0.0061033517 0.047583945
000190 39 45 a4 bd 44 9e c5 3c 42 0a ce bd 26 21 18 3d
       -0.08021016 0.024123318 -0.1006055 0.037140988
0001a0 a9 55 85 3c c2 63 c8 bc 3e 0a 88 bd 28 f7 17 be
       0.016276198 -0.02446163 -0.066425785 -0.14840376
0001b0 50 c2 3c 3c ac 01 9b bd 1a f0 d9 bd 34 3d 56 3c
       0.011520937 -0.07568678 -0.10641499 0.013076115
0001c0 13 67 8d 3c 56 a4 8e bd da 5e 57 bc f7 84 81 bc
       0.017261064 -0.06964938 -0.013145173 -0.015810473
0001d0 43 0f 08 bd e0 5f 82 bc be eb de 3c 4c 24 a0 3a
       -0.03321768 -0.015914857 0.02721202 0.0012217849
0001e0 40 fa b5 3c b0 ae 8c bd 5c a8 e2 3c d7 e3 94 3c
       0.022214055 -0.068692565 0.02766817 0.018175049
0001f0 f5 46 0f be df 12 ab 3d 73 ca b5 bc 22 de ee bc
       -0.13991912 0.08353209 -0.022191262 -0.029158656
000200 df 57 00 bd 56 76 c5 be e4 28 6c bd 7d db 78 be
       -0.0313338 -0.38566846 -0.057656184 -0.24302478
000210 de d7 50 bd 9d 61 92 3d fc f7 22 bd be ac 79 be
       -0.050987117 0.071475245 -0.039787278 -0.24382302
000220 fe 21 a4 be d2 5f ea bc cd 50 af 3d 00 0f 1b bb
       -0.32057184 -0.028610144 0.085603334 -0.0023660064
000230 76 a6 bc be 8c f0 bc be 8c e1 92 be cd 68 a5 3d
       -0.3684575 -0.36902273 -0.28687704 0.0807663
000240 50 3f 90 3b c8 2b 25 bc cc ba b2 be 1f 8c 95 be
       0.0044020787 -0.010081239 -0.3490814 -0.29208466
000250 fe 4e 10 bd 70 cb 83 be 34 0b 13 3d c0 c0 58 3b
       -0.035231583 -0.25741148 0.035899356 0.0033073872
000260 80 d7 e3 ba f0 5b 14 bc 0f 29 a3 be ed 75 cc be
       -0.001738295 -0.009055123 -0.31867263 -0.3993372
000270 a8 30 4a bc c8 06 99 bc de 10 8c bd 82 c2 37 bd
       -0.012340702 -0.018679991 -0.06839155 -0.04486323
000280 bc bb a6 be 5f a7 88 3d e0 be 66 3b 8b 81 a1 bd
       -0.32565105 0.066725485 0.0035208985 -0.078860365
000290 c0 16 50 bd 03 ba ce be 3b ed b2 3d 4c 83 93 be
       -0.050802946 -0.4037629 0.08736654 -0.2881111
0002a0 78 a5 ac bc 42 53 80 bd 1a 0e 77 bd 27 99 8d be
       -0.021074995 -0.0626588 -0.060316183 -0.27655908
0002b0 28 21 c9 bc c2 15 97 be fc b1 b7 3c 04 d8 a5 bc
       -0.024551943 -0.29508787 0.022423737 -0.020244606
0002c0 30 26 87 be 31 0c 93 3d df 98 bc be 32 b6 90 bd
       -0.26396322 0.0718006 -0.3683538 -0.07066001
0002d0 7b 92 88 3d 2f 11 cd be c6 87 b0 be a8 86 37 bc
       0.06668564 -0.40052173 -0.34478587 -0.011201538
0002e0 d2 ad 8b be 10 78 9a be 12 83 63 3d b2 e5 78 3d
       -0.27281052 -0.30169725 0.05554492 0.06076593
0002f0 08 cd 9d be fc bd bc be 59 de a1 be 0c 7e c3 be
       -0.3082049 -0.36863697 -0.3161495 -0.38182104
000300 9e 93 83 be 04 d8 a2 be d8 a4 d8 3c 7b 72 a1 be
       -0.2569856 -0.31805432 0.026445791 -0.31532654
000310 b6 d8 8c be b2 d4 89 be 54 a5 ac be fa 27 c7 be
       -0.27509087 -0.26920086 -0.33719885 -0.38897687
000320 38 de 31 3c 79 e2 a9 3d 48 34 48 bc f0 83 f1 bb
       0.010856204 0.08295149 -0.012219496 -0.0073704645
000330 de 17 1c 3d f3 af 95 be 43 5f 79 be ab c5 b1 bd
       0.0381087 -0.292358 -0.24352746 -0.0868028
000340 73 22 cc be 4b 1f 96 bd 37 32 ac be f0 2c a8 be
       -0.39870033 -0.073301874 -0.3363206 -0.32846785
000350 00 fc 21 3c 93 2b bf be 32 a3 7c 3d 85 92 ad 3d
       0.009886742 -0.37337932 0.061679073 0.08475212
000360 03 a9 a6 3d ee 36 d7 bc 99 33 be be 0e f1 86 be
       0.08137705 -0.02627131 -0.3714874 -0.26355785
000370 15 73 9b be 2a 13 b3 be 2b 4a 8c 3d e4 51 92 be
       -0.30361238 -0.3497556 0.06850084 -0.28578103
000380 e0 6d 09 bd 7c c7 7c be e8 12 70 bc 1c 50 a8 bd
       -0.03355205 -0.24685472 -0.014652945 -0.08218405
000390 7d 38 84 be e8 81 6b 3c 89 65 ab be f7 cc 8f 3d
       -0.25824347 0.014374234 -0.33475903 0.07021516
0003a0 31 f5 c7 be 70 9c a7 be c2 9b 9a be 44 7a a4 bc
       -0.39054254 -0.3273654 -0.3019696 -0.020077832
0003b0 70 75 ca bb eb 72 72 be da 26 63 3d 82 4a 12 3d
       -0.0061785504 -0.2367665 0.055456974 0.035715587
0003c0 47 26 a1 bd c0 b9 2d 3c e4 97 51 bd f9 5f 9c be
       -0.07868629 0.010603368 -0.051170245 -0.3054197
0003d0 f3 39 a2 be 3f 03 42 bd ce 5a 0c 3d dc 27 fe 3c
       -0.31684837 -0.047366377 0.034266286 0.031024866
0003e0 2f c9 11 bd 7c be af be 90 df 92 bc 32 9a 7f be
       -0.035592254 -0.34325016 -0.017928869 -0.24961165
0003f0 c6 85 ab bd 85 e4 a2 3d da 73 56 3d 9e e4 7e bd
       -0.08375125 0.07953743 0.05235658 -0.062229745

bias f4 [64]
000000 61 af 71 3c f9 7f 86 be e7 b7 19 be f2 93 6b be
       0.014751286 -0.2626951 -0.1501156 -0.23005655
000010 c8 88 43 42 e8 03 2c be 7a da 5d 42 eb b8 2b bf
       48.883575 -0.16798365 55.463356 -0.6707904
000020 60 95 82 bd a8 47 aa be d4 cd aa 3e b2 4e 73 42
       -0.06376147 -0.33257794 0.3336016 60.82685
000030 fa b3 82 be 21 d5 aa be 7f 7d 58 42 49 06 c8 be
       -0.25527936 -0.3336573 54.122555 -0.39067295
000040 31 7d 05 bf 72 08 44 41 de 58 0a bf b7 e7 fa be
       -0.5214415 12.252062 -0.5404185 -0.4900491
000050 4a 14 40 c2 49 41 6c be 56 b7 5c 42 1c e5 4d 42
       -48.019814 -0.2307178 55.17904 51.47374
000060 3b 54 c0 bd fa 76 7c be fd 3e c2 be 19 ff 52 42
       -0.09391066 -0.24654761 -0.3793868 52.74912
000070 52 8c 08 bd 3b 0f 74 42 3c b6 57 42 01 4e 1b bf
       -0.033336945 61.014874 53.927963 -0.606659
000080 4e d1 0e bd f9 53 52 42 7f 6a b5 be ea 42 ac be
       -0.034867577 52.582005 -0.35432813 -0.336448
000090 37 f7 84 bd 26 9d a5 3e f8 db a0 bd 96 5e 8a be
       -0.06492465 0.32346457 -0.07854456 -0.27025288
0000a0 5b f8 38 42 a0 cc af be f7 ee fb bd d7 98 92 be
       46.242535 -0.34335804 -0.12301438 -0.28632233
0000b0 e8 aa cf be d7 0b 44 42 f5 66 10 42 d9 0a c0 bd
       -0.4056008 49.011562 36.100544 -0.09377069
0000c0 e8 56 58 42 9a bb 56 bd ff bd 90 bb 0d 7a 03 be
       54.08487 -0.052425005 -0.0044171805 -0.12839527
0000d0 6d 81 84 41 4a f5 46 42 09 bc 5d 42 0c c0 94 be
       16.563196 49.73954 55.433628 -0.2905277
0000e0 c7 32 5c 42 20 98 ec bd f9 66 da bd 98 d8 6e be
       55.049587 -0.11552453 -0.10664172 -0.23324811
0000f0 34 43 87 be a0 5f 15 be 1a 96 de bd bf fe f8 be
       -0.2641846 -0.1458726 -0.10868473 -0.48631856

weight f4 [1, 64]
000000 22 cd 0b ba c7 83 46 3e 3a d7 f2 3c d6 83 10 3e
       -0.00053329964 0.19386207 0.029643644 0.14112791
000010 a0 1d 74 40 bb e6 91 bd 7d 77 9b 3f 28 b7 3e bd
       3.8143082 -0.071240865 1.214584 -0.04656139
000020 b5 44 f0 3c e6 29 df 3d 88 e3 78 be 4d f8 53 40
       0.029329637 0.10896663 -0.24305546 3.31203
000030 e3 3c 0f 3e dc 34 69 3e b9 d9 a9 3f 4a ca 97 3e
       0.1398807 0.2277407 1.3269569 0.29646522
000040 86 f9 8f 3e 67 29 53 40 67 13 7a 3c df 50 6c be
       0.2812006 3.299402 0.015263415 -0.23077725
000050 0f 3f bb c0 b4 07 5d 3e 0a b0 63 3f 3a 41 9e 3f
       -5.8514476 0.2158497 0.8894049 1.2363656
000060 84 71 cb ba 2c 08 7c be 78 c2 b7 3e cd 0e da 3f
       -0.0015521501 -0.24612492 0.35890555 1.7035767
000070 e5 e1 61 3c 81 32 78 3f c0 ba cc 3f 87 8e ba 3c
       0.013786768 0.9695206 1.5994492 0.02277304
000080 d6 95 0f bd a5 c7 b0 bc 5c 36 57 3e cd 04 33 3e
       -0.035055004 -0.021579573 0.2101683 0.174823
000090 cc 7d 2f bc c6 af 50 be 5e 19 4f 3d 02 77 3f be
       -0.010711145 -0.20379552 0.0505613 -0.18697742
0000a0 6f c9 fc bf f8 97 86 3e d9 e9 e7 3c aa 0a 89 3e
       -1.9748973 0.26287818 0.02830975 0.2676595
0000b0 2a 82 89 3e 2d d0 79 40 0c 69 bf 40 7a 3a d9 3c
       0.2685712 3.903331 5.981573 0.026517142
0000c0 50 78 8b 3e bc aa 96 be 33 c5 5e 3d 70 fd 25 bd
       0.2724023 -0.29427135 0.054387283 -0.0405249
0000d0 71 a8 5c c0 1d 9e 0f 40 c7 9c 9b 3f cb a0 6e be
       -3.4477808 2.2440255 1.215722 -0.23303525
0000e0 06 b1 69 3f bc 14 25 bc 12 53 03 be f0 31 80 3e
       0.9128574 -0.010075744 -0.12824658 0.250381
0000f0 05 31 82 be 4c db 6c bd 34 a2 99 3c 8c 0a bb bd
       -0.25428024 -0.057826325 0.018754102 -0.09132871
