api/home_price_model_bhi.pth (torch, 130961 bytes, 7 tensors)

weight f4 [313, 10]
0	0xbfdd3adb	-1.7283586
1	0x3fcd4346	1.6036155
2	0xc09dd01f	-4.9316554
3	0xc0a7b09b	-5.2403083
4	0xc0e422a9	-7.129231
5	0xc07d905c	-3.961936
6	0xc095f5ab	-4.686239
7	0x40a13199	5.0373044
8	0x40d14000	6.5390625
9	0x40420bce	3.0319705
10	0xbfa26b49	-1.2688991
11	0xbe91e661	-0.28496078
12	0xbf18a9e0	-0.5963421
13	0xc01fcb7b	-2.4967945
14	0x3f988555	1.191569
15	0xbedadfe8	-0.42748952
16	0x3fcc0d2f	1.5941523
17	0x3e2aa05b	0.16662733
18	0xbfb99b1c	-1.4500461
19	0x3faec3b2	1.3653471
20	0xbf98811e	-1.1914403
21	0x3f28a3ae	0.65874755
22	0xc087709f	-4.2324977
23	0xc04c7bbe	-3.1950526
24	0xc0be08f6	-5.938594
25	0xc01db5d4	-2.464223
26	0xc0529bab	-3.2907512
27	0x408cf865	4.4053216
28	0x3fc2c13a	1.5215218
29	0x3f28dd56	0.6596273
30	0xc04dfc84	-3.2185373
31	0x4014668a	2.3187585
32	0xc042d5c3	-3.044297
33	0xbf81d22f	-1.0142268
34	0xc0676083	-3.6152656
35	0xc00ea377	-2.228727
36	0xc00746f7	-2.1137064
37	0x40433cd4	3.0505877
38	0x3fc29f8c	1.520494
39	0x40477d3e	3.1170192
40	0xc05c312a	-3.4405007
41	0x40854328	4.164448
42	0xc043516f	-3.0518453
43	0xc08b2e6f	-4.349418
44	0xc070ae75	-3.760648
45	0xc09980c6	-4.7969694
46	0xc043f915	-3.0620778
47	0x404e91bd	3.2276452
48	0x4081b1b5	4.0529428
49	0x403f3962	2.9878774
50	0xbf2631e6	-0.6491989
51	0xbc8a9970	-0.016918868
52	0xbec7ea4b	-0.3904594
53	0x3d418db2	0.04725427
54	0x3f22b3f0	0.6355581
55	0x3ea024f7	0.31278202
56	0xbf2567d7	-0.6461157
57	0xbccfa985	-0.025349388
58	0xbe3050cf	-0.17218326
59	0xbfef4b96	-1.8694942
60	0xc06ad9ad	-3.6695359
61	0x4068c337	3.636915
62	0xc0a331d2	-5.0998316
63	0xc03c5b3f	-2.9430692
64	0xc02b5489	-2.6770346
65	0xc0511882	-3.2671208
66	0xc07c5105	-3.942445
67	0x40936145	4.6056237
68	0x406b47bd	3.6762536
69	0x409ab0ba	4.834073
70	0xbfe43be8	-1.7830782
71	0x401e07bf	2.4692228
72	0xc084083b	-4.1260047
73	0xc073a903	-3.8071907
74	0xc0573b29	-3.3629858
75	0xc008b08e	-2.135776
76	0xbfc0c739	-1.5060798
77	0x4042c7ef	3.043453
78	0x40450107	3.0781877
79	0x4017060c	2.359744
80	0xbfc9a35b	-1.5752977
81	0x3f2df6ae	0.6795453
82	0xbf3f422a	-0.74710333
83	0xbfc7a81e	-1.559818
84	0xbd42b583	-0.047536384
85	0xbf893ca0	-1.0721626
86	0xc054a61d	-3.3226388
87	0x3fefe50b	1.8741773
88	0x3f9af14f	1.2104892
89	0xbe3ca95a	-0.18423977
90	0xbf87dfee	-1.0615213
91	0x3f1fb34d	0.62382966
92	0xc039cbc1	-2.9030612
93	0xbfe252ed	-1.7681557
94	0xc0332867	-2.799341
95	0xc0384e61	-2.8797839
96	0xc0026450	-2.0373726
97	0x408414a7	4.127521
98	0x40423193	3.0342758
99	0x400d4618	2.2074032
100	0xc04429ab	-3.0650432
101	0x407a042e	3.906505
102	0xc0072c72	-2.1120877
103	0xc02f04b0	-2.734661
104	0xc085aaa8	-4.177082
105	0xc04f7dd7	-3.2420557
106	0xc026d8b4	-2.6069765
107	0x40b67985	5.702334
108	0x4099b250	4.8030167
109	0x4049044a	3.1408868
110	0xc07d4d50	-3.9578438
111	0x3ff7ba70	1.9353771
112	0xc032c10a	-2.7930322
113	0xbfe30d39	-1.773841
114	0xc03861bd	-2.8809655
115	0xbfe73b48	-1.8064966
116	0xc02e40c8	-2.722704
117	0x3f8b0790	1.0861683
118	0x405a5277	3.4112833
119	0x401d3634	2.4564333
120	0xc0870fc0	-4.2206726
121	0x403e0664	2.96914
122	0xc0149160	-2.321373
123	0xc02d2434	-2.7053347
124	0xc029f535	-2.6555912
125	0xbff7d606	-1.936219
126	0xc02b3c52	-2.6755567
127	0x404776fe	3.1166377
128	0x405cad68	3.4480839
129	0x40499d4e	3.150226
130	0xc059be69	-3.4022467
131	0x4023a75b	2.5570896
132	0xc054f55e	-3.327476
133	0xbfb03aa6	-1.3767898
134	0xc02e6405	-2.7248547
135	0xc00d6617	-2.209356
136	0xc023403c	-2.5507956
137	0x4003510e	2.0518222
138	0x401f9024	2.4931726
139	0x409ce3f1	4.902825
140	0xbf019205	-0.50613433
141	0x3fece7b3	1.8508209
142	0xc021b24f	-2.526508
143	0xc0345e25	-2.8182461
144	0xc01d69c4	-2.4595804
145	0xbfea0b89	-1.828477
146	0xc0988fde	-4.767562
147	0x3fc60ae7	1.5472077
148	0x3f924867	1.1428345
149	0x3f930433	1.1485656
150	0xc15e07c0	-13.876892
151	0x41337c8f	11.21791
152	0xc1343255	-11.262288
153	0xc145e83c	-12.369198
154	0xc12ded1f	-10.870391
155	0xc12d29a0	-10.822662
156	0xc14bfdb7	-12.749442
157	0x413d8739	11.845513
158	0x4139b160	11.605804
159	0x416450dd	14.269742
160	0x4048bf66	3.136682
161	0xbf9cad92	-1.224047
162	0xbfe48632	-1.7853453
163	0xc0560a32	-3.3443723
164	0xbf35ef86	-0.7106861
165	0xc04b5d54	-3.1775713
166	0xc05c98ba	-3.4468217
167	0x3fcb9701	1.5905458
168	0x40847613	4.1394134
169	0xbf0f52b8	-0.55985594
170	0x40147e1b	2.3201969
171	0x3f8a087e	1.0783842
172	0xc00ee8f3	-2.232968
173	0xc05574f9	-3.3352644
174	0xbfee6ae4	-1.862637
175	0xc08be87c	-4.3721294
176	0xc0983bf6	-4.7573195
177	0x406c2be9	3.69018
178	0x404a82e5	3.1642392
179	0x3fb0dbb2	1.3817046
180	0xc028c04d	-2.636737
181	0x4015ed5e	2.3426127
182	0xc0bc0821	-5.8759923
183	0xc08e6d39	-4.450833
184	0xc0871fd2	-4.2226343
185	0xc0a879c7	-5.2648654
186	0xc09b8044	-4.8594074
187	0x40d6e248	6.715122
188	0x407f1e0b	3.9862087
189	0x40372763	2.861779
190	0xbf525721	-0.821642
191	0xbebf970b	-0.37419924
192	0x3f9b4885	1.2131506
193	0xbf41c1ab	-0.7568614
194	0x3f2c92ac	0.67411304
195	0xbfd89144	-1.6919332
196	0xbfb2f030	-1.397955
197	0x3f96ad3d	1.1771618
198	0x3e18d1ec	0.14923829
199	0x3feac92f	1.8342646
200	0xbf84e0fc	-1.038116
201	0x3f90ad38	1.1302862
202	0xc0522948	-3.2837696
203	0xc054c154	-3.3242998
204	0xc08f3f2e	-4.4764624
205	0xc05b19ce	-3.42345
206	0xc0710165	-3.76571
207	0x400037b0	2.003399
208	0x4085c175	4.1798654
209	0x3fbd042f	1.4766902
210	0xbff595e0	-1.9186363
211	0x3e33ae20	0.17546892
212	0xc05e5dea	-3.474482
213	0xbf67b03a	-0.90503275
214	0xc02b85d3	-2.680043
215	0xc09d6352	-4.918374
216	0xc02a87d4	-2.6645403
217	0x40336783	2.8031929
218	0x3f96ca18	1.1780424
219	0x4016a984	2.3540964
220	0xc096c312	-4.7113123
221	0x40c9a19b	6.300977
222	0xc0a8b4f9	-5.2720914
223	0xc0af0c96	-5.4702864
224	0xc0a6a54e	-5.207679
225	0xc08e5ca1	-4.4488072
226	0xc0ad4128	-5.4142036
227	0x40e8796c	7.264822
228	0x40c6513e	6.1974173
229	0x4101a34d	8.102368
230	0x3fbcb785	1.4743506
231	0xc012cef7	-2.2938821
232	0xbf884e4b	-1.0648893
233	0xbf8e747c	-1.1129298
234	0xbfb251a4	-1.3931165
235	0xbfae384d	-1.3610932
236	0xc061868a	-3.5238366
237	0x402f084c	2.7348814
238	0x3ffea336	1.9893558
239	0xc009fbaa	-2.1559854
240	0x407ed306	3.9816298
241	0x3e2943fa	0.16529837
242	0xc093cc7c	-4.6187115
243	0xc0416bbf	-3.0222013
244	0xc06027bf	-3.502426
245	0xc0917753	-4.545816
246	0xc078594d	-3.8804505
247	0x40a758b1	5.2295766
248	0x40aef4fb	5.467405
249	0xbfff3290	-1.9937305
250	0x3eefd170	0.46839476
251	0x3f5bfab6	0.8592943
252	0x3f8fdef6	1.1239917
253	0xbfd75510	-1.6822834
254	0x3f81a6cc	1.0129027
255	0x3f06106a	0.52368796

weight f4 [1563, 10]
0	0xbea5973a	-0.3234194
1	0xbfc13592	-1.5094473
2	0xbf6ef5e2	-0.9334394
3	0x3f13503c	0.575443
4	0x3fb0dde8	1.381772
5	0x3f50440b	0.81353825
6	0xbde31675	-0.11088268
7	0x3fb3f918	1.4060392
8	0x3f0a680b	0.54065007
9	0xc00a69ec	-2.162715
10	0xc042b79c	-3.0424566
11	0x400ebfc8	2.2304554
12	0x40602125	3.502023
13	0x40a1f97d	5.061705
14	0xc04fd6b5	-3.2474797
15	0xc09a818f	-4.8283153
16	0x407cf790	3.95261
17	0xbf980cce	-1.1878908
18	0xc023c6d3	-2.5590103
19	0x4088b18a	4.2716722
20	0xc03dd212	-2.9659467
21	0x3fc8eb90	1.5696888
22	0x3fedb70b	1.8571485
23	0x40457df1	3.0858119
24	0xc0394afd	-2.895202
25	0xc04a2f0c	-3.1591215
26	0x40523cc7	3.2849596
27	0xc02205b3	-2.5315979
28	0xc042e764	-3.045373
29	0x408643c5	4.1957726
30	0xc0996c4a	-4.794469
31	0x40a185e5	5.0475945
32	0x40a4f2ab	5.1546226
33	0x40a8032a	5.250386
34	0xc0bf339f	-5.9750514
35	0xc08288cc	-4.079199
36	0x40eaa075	7.332087
37	0xc05c284f	-3.4399602
38	0xc0c08fab	-6.0175376
39	0x409640e3	4.6954207
40	0xbfec31b5	-1.8452669
41	0x3f666f88	0.90013933
42	0x406545f8	3.5823956
43	0x404f53f6	3.2394996
44	0xc028daa8	-2.6383457
45	0xbfc6cccb	-1.5531248
46	0x3eb8f34f	0.3612313
47	0xbf98475c	-1.1896777
48	0xbeb4d9bd	-0.3532237
49	0x3f9ca1b7	1.2236851
50	0xbfa30390	-1.2735462
51	0x3f0dceab	0.55393475
52	0x3f861357	1.0474652
53	0xbdb4879f	-0.0881493
54	0xbf3e5785	-0.74352294
55	0xbfa1c071	-1.2636853
56	0x3fe7073c	1.8049083
57	0xc0030e0d	-2.0477326
58	0xbf620df4	-0.8830254
59	0xbc8373e3	-0.01604647
60	0xbf18dcd9	-0.59711987
61	0xbf9fb974	-1.2478471
62	0xbfd0430b	-1.627046
63	0x3e1908c0	0.14944744
64	0xbfbcb202	-1.4741824
65	0x3d0b575e	0.034018867
66	0xbcd9cdc2	-0.02658737
67	0xbe404c88	-0.18779194
68	0xc00f9b53	-2.2438552
69	0x3eef6a7f	0.46760938
70	0xc00cbd12	-2.19904
71	0x3fb9114f	1.4458407
72	0x3ce9229a	0.028458882
73	0x3f5c87ba	0.861446
74	0xbddedc6a	-0.108818844
75	0xbf6efb4d	-0.93352205
76	0x3ec871da	0.39149362
77	0x3e9c49ef	0.30525157
78	0xc00056c4	-2.0052958
79	0x40018371	2.0236475
80	0xc03ec672	-2.9808621
81	0x405f6a10	3.4908485
82	0x4033e6a7	2.810953
83	0x4063be2a	3.5584817
84	0xc06a487f	-3.6606748
85	0xc058b332	-3.3859372
86	0x400226d1	2.0336192
87	0xc085bda0	-4.1793976
88	0xc041743e	-3.0227199
89	0x4078e93a	3.889235
90	0xbf4a60b9	-0.7905384
91	0xbef87682	-0.48527914
92	0x3fb241b0	1.3926296
93	0x3e741023	0.2383428
94	0x3e25ea39	0.1620263
95	0xbfc26ef4	-1.519011
96	0x3f92e160	1.1475029
97	0xbf39df0e	-0.7260598
98	0xbff928f3	-1.9465622
99	0x3eb2fae9	0.34957054
100	0xbffd01eb	-1.976621
101	0x403906d3	2.8910415
102	0xbdc19001	-0.09451295
103	0x402aa274	2.6661654
104	0xc0300b39	-2.750685
105	0xbfbf8c80	-1.4964752
106	0x3f151e4a	0.5824934
107	0xbe5f34c5	-0.21797474
108	0xbfb4e31a	-1.4131806
109	0x3fa197a6	1.2624404
110	0x3cf1f488	0.029535547
111	0xc0340c7f	-2.8132627
112	0xbe51dcc7	-0.20494376
113	0xbff7b450	-1.9351902
114	0x3e3e23ed	0.18568392
115	0x3f683579	0.9070659
116	0xc086aa99	-4.208325
117	0x4092aff8	4.5839806
118	0x3f7aa137	0.97902244
119	0xc07e3dcb	-3.9725215
120	0xbf1438e8	-0.5789933
121	0xc01938b5	-2.3940861
122	0x3f9de119	1.2334319
123	0xbf97d2da	-1.1861222
124	0x3fc036bb	1.5016702
125	0xbe4f4fe9	-0.20245327
126	0xbf97b811	-1.1853048
127	0x3f049944	0.51796365
128	0x3f615860	0.88025475
129	0xc011c314	-2.2775316
130	0x3eef4029	0.46728638
131	0xbec5ea06	-0.38655108
132	0xbf25ca64	-0.6476195
133	0xbf66aea5	-0.90110236
134	0x3dd49c89	0.10381419
135	0x3f0114d9	0.50422436
136	0xbf744a13	-0.9542553
137	0x3f204836	0.62610185
138	0x3ee249cb	0.44196925
139	0xbf39cc93	-0.7257778
140	0xbec8e88e	-0.39239925
141	0x3f7dd6a0	0.99155617
142	0xbdedd2c6	-0.116124675
143	0xbf2c5bc2	-0.6732751
144	0xbf89ee55	-1.0775858
145	0x3f3c528a	0.73563445
146	0x3f6fc98b	0.93666905
147	0xbf7e672e	-0.9937619
148	0xbe9e65a1	-0.30936912
149	0xbf3dfacc	-0.7421081
150	0x3ef58c51	0.47958615
151	0xc04ea94b	-3.2290828
152	0xbf536b21	-0.8258534
153	0xc00dfab4	-2.2184267
154	0x3f39cf46	0.725819
155	0x3ed611ff	0.41810605
156	0xbfc019fa	-1.5007927
157	0x40871809	4.221684
158	0x3fd957f5	1.6979967
159	0xc051d99a	-3.2789063
160	0x3f0a87b8	0.5411334
161	0xbfa775d8	-1.3082838
162	0xbf4169cd	-0.75552064
163	0xbfb78700	-1.4338074
164	0x3fa3c094	1.2793145
165	0x3f6b28f8	0.9185939
166	0xbe1d7f31	-0.15380551
167	0x3fa8467e	1.3146513
168	0x3fda3f3f	1.7050551
169	0xbef3967d	-0.4757575
170	0x3ff8655f	1.9405936
171	0xc06c7f3d	-3.695266
172	0xbf38645f	-0.72028154
173	0xc002312d	-2.0342515
174	0x3f9fdd31	1.2489377
175	0x40190195	2.3907216
176	0xc02d450a	-2.7073388
177	0x3f86ce26	1.0531662
178	0xbf4af60f	-0.79281706
179	0xc00bbe0f	-2.1834753
180	0x3e06e3fa	0.13172904
181	0xc000c82b	-2.0122173
182	0xbfb5fbe6	-1.4217498
183	0x3f3e2237	0.7427096
184	0x3f664d4e	0.8996171
185	0xbf0ff4b7	-0.5623278
186	0xc00c28ac	-2.1899824
187	0x40408c40	3.0085602
188	0x3f5db30a	0.86601317
189	0xc06dec43	-3.7175453
190	0x3f3baadb	0.7330758
191	0xc03ebd89	-2.9803183
192	0x3efa2ee2	0.48863894
193	0xbf806806	-1.0031745
194	0x3ff1d6a8	1.8893633
195	0x40324dd8	2.7860012
196	0xbf894428	-1.0723925
197	0x3f8f0cc1	1.1175767
198	0x3f81d929	1.0144397
199	0x3e8c985c	0.2745999
200	0xbf51c6a8	-0.8194375
201	0xbfdc5f3d	-1.7216564
202	0x3febe9e9	1.8430759
203	0x3f203cbf	0.6259269
204	0x401cf0a7	2.4521883
205	0xbf5ffc70	-0.87494564
206	0x3efd4d29	0.4947293
207	0x3f984d58	1.1898603
208	0xbf0c4fd4	-0.5480931
209	0xbf15fb94	-0.58587
210	0x3e5d1028	0.21588194
211	0xbf691902	-0.91053784
212	0xbf2e31cd	-0.6804474
213	0xbe9680e6	-0.29395217
214	0xbdb8b74a	-0.090193346
215	0xbe2c929c	-0.16852802
216	0xc00aaa72	-2.1666532
217	0x3fb3de55	1.4052225
218	0xbe308d75	-0.17241462
219	0xbf40264f	-0.75058454
220	0x40639d15	3.5564625
221	0xc0d44fa8	-6.6347237
222	0xbff34019	-1.9003936
223	0xc03c274d	-2.9398987
224	0x3fffafbe	1.9975507
225	0x409deaa3	4.934892
226	0xc058896a	-3.383387
227	0x41254087	10.328254
228	0x4079642b	3.8967388
229	0xc0dca162	-6.8947
230	0xbd821fc0	-0.06353712
231	0xbe4cd520	-0.20003176
232	0xbf4c7c65	-0.7987731
233	0xc0021a74	-2.0328646
234	0x3eafef73	0.34362373
235	0x405c3848	3.4409351
236	0xc00cbb5c	-2.1989355
237	0x3ff0d3a6	1.881459
238	0x3f444dfd	0.766815
239	0xbf5cff56	-0.8632711
240	0xbe90c7d3	-0.28277454
241	0xbfc4207e	-1.5322416
242	0xbf95ada9	-1.1693622
243	0x3e4e6085	0.20154007
244	0x3ca57105	0.020195493
245	0xbf8710b2	-1.055197
246	0xbeb710c7	-0.35754988
247	0x3f82e3d5	1.0225779
248	0xbfcf26d9	-1.618373
249	0xbfad4ceb	-1.3539099
250	0x3e588918	0.21146047
251	0xbf34eca6	-0.70673597
252	0x3f2d6423	0.6773092
253	0xbefa1de1	-0.4885092
254	0xbf2df628	-0.6795373
255	0x3f82d759	1.0221969

weight f4 [64, 25]
0	0xc107f2c5	-8.49677
1	0x412d665d	10.837491
2	0xc1656e3f	-14.339416
3	0xc17c682c	-15.775433
4	0xc16ac426	-14.672888
5	0xc15fdf3e	-13.9920025
6	0xc1646b10	-14.276138
7	0x415bc4f0	13.73558
8	0x418489c2	16.567265
9	0x41623a60	14.139252
10	0xc11e5c29	-9.8975
11	0xc0301ae9	-2.7516425
12	0x412ee143	10.929996
13	0x40d2f16f	6.591972
14	0xc0d7bc63	-6.7417464
15	0xc0af5664	-5.4792957
16	0x3f6ad9cc	0.9173858
17	0x40bc2d94	5.8805637
18	0xc0e474f0	-7.1392746
19	0xc0f4e279	-7.6526456
20	0x3dc4e336	0.096136495
21	0xc10a4607	-8.6420965
22	0x4190730f	18.056181
23	0x420ba76c	34.913498
24	0xc208da5e	-34.21325
25	0xc10bdc33	-8.74126
26	0x412e8b83	10.9090605
27	0xc163b7fe	-14.23242
28	0xc17a7df3	-15.655749
29	0xc16b6105	-14.711186
30	0xc15e1820	-13.88089
31	0xc1654cc0	-14.331238
32	0x4157f206	13.496588
33	0x41831c7f	16.388914
34	0x415cf429	13.809609
35	0xc11881a2	-9.531649
36	0xc036a893	-2.854039
37	0x412adb30	10.678513
38	0x40cdfcfe	6.437133
39	0xc0cb4cf0	-6.353142
40	0xc0ab2869	-5.348683
41	0x3f3ed58d	0.745446
42	0x40c3ab62	6.1146708
43	0xc0df839a	-6.9848146
44	0xc1005890	-8.021622
45	0x3e200d90	0.15630174
46	0xc10f3f0a	-8.95289
47	0x41914797	18.159956
48	0x420a98f3	34.649364
49	0xc208c4a1	-34.19202
50	0xbe14f068	-0.14544833
51	0xbe08af10	-0.13348031
52	0xbe462552	-0.19350174
53	0xbcf312c0	-0.029672027
54	0x3deff5aa	0.117167786
55	0xba6aa200	-0.00089505315
56	0xbe49c068	-0.19702303
57	0xbd9c4b63	-0.076315664
58	0x3e116f81	0.14202692
59	0x3e158dff	0.14604948
60	0x3e0bb055	0.13641484
61	0x3dcda4f2	0.100412264
62	0x3d87ea72	0.06636514
63	0x3e3739b9	0.17893113
64	0x3d730384	0.059329525
65	0xbe3acaad	-0.18241377
66	0x3d8c0c36	0.068382666
67	0x3e4ca3e7	0.19984399
68	0x3db7350e	0.08945666
69	0x3e021f89	0.12707342
70	0xbd0b79a0	-0.034051538
71	0xbd9e0daa	-0.0771745
72	0x3d28fee8	0.041258723
73	0xbcf98980	-0.030461073
74	0x3e434fe7	0.19073449
75	0xbdaa9d30	-0.083307624
76	0x3dc5f212	0.09665312
77	0xbda243d0	-0.079230905
78	0xbdedd213	-0.11612334
79	0x3d3d9f6c	0.046294615
80	0x3d65818c	0.05603175
81	0x3b9c7b60	0.0047754496
82	0x3df66336	0.12030642
83	0xbe13ec5a	-0.1444563
84	0x3dd9add6	0.1062886
85	0xbd1fb608	-0.038991958
86	0xbd8816e6	-0.066449925
87	0xbd773748	-0.060355455
88	0xbdafaeea	-0.08578284
89	0x3e064557	0.13112389
90	0x3e27c111	0.16382243
91	0xbd990d30	-0.074732184
92	0x3cad1f00	0.021132946
93	0x3dd7fad6	0.1054589
94	0xbde4e86d	-0.11177144
95	0xbe33ec9b	-0.17570727
96	0x3e44804b	0.19189565
97	0x3cba3110	0.022728473
98	0x3e2a5963	0.16635661
99	0x3dd1d9a6	0.10246591
100	0xc0931047	-4.595737
101	0x40e57fc8	7.1718483
102	0xc066d5e5	-3.606805
103	0xc13629dc	-11.38522
104	0xc063148d	-3.5481293
105	0xc0e758c7	-7.229587
106	0xc09bdefb	-4.8709693
107	0x3f904d3f	1.1273574
108	0x40c0c7a6	6.024371
109	0x40aa1a79	5.3157315
110	0xc1989954	-19.074867
111	0x416de0f8	14.867424
112	0x41be0f85	23.757578
113	0x41a38919	20.441942
114	0xc1a44c8e	-20.53738
115	0xc1a6574c	-20.792625
116	0x4162c90b	14.174083
117	0xc18933f2	-17.150364
118	0xc19b5ab9	-19.419298
119	0x41618f21	14.097444
120	0x3e4e6a72	0.20157793
121	0xc176392e	-15.38896
122	0x411c795d	9.77963
123	0x41e06dfb	28.053701
124	0xc22c4549	-43.06766
125	0x3d8c61e6	0.0685461
126	0xbdbb494a	-0.09144838
127	0xbe1a03bd	-0.15040489
128	0xbd32ff2c	-0.043700382
129	0xbe0fd333	-0.1404541
130	0x3d18b7b8	0.037284583
131	0x3d84cf76	0.064848825
132	0x3c82c458	0.015962765
133	0x3d961122	0.073274866
134	0xbdf4d6da	-0.11955042
135	0xbd922434	-0.071358114
136	0xbdf033b7	-0.11728614
137	0x3dcd6cce	0.100305185
138	0x3ace8500	0.001575619
139	0x3dabf6ba	0.08396669
140	0x3d8e29da	0.06941576
141	0x3dd2f87e	0.103013024
142	0xbe1ba616	-0.15200076
143	0x3e3d31ab	0.18475978
144	0x3d183f4c	0.03716974
145	0xbdbee3fa	-0.09320827
146	0x3cf45e98	0.029830262
147	0x3e1b31a9	0.15155663
148	0xbe23d64d	-0.15999718
149	0x3d5989fc	0.053110108
150	0xc109de7e	-8.616819
151	0x412eaee3	10.917697
152	0xc164ceb7	-14.3004675
153	0xc17b1221	-15.691926
154	0xc16b68a3	-14.713046
155	0xc161aeed	-14.1052065
156	0xc162dd08	-14.178963
157	0x415da604	13.853031
158	0x4185c67e	16.72192
159	0x41605480	14.02063
160	0xc1177422	-9.465853
161	0xc0275330	-2.6144524
162	0x412f7c85	10.9679
163	0x40cc6c53	6.388223
164	0xc0d66a94	-6.70051
165	0xc0a43bdc	-5.132307
166	0x3f2d1365	0.6760772
167	0x40c18daa	6.048543
168	0xc0e20d2c	-7.064108
169	0xc0f918c0	-7.7842712
170	0x3e0c99de	0.1373057
171	0xc10a0614	-8.626484
172	0x418ff56a	17.994831
173	0x420c1a0f	35.025448
174	0xc2095264	-34.33046
175	0xc1085a60	-8.522064
176	0x412c67e6	10.775366
177	0xc16004b9	-14.001153
178	0xc17b4096	-15.703268
179	0xc16aee8b	-14.683238
180	0xc15c9b63	-13.787936
181	0xc16623bb	-14.383723
182	0x415a5ffb	13.648433
183	0x4183069b	16.378225
184	0x415ad0f6	13.676016
185	0xc118dc58	-9.553795
186	0xc039fbd8	-2.9059963
187	0x412bd7be	10.740171
188	0x40d5198a	6.6593676
189	0xc0d7f2cb	-6.748388
190	0xc0a7fb26	-5.249408
191	0x3f217ccc	0.6308105
192	0x40c5fce6	6.1871214
193	0xc0e46098	-7.136791
194	0xc0fc0667	-7.8757815
195	0x3e2d4e9e	0.16924521
196	0xc10b794f	-8.717116
197	0x41901d1b	18.014212
198	0x420b2214	34.78328
199	0xc208b3b6	-34.1755
200	0xbc288730	-0.010286137
201	0xbdfa0f90	-0.122099996
202	0x3dbaf646	0.09129004
203	0xbda69457	-0.08133762
204	0xbd844a1a	-0.06459446
205	0xbd81015a	-0.06299086
206	0x3e144cbb	0.14482395
207	0xbde7b6ca	-0.11314161
208	0x3c6b8630	0.0143752545
209	0x3e33d2a1	0.17560817
210	0x3da1bcba	0.07897325
211	0x3e1e95e9	0.15486874
212	0x3d9832e6	0.07431583
213	0xbd90d1b4	-0.07071248
214	0xbe47ff48	-0.19530976
215	0x3db1244e	0.08649503
216	0xbdef407a	-0.1168222
217	0x3e3066c9	0.1722671
218	0xbe1d36ba	-0.15352908
219	0xbda238e7	-0.079210095
220	0xbe05326c	-0.13007516
221	0xba1d7300	-0.0006006211
222	0xbd02ecd4	-0.03196414
223	0xbe1563bd	-0.14588828
224	0xbcf1ee28	-0.029532507
225	0x3e481e95	0.19542916
226	0xbe12f5d3	-0.14351587
227	0x3d9bf382	0.07614805
228	0xbdfc516d	-0.12320218
229	0x3e425d83	0.18980984
230	0xbd9d58c0	-0.07682943
231	0x3cc7f958	0.024410889
232	0x3e393659	0.18087138
233	0xbe0937ec	-0.13400239
234	0x3e108a87	0.14115344
235	0x3e1a0cd9	0.15043963
236	0xbd1e124c	-0.038591668
237	0x3e3bcf9d	0.18340917
238	0xbdc3f043	-0.09567311
239	0x3c094220	0.008377582
240	0x3e1b2169	0.15149464
241	0x3e106141	0.140996
242	0xbe4140e3	-0.18872409
243	0xbdd0761d	-0.10178778
244	0x3e198c3d	0.14994903
245	0xbc2f9d50	-0.010718659
246	0xbcbe91f0	-0.023262948
247	0x3e1c3149	0.15253176
248	0xbdf7b4e7	-0.12095051
249	0x3d7af264	0.061266318
250	0xc107c263	-8.484958
251	0x41323dc8	11.140083
252	0xc164e7ed	-14.3066225
253	0xc17992bf	-15.598327
254	0xc16e0c2e	-14.877974
255	0xc15adf81	-13.679566

bias f4 [64]
0	0x41bfad56	23.959637
1	0x41bc9c13	23.576208
2	0x3dc79b26	0.09746389
3	0x3e22a1c9	0.15882029
4	0x410358b8	8.20916
5	0x3db7f2e6	0.08981876
6	0x41bf53ce	23.91592
7	0x41bd9b80	23.700928
8	0xbe3a476b	-0.18191306
9	0x3d917f2e	0.07104336
10	0x41bc6a79	23.551989
11	0xbd700918	-0.058602422
12	0xbe472f4b	-0.19451635
13	0x41bb2934	23.395119
14	0xbe2a4943	-0.1662951
15	0xbd574800	-0.0525589
16	0x41bac779	23.347399
17	0xbe379960	-0.17929602
18	0x3e051a21	0.12998249
19	0x41c04969	24.035845
20	0x41be4e77	23.788313
21	0x41bbbfed	23.468714
22	0x41be2462	23.767765
23	0x3ca65f28	0.020309046
24	0xc1e8cbea	-29.099567
25	0x41bf3f78	23.90599
26	0x3d3fbbd4	0.046809986
27	0x3dc64246	0.096806094
28	0x40e9c4a4	7.305254
29	0x41bb9787	23.448988
30	0x3ddf5ea2	0.10906722
31	0xbafc4300	-0.0019246042
32	0xbbda76a0	-0.0066669732
33	0x3e09ab81	0.1344433
34	0x41bcd70c	23.605003
35	0xbcc893d8	-0.02448456
36	0x41c09087	24.07057
37	0x3dca2a52	0.09871353
38	0x3db0cfe6	0.086334035
39	0xbe1b92f8	-0.15192783
40	0x41bcb05f	23.586119
41	0xbe002966	-0.12515792
42	0x41bd6eb2	23.67905
43	0x41c028a4	24.019844
44	0x4174475c	15.267422
45	0x41bb1754	23.38639
46	0x3de1f0d2	0.11032261
47	0xbe377ce3	-0.17918734
48	0x3dd50b32	0.10402526
49	0xc1205daa	-10.022867
50	0x40d7a031	6.7383046
51	0xbe004100	-0.12524796
52	0x41bc26ab	23.51888
53	0xbdff877d	-0.12477014
54	0xc046d79d	-3.10691
55	0xc1d42079	-26.515856
56	0x3e2d45c5	0.16921146
57	0x41bdb816	23.714886
58	0x3e123529	0.14278091
59	0x41bf73c7	23.931532
60	0xc19aeeef	-19.366667
61	0xbe379c0b	-0.1793062
62	0x40d78fca	6.7363024
63	0x3dcbdf22	0.099546686

weight f4 [32, 64]
0	0xbc03fcc0	-0.008055866
1	0xbde0008e	-0.10937606
2	0x3c2980c0	0.010345638
3	0x3ddcd166	0.10782127
4	0xbd9605a8	-0.073252976
5	0x3d4e77c0	0.05040717
6	0x3d129bfc	0.03579329
7	0xbded0814	-0.115738064
8	0x3d1e38e8	0.03862849
9	0xbdc6a29c	-0.09698984
10	0xbd8fa34e	-0.0701357
11	0x3d91ce2c	0.07119402
12	0xbd25de2c	-0.040495083
13	0x3cfdf2a8	0.030999497
14	0x3dd17a36	0.10228388
15	0xbdaa24c6	-0.08307795
16	0xbde77cb4	-0.11303082
17	0xbbf0c000	-0.007347107
18	0x3d080a00	0.03321266
19	0xbd33bab0	-0.04387921
20	0xbdd67dbe	-0.10473202
21	0xbd392774	-0.04520364
22	0xbca6da00	-0.020367622
23	0xbcbf7600	-0.023371696
24	0xbd365ef0	-0.044524133
25	0xbd81cafc	-0.06337544
26	0xbd74c0d8	-0.059754223
27	0x3d94b136	0.07260363
28	0xbdf9ae6a	-0.1219147
29	0x3d53b040	0.051681757
30	0x3d013514	0.03154476
31	0xbd63a6bc	-0.055578932
32	0x3dc5558a	0.09635456
33	0x3dc94188	0.09826952
34	0xbcc1ca30	-0.02365598
35	0x3c3bbdf0	0.011458859
36	0xbda6a976	-0.08137791
37	0xbde6e00a	-0.11273201
38	0xbc6264e0	-0.013817996
39	0xbcbfed10	-0.02342847
40	0xbcd53c00	-0.026029587
41	0xbc0c7c00	-0.008574486
42	0xbddafccc	-0.106927484
43	0xbdc82dae	-0.09774338
44	0xbdc37b10	-0.09544957
45	0xbd590b14	-0.05298908
46	0x3cceaa48	0.02522768
47	0xbc86fdb0	-0.01647839
48	0xbd90be4c	-0.07067546
49	0xbb3fd7c0	-0.0029272884
50	0xbde5a3d0	-0.112128854
51	0x3d7e24f4	0.06204696
52	0xbd7babc0	-0.06144309
53	0x3d4fe088	0.05075124
54	0xbc4d5690	-0.012532845
55	0x3dd0b6b2	0.10191096
56	0xbde1bb44	-0.11022046
57	0x3dd4bb90	0.10387337
58	0x3de3777e	0.11106776
59	0xbd873af6	-0.06603043
60	0x3dc8a02a	0.09796174
61	0xbdfcf9aa	-0.12352307
62	0xbdf58b52	-0.11989464
63	0x3dce3f8c	0.10070714
64	0xbe8b2814	-0.27179015
65	0xbf89245f	-1.0714225
66	0xbd266d88	-0.0406318
67	0xbd87e7ac	-0.06635985
68	0x3ffb8d72	1.9652541
69	0xbc27c220	-0.010239154
70	0xbf57d575	-0.84310085
71	0xbfa6d0b6	-1.3032444
72	0x3d46edb8	0.04856655
73	0x3b79c680	0.00381127
74	0xbf479eac	-0.7797649
75	0x3d773328	0.06035152
76	0xbbd59e20	-0.006519094
77	0xbfec3aae	-1.8455408
78	0x3d86eec4	0.0658851
79	0x3db467da	0.088088706
80	0xbfbf5415	-1.4947535
81	0xbd2f636c	-0.042819425
82	0x3dfa5388	0.122229636
83	0x3fc229db	1.5169023
84	0x3e02418c	0.12720317
85	0xbfdab6b4	-1.7087007
86	0xbe8c7439	-0.2743242
87	0xbd107f2c	-0.03527753
88	0x4003da66	2.060205
89	0xbedd193e	-0.4318332
90	0x3d2b56dc	0.041830882
91	0x3d87596a	0.06608851
92	0x3ff03ec4	1.8769155
93	0xc00d9bfd	-2.2126458
94	0xbd943ab6	-0.07237761
95	0x3ce9e768	0.028552726
96	0x3ca4a8b0	0.020099968
97	0x3c5cdd80	0.013480544
98	0xbf7b6830	-0.9820585
99	0xbde7c52c	-0.113169044
100	0xbe5fea97	-0.21866833
101	0x3cd05520	0.025431216
102	0x3d8b0ea6	0.06789903
103	0xbd9d7cc8	-0.07689816
104	0xbf974e6f	-1.1820811
105	0x3d363524	0.044484273
106	0xbf2368ae	-0.63831604
107	0xbe7cc256	-0.24683508
108	0x40566318	3.3497982
109	0xbfe4f1b6	-1.7886264
110	0x3daa324c	0.083103746
111	0xbdff96b4	-0.12479916
112	0x3d817ad6	0.06322257
113	0x3fbd9ed8	1.48141
114	0x3fee80a1	1.8633004
115	0x3dc12196	0.09430234
116	0xbf81f7cc	-1.0153747
117	0x3c896db0	0.016775936
118	0x4009171d	2.1420357
119	0x4008f195	2.139745
120	0xbda0a642	-0.07844211
121	0xbfb926e1	-1.446499
122	0xbd6ef7d4	-0.058341816
123	0xbd4751af	-0.048661884
124	0x3f9dffb9	1.2343665
125	0xbdb3566e	-0.087567195
126	0x3fe36339	1.7764655
127	0xbd21b3b8	-0.039478034
128	0x3fc323ba	1.5245278
129	0x3fbfd5eb	1.4987158
130	0xbccb0190	-0.024781018
131	0xbd3e3c4c	-0.046444222
132	0x3fdc68fa	1.7219536
133	0xbdc5c1a4	-0.09656075
134	0x3fd6ee3d	1.6791455
135	0x3fc420be	1.5322492
136	0xbde506f6	-0.11182968
137	0x3d37d540	0.044881105
138	0x3fcf3fa7	1.61913
139	0xbdb37314	-0.08762184
140	0x3d0e6d5b	0.03477226
141	0x3fbb3e94	1.4628472
142	0xbda82256	-0.08209674
143	0x3dd2d2c8	0.102941096
144	0x3fcf2fa2	1.6186411
145	0xbd3e9028	-0.046524197
146	0xbc1d0350	-0.009583309
147	0x3fa32bb8	1.2747717
148	0x3fc4c56d	1.537275
149	0x3fd0d8b9	1.6316139
150	0x3fbf65e9	1.4952976
151	0x3d36f884	0.044670597
152	0x412e0941	10.877259
153	0x3fb8eeca	1.4447873
154	0xbd2e3738	-0.04253313
155	0x3dc80a5e	0.097676024
156	0x3ff04948	1.8772364
157	0x3fcbb5ba	1.5914834
158	0x3c7593a0	0.01498881
159	0xbde1f68c	-0.11033353
160	0xbd9a397e	-0.07530497
161	0x3dc9ece4	0.098596364
162	0x3fcbe789	1.5930034
163	0xbd6a59b4	-0.057214454
164	0x3fb5144c	1.4146819
165	0xbd6bdeb4	-0.057585433
166	0x3d56bbc4	0.05242516
167	0x3ca445a0	0.020052731
168	0x3fc5f28a	1.5464642
169	0x3d2b1760	0.04177034
170	0x3fbed2a8	1.4908037
171	0x3fd1914a	1.6372464
172	0x3f5e67dd	0.8687723
173	0x3fbbf7c9	1.4684993
174	0x3d907f50	0.07055533
175	0x3abd7a80	0.0014456064
176	0xbd17f8a8	-0.03710237
177	0x40b34224	5.601824
178	0x3ff66844	1.9250569
179	0xbdb6c0d0	-0.08923495
180	0x3fc73cb2	1.5565398
181	0x3c600ed0	0.013675407
182	0x4073e7b6	3.8110175
183	0x412336ec	10.200909
184	0xbbc8f5a0	-0.0061327964
185	0x3fafcab9	1.3733741
186	0x3de2735e	0.11057161
187	0x3fd29bc4	1.6453786
188	0x40f47d8f	7.640327
189	0x397cb000	0.00024098158
190	0x400619dd	2.0953286
191	0xbdb5a3a4	-0.088691026
192	0xbde3271b	-0.11091443
193	0xbdf7d9cf	-0.121020906
194	0x3d8165ec	0.06318268
195	0x3d7458bc	0.059654936
196	0x3d5487cc	0.05188732
197	0xbcd72fa0	-0.026267827
198	0x3d61c97f	0.055123802
199	0x3ccb91e2	0.024849836
200	0xbc902958	-0.01759784
201	0xbd164124	-0.036683217
202	0x3cf0a8bf	0.02937734
203	0xbd83c184	-0.064333946
204	0xbdf19449	-0.11795861
205	0xbe33c6e5	-0.17556341
206	0x3de4f2bc	0.111791104
207	0x3aea8000	0.001789093
208	0x3c9e9c76	0.019361716
209	0x3cc2d078	0.023781046
210	0xbdf98050	-0.12182677
211	0xbdaa2d35	-0.08309404
212	0xbdf0f88b	-0.11766156
213	0xbe0d5afe	-0.13804242
214	0xbdc7087b	-0.097184144
215	0xbdd963ce	-0.10614739
216	0x3c754f5e	0.014972536
217	0xbdd01fc1	-0.101623066
218	0xbcb83e48	-0.022490636
219	0x3bb314a0	0.005465105
220	0xbe1ebdc1	-0.15502073
221	0xbe2b8b0a	-0.16752258
222	0xbd5b7c98	-0.05358562
223	0x3da1132c	0.07864985
224	0xbdf8eb64	-0.12154272
225	0x3d60465c	0.0547546
226	0x3c239f42	0.0099867005
227	0xbd52f9fc	-0.051507935
228	0xbe20d2e1	-0.15705444
229	0xbdbed136	-0.093172476
230	0xbcf31140	-0.029671311
231	0xbd04a4c8	-0.03238371
232	0x3d529024	0.051406994
233	0x3c0674f0	0.008206591
234	0xbde65ab2	-0.112477675
235	0xbdda8b91	-0.106711514
236	0xbe1557ae	-0.14584228
237	0xbce6b426	-0.028162073
238	0x3dcace4e	0.09902631
239	0x3df0fad4	0.11766592
240	0x3d8ab3bc	0.06772563
241	0x3c55c920	0.01304844
242	0x3d231158	0.039811462
243	0x3d3f4138	0.046693057
244	0x3d44fcec	0.048092768
245	0x3d854cca	0.06508787
246	0x3cd5c540	0.026095033
247	0x3cf0e81a	0.02940755
248	0xbdc09088	-0.09402567
249	0xbd2987c8	-0.041389257
250	0x3dcc7a58	0.09984273
251	0x3d50738c	0.050891444
252	0xbdc3b33c	-0.095556706
253	0xbd03c5fc	-0.032171234
254	0x3d40f199	0.047105405
255	0x3df26aee	0.118368015

bias f4 [32]
0	0xbd83196c	-0.06401333
1	0x40b7c778	5.743099
2	0x41a90498	21.127243
3	0x3cea1efa	0.028579224
4	0xbe2f31df	-0.17108868
5	0xbe2526f2	-0.16128138
6	0xbd79ca74	-0.06098409
7	0xbd1a28ba	-0.037636496
8	0xbd2cbe60	-0.042173743
9	0x41a7a7f9	20.957018
10	0xbd76b1f8	-0.060228318
11	0x41ad273f	21.644163
12	0xbde112d0	-0.10989916
13	0x41ab15e2	21.385685
14	0xbcb96ff2	-0.022636387
15	0xbd8ea185	-0.06964401
16	0x3cc1b531	0.02364597
17	0xbe4b0193	-0.1982482
18	0xbd1da244	-0.038484827
19	0xbc007628	-0.007840671
20	0xbe17b521	-0.14815189
21	0xbe89fae4	-0.26949227
22	0xbe6d7387	-0.23188601
23	0x41abfbe3	21.497992
24	0xbd816846	-0.06318717
25	0x41abfe13	21.49906
26	0xbda32041	-0.07965136
27	0xbe485eb7	-0.19567381
28	0x3c174dd9	0.009234869
29	0xbdf17d00	-0.1179142
30	0xbefa5408	-0.48892236
31	0xbd246b07	-0.04014113

weight f4 [1, 32]
0	0x3d4dfde8	0.050290972
1	0xc0147b0c	-2.3200102
2	0x403fd981	2.9976504
3	0xbd6f76d1	-0.05846292
4	0x3d03a559	0.03214011
5	0xbc121a7e	-0.008917449
6	0xbc9ea2e8	-0.01936479
7	0x3d6796cc	0.056540295
8	0x3d918c26	0.07106809
9	0x4040a2f7	3.0099466
10	0xbd155298	-0.03645572
11	0x40395d7d	2.896331
12	0x3d6e9784	0.058249965
13	0x403bc2f8	2.933775
14	0xbdb9b48b	-0.09067639
15	0xbc928e49	-0.017890112
16	0xbd2508b9	-0.04029152
17	0xbe8a7e1c	-0.2704934
18	0xbd6d2da4	-0.057904854
19	0x39aaa418	0.00032547186
20	0xbcf788c3	-0.03021658
21	0xbea28e2f	-0.31749102
22	0xbe92b2e4	-0.28652108
23	0x4039ffcb	2.9062374
24	0xbd3953f6	-0.045246087
25	0x403c4d46	2.9422164
26	0xbdd6add9	-0.104823776
27	0xbd9b63e8	-0.07587415
28	0x3d4436ac	0.0479037
29	0xbccb8240	-0.024842381
30	0x3e8f522c	0.2799238
31	0x3d1c4754	0.03815396
