api/home_price_model_bhi.pth (torch, 130577 bytes, 7 tensors)

weight f4 [313, 10]
000000 ea 75 d9 c0 b3 4a d3 40 34 e8 a8 c0 da a8 57 c0
       -6.795644 6.6028686 -5.278345 -3.369681
000010 71 83 0f c1 77 e4 f3 40 ba 99 8b c0 37 e3 32 c0
       -8.96959 7.621639 -4.3625154 -2.795118
000020 00 5f 9d 40 12 c9 9d c0 80 20 2f bf 41 5a bd 3d
       4.9178467 -4.9307947 -0.68408966 0.0924573
000030 7d 30 97 3f 20 03 0e bf c8 d2 21 3e 35 dd d7 3e
       1.1811672 -0.5547352 0.15803063 0.42160955
000040 0b ee 93 bb 8a a8 7f 3e 18 5f 6e 3f 0d 5d 13 be
       -0.004514461 0.24966636 0.9311385 -0.14390965
000050 85 cc c6 c0 42 61 c1 40 25 67 4f c0 e3 a9 a2 be
       -6.212466 6.0431223 -3.2406704 -0.31770238
000060 db 39 a5 c0 d5 8a 9d 40 33 c1 b8 3f dc 93 4e 3f
       -5.1633124 4.9231973 1.443396 0.80694366
000070 a3 4f 42 40 1d 1c 62 c0 4b 58 93 bf 38 1a 66 40
       3.0361106 -3.532966 -1.151132 3.5953503
000080 f2 99 22 c0 18 37 0a c0 be 1e 27 c0 80 46 9c 3f
       -2.540646 -2.1596127 -2.6112514 1.2209015
000090 fb 19 48 be fa 49 1a c0 6b 01 5e 40 89 dd 12 bf
       -0.19541161 -2.4107652 3.4688365 -0.57369286
0000a0 2c 4f 82 c0 ec cf b4 40 f0 7b c3 c0 4a 63 73 c0
       -4.0721645 5.650381 -6.108879 -3.8029351
0000b0 43 c4 89 c0 eb 27 8b 40 86 85 bc c0 c5 67 83 c0
       -4.3052077 4.348623 -5.8912992 -4.106417
0000c0 98 b7 cc 40 cd 9e 99 c0 d6 17 75 40 a5 60 46 bf
       6.3974113 -4.800635 3.8295798 -0.7749122
0000d0 2f 52 b0 3f 69 3a c5 3e f0 d3 21 bf 9c fb 12 3f
       1.377508 0.38521126 -0.63214016 0.57415175
0000e0 bd 6c 4a bc 05 43 44 3f 08 19 e0 3e f8 fd 13 3f
       -0.012355027 0.76664764 0.43769097 0.578094
0000f0 0d 36 8f c0 5c 9a a8 40 7c 79 96 c0 ca 02 6f c0
       -4.475348 5.2688427 -4.7023296 -3.7345452
000100 04 bc 9a c0 2e be ae 40 4b 8a c2 bf ac 87 15 c0
       -4.835451 5.4607153 -1.5198454 -2.3364058
000110 d3 97 ab 40 7d 38 1f c0 19 d9 9b c0 bd f2 c6 40
       5.362283 -2.4878228 -4.870251 6.217131
000120 95 0a 32 c0 11 b8 ee bf 30 89 8e c0 4f ec 24 40
       -2.7818959 -1.8649923 -4.4542465 2.5769231
000130 e3 1b b6 bf 0f 58 71 c0 c7 cc 28 40 54 0e 7e c0
       -1.422726 -3.7709997 2.6374986 -3.9696245
000140 41 d0 4d 3f 1d 71 d1 3e 88 df 84 3f c2 20 23 bf
       0.80395895 0.4090661 1.0380716 -0.6372186
000150 af c3 51 3d 30 1c 0c 40 c8 22 d9 be ce 76 6c bf
       0.05121201 2.1892204 -0.42409348 -0.9236878
000160 39 48 9e 3f de 8e f8 bf 77 ec 30 c0 db 66 6d 40
       1.2365791 -1.94186 -2.7644327 3.7094028
000170 ec 1f 79 c0 bf 72 dd bf 23 60 79 c0 1d cb 6c 40
       -3.8925734 -1.7300643 -3.8964927 3.699897
000180 a4 78 ed 3f 85 6a 4d c0 27 02 2f 40 5c 28 00 c0
       1.8552442 -3.2096264 2.7345064 -2.0024633
000190 02 cf 8a c0 54 2d 5a 40 77 c3 9d c0 eb d6 88 c0
       -4.3377695 3.4090166 -4.9301105 -4.276235
0001a0 35 d1 69 c0 62 37 b6 40 7d 9f 44 c0 f4 31 26 c0
       -3.653394 5.6942606 -3.0722344 -2.596799
0001b0 f2 9c 88 40 b3 34 a3 c0 61 a4 58 c0 5d f6 96 3f
       4.2691584 -5.100183 -3.385033 1.1793934
0001c0 d2 3d a1 c0 c8 53 2c c0 15 d0 2e c0 9d 89 12 3f
       -5.0387964 -2.6926136 -2.7314503 0.5724123
0001d0 0c a8 a0 c0 b1 77 cc c0 db be c4 40 22 9a 95 c0
       -5.0205135 -6.389611 6.148298 -4.675065
0001e0 ec a5 27 c0 57 2f 0c 40 d2 d2 4f c0 47 51 94 c0
       -2.619502 2.1903894 -3.2472425 -4.6349216
0001f0 cf 14 5d c0 d6 f0 85 40 99 7e d4 c0 72 ac 4d c0
       -3.454395 4.185649 -6.640454 -3.2136502
000200 bf d7 09 40 37 e5 05 c0 0b 1a 2a c0 70 5d 73 40
       2.153793 -2.0921152 -2.6578395 3.802578
000210 e1 2f d0 bf 11 a6 26 c0 72 69 be c0 4e 0b 4c 40
       -1.6264611 -2.603886 -5.9503717 3.18819
000220 56 e7 65 c0 ef fe 65 c0 69 70 0e 40 89 1a 41 c0
       -3.5922446 -3.593685 2.225611 -3.0172446
000230 98 93 c1 c0 18 53 a7 bf a6 2d d9 bd 48 7e 97 c0
       -6.049267 -1.3072233 -0.1060441 -4.734165
000240 1b 04 d6 bd 0b f1 a6 bf 77 22 34 c0 37 f5 93 c0
       -0.10450002 -1.304231 -2.8146036 -4.6236835
000250 b4 80 78 40 66 00 83 c0 a7 ab 4d c1 e3 1d 4d 41
       3.8828554 -4.0937986 -12.854407 12.819797
000260 9a ae 72 c1 c7 af 7e c1 8f 1d 3a c1 a3 d7 4b 41
       -15.167627 -15.917914 -11.632216 12.740146
000270 3e 32 6e c1 e7 65 86 c1 7a 3a 69 41 2b c2 75 c1
       -14.887266 -16.799757 14.5767765 -15.359904
000280 3d e7 b0 bf 46 6d 84 40 f3 4e b0 bf 59 d1 78 3f
       -1.3820568 4.138339 -1.3774093 0.9719444
000290 a0 7e ab bf 38 18 46 3f 70 c0 3e 3f 48 97 d0 bf
       -1.3398018 0.77380705 0.74512386 -1.6296167
0002a0 bb 99 0a 40 93 ec 15 3f e1 b9 15 c0 89 29 d7 40
       2.165633 0.5856411 -2.3394701 6.72382
0002b0 8a b6 04 c0 31 4d 04 be 8d 31 0d c1 9b 5a 97 40
       -2.0736413 -0.12920071 -8.824597 4.72981
0002c0 25 c1 8b 3d d0 98 aa 3f 5b ec c9 3f 33 f0 5a c0
       0.06823949 1.3327885 1.5775255 -3.4209106
0002d0 27 d0 d7 c0 01 99 c5 40 f6 0f a5 c0 87 76 14 c0
       -6.744159 6.174927 -5.1581984 -2.3197343
0002e0 67 aa b6 c0 33 8e ad 40 74 1d 84 c0 1a 55 8b c0
       -5.708301 5.4236083 -4.1285954 -4.3541384
0002f0 ce bb 8f 40 76 de 88 c0 58 47 57 bf 0a d7 ca 3f
       4.4916754 -4.277156 -0.84093237 1.5846875
000300 0a 62 3d bf f6 2b 93 bf 57 c7 8c be f8 53 e1 3f
       -0.7397772 -1.1497791 -0.27495834 1.760375
000310 6a 5a 90 be 72 df 91 3d c2 0b d3 bf a0 8d 6f 3f
       -0.2819398 0.07122697 -1.6487963 0.9357548
000320 57 9b 0f c0 b1 e3 8f 3f a1 52 b7 bf 39 30 29 3d
       -2.2438562 1.1241361 -1.4322091 0.041305754
000330 40 13 d1 bf 06 49 24 bf 82 7c 2a c0 24 de 1a c0
       -1.6334 -0.64173925 -2.6638494 -2.4198084
000340 87 ae d5 3f 26 f3 d8 be 44 20 84 c0 e2 90 a6 40
       1.6693887 -0.42373008 -4.1289387 5.205186
000350 1f aa 6d c0 b8 dc 35 be c8 0a b0 c0 c1 2d 09 40
       -3.7135084 -0.17759979 -5.501316 2.1434176
000360 ba c2 86 bf aa 69 07 be 2b f6 d9 3f 07 d1 1a c0
       -1.0528176 -0.13223901 1.702825 -2.419008
000370 94 dd ab c0 15 d2 66 40 f4 52 bb c0 10 b3 a7 c0
       -5.370798 3.6065724 -5.853876 -5.240608
000380 dd 10 ac c0 65 2f 93 40 fe ba cc c0 3d ab 8a c0
       -5.3770585 4.5995355 -6.397826 -4.333403
000390 8e c4 10 41 56 99 fe c0 e7 54 60 40 35 d7 1d 40
       9.047987 -7.956218 3.505182 2.4662602
0003a0 2f b4 98 3f a1 ee dc be 9f a9 1c 3f 8e e2 c4 bf
       1.1929988 -0.4315081 0.6119632 -1.5381639
0003b0 59 57 33 3f db 73 ac 3f 03 05 4d 3e 83 fc 0c 40
       0.70055157 1.3472856 0.20021443 2.202912
0003c0 b6 ae 05 c0 98 e4 33 41 5b 5f c3 c0 3a 5e 58 3f
       -2.0887885 11.243309 -6.10539 0.8451878
0003d0 e6 15 e4 c0 bb 22 f4 40 13 29 6c 40 12 2d 77 40
       -7.127673 7.6292396 3.690007 3.8621259
0003e0 09 7f a0 3e 2b 82 9d 3d 4b f7 72 40 c0 b7 9e 3f
       0.3134692 0.07690843 3.7963436 1.2399826
0003f0 83 12 4b 40 69 b5 d2 3f 52 fd c3 bf 2e 9f ce bf
       3.1730049 1.6461612 -1.5311682 -1.6142328

weight f4 [1563, 10]
000000 6e 23 78 bf 95 f0 1a bf f1 61 9f be 12 90 a7 3f
       -0.9692906 -0.6052335 -0.3112941 1.3090842
000010 f7 b2 90 3f aa 77 96 bf e7 dd dc 3e e1 99 40 40
       1.1304616 -1.1755269 0.43138048 3.009392
000020 e7 8c c5 bd 73 49 e1 be bc 38 6a 40 5d b3 33 c0
       -0.096460156 -0.4400135 3.6597128 -2.8078225
000030 41 63 7b 40 60 3b 87 c0 3d 9f 26 c0 b7 49 42 40
       3.927933 -4.225998 -2.6034691 3.0357492
000040 08 1c 95 c0 85 a5 ff bf 37 98 1c 40 b9 e5 51 40
       -4.659672 -1.9972388 2.4467905 3.2796462
000050 a4 d6 ca 3f e4 e7 73 c0 d4 b8 53 40 44 dd 3f c0
       1.5846753 -3.8110285 3.308156 -2.99788
000060 93 4e a7 c0 b8 dc 13 40 9a 21 40 c0 04 1d 5a c0
       -5.2283416 2.3103466 -3.0020509 -3.408021
000070 97 97 19 40 a9 02 8e 40 36 56 a5 40 a8 82 a9 c0
       2.3998773 4.4378247 5.166774 -5.2971992
000080 1a f1 9c 40 a3 55 65 c0 5f 10 93 c0 69 3e bf 40
       4.9044313 -3.5833519 -4.5957484 5.9763684
000090 63 6d ba c0 8a 20 9b c0 17 c9 97 40 9f 6d ae 40
       -5.825853 -4.847722 4.743297 5.4508815
0000a0 6d 68 99 3f 75 73 21 c0 2b 5e 57 40 f1 9d 05 c0
       1.1984993 -2.522672 3.3651226 -2.087765
0000b0 f5 4f fe bf 77 33 10 40 fc e3 33 bf 27 78 48 bf
       -1.9868151 2.2531412 -0.7026975 -0.7830834
0000c0 d5 9f eb 3f b8 2b ec 3f 7e 17 4d 3e 8a 63 82 bf
       1.8408152 1.8450842 0.20028493 -1.0186627
0000d0 15 f7 c0 3f 8e cb 36 bf c6 91 23 bf 11 d6 7b be
       1.5075403 -0.7140435 -0.6389431 -0.24593379
0000e0 da 62 d8 3c 65 81 e6 3f c7 53 12 3f 9f 83 a7 3f
       0.026414324 1.8008238 0.57159084 1.3087043
0000f0 09 40 89 3f 08 ab 1e bf ef b3 2b bf 59 d2 75 3e
       1.0722667 -0.6197972 -0.6707143 0.24006023
000100 a8 4c d0 bf 55 51 77 3f 5d 82 da bf 17 e2 93 bf
       -1.6273394 0.9660848 -1.7071034 -1.1553372
000110 51 70 ca bf 91 b2 3d bf 81 f4 d8 bf cf 28 1c c0
       -1.5815526 -0.74100596 -1.6949617 -2.4399908
000120 55 dd 20 bf a5 ad 91 3f ae 8f 8f be 1c 5b c1 be
       -0.62837726 1.1381117 -0.28039306 -0.37764823
000130 73 98 e7 bf 3c f2 a8 bd 74 b7 a8 3f 34 de 0e bf
       -1.8093399 -0.082493275 1.3180985 -0.55807805
000140 1f a0 99 40 49 2e f7 bf de db fc 3f ef ca 71 c0
       4.800796 -1.9311 1.9754598 -3.778011
000150 66 b2 93 c0 76 bb 59 40 d1 3f 80 c0 bb 3c 67 c0
       -4.615527 3.4020667 -4.00779 -3.6130817
000160 75 75 58 40 ac 29 3b 40 bc f5 e3 3f a6 8a 05 c0
       3.382169 2.9244184 1.7809367 -2.0865874
000170 8f a3 25 bf 6d ff ba 3f 56 67 67 bd 76 d7 66 3f
       -0.64702696 1.46092 -0.056495033 0.9017252
000180 ad 3a 25 bf a6 ee 79 bf 38 18 cd 3d 51 bd b6 3d
       -0.6454266 -0.97629774 0.10014385 0.08922828
000190 72 5a 2a 40 22 ae 06 c0 90 5d 0f 40 47 6c f6 bf
       2.6617703 -2.1043782 2.2400856 -1.9251794
0001a0 29 25 68 bf bc 3f d3 3f dd 2f 90 bf f3 74 80 bf
       -0.906817 1.6503825 -1.1264607 -1.003569
0001b0 df 54 3a 40 44 f6 d5 3f cf c8 50 bf 34 e7 08 41
       2.9114301 1.6715779 -0.8155641 8.556446
0001c0 65 ca f6 bf 8f 81 86 bd ba 27 ba 3f 38 ae c7 bf
       -1.9280516 -0.0656768 1.4543374 -1.5600042
0001d0 1b 84 bc 40 9b a2 d4 be 03 d6 28 c1 e3 29 91 c0
       5.891126 -0.41530308 -10.552249 -4.536363
0001e0 92 94 cf 3f ce 0b 51 40 59 a8 2b bd 09 4e b6 3f
       1.6217215 3.2663455 -0.041908596 1.4242564
0001f0 b9 04 b5 3f 8a de 07 c0 d9 75 ff 3e 4a 28 41 3d
       1.4142066 -2.1229577 0.49894598 0.047157563
000200 e3 8a 03 3f 97 d3 99 3f d4 e1 8f 3e 66 df c7 3f
       0.513838 1.2017697 0.2810198 1.5615051
000210 e4 6e a6 bf 27 8c 13 bf e3 d9 2d 3f ba b7 9c bf
       -1.3002591 -0.5763573 0.67910594 -1.2243569
000220 79 2a 5e 3f df 53 ef 3f a5 1c 2a c0 1a 1a 03 c0
       0.8678356 1.869747 -2.6579983 -2.048468
000230 f0 39 a7 3f 78 38 84 bf 00 8f 0c be 73 8f 7e bf
       1.3064556 -1.0329733 -0.13726425 -0.99437636
000240 f7 2d 26 be 0d d4 22 bf 18 fa 1f 40 09 a4 6b c0
       -0.16228472 -0.63604814 2.4996395 -3.681887
000250 79 af a7 bf 7b fc 59 bf c2 44 0f bf 6f 96 bf 40
       -1.3100425 -0.8515088 -0.5596429 5.9871135
000260 7d 26 da bf 91 8b 01 40 3c 6c 1e 40 17 69 24 c0
       -1.7042996 2.0241435 2.475356 -2.5689142
000270 99 41 1f 40 3c c0 b8 3e 02 41 c8 c0 56 fa 16 c0
       2.4883788 0.36084163 -6.2579355 -2.3590293
000280 e1 54 3e bf c0 14 bb 3f 85 85 5b c0 b9 12 c6 3f
       -0.74348265 1.4615707 -3.4300244 1.5474464
000290 bf e2 6a 3f c9 44 37 c0 1b de 2c 40 ca da fe 3e
       0.9175224 -2.8635733 2.7010562 0.49776298
0002a0 cb a9 e8 bf 94 c2 b7 bf bd 7f f1 bf ce 55 87 40
       -1.8176817 -1.4356256 -1.8867108 4.229224
0002b0 70 9e 33 c0 5c b2 03 40 dc 56 24 40 f2 c9 65 c0
       -2.8065453 2.0577612 2.5678015 -3.5904508
0002c0 78 24 3c 40 6d cc bf 3c f5 b7 80 c0 3e 6f 8b c0
       2.9397259 0.023412907 -4.0224557 -4.3573294
0002d0 ea 25 fd 3e 36 a2 a8 40 2b a2 1c be 7d f0 4a 3e
       0.4944299 5.269801 -0.15296237 0.19818301
0002e0 7c bc 36 3f 52 3a 65 bf 1c 6c 1f 40 d0 ea a2 3f
       0.71381354 -0.89542115 2.4909735 1.2727909
0002f0 d8 06 fd c0 04 17 1b c0 04 71 25 3f 7d ab 7f 40
       -7.9070854 -2.4232798 0.64625573 3.9948418
000300 1c cc ea bf da 80 6e be a1 d6 84 3d e2 f8 80 bf
       -1.8343539 -0.2329134 0.0648625 -1.0075953
000310 5c c8 f2 3f 9b 38 85 bf 01 21 c2 c0 75 a8 36 bf
       1.8967395 -1.04079 -6.066529 -0.71350795
000320 d9 86 ee 3f 24 da cc be 7c 0e 83 3f 84 19 d0 bf
       1.8634902 -0.40010178 1.0238795 -1.6257787
000330 e5 f1 c4 bf b8 12 27 3f 14 34 bc be 0f ff a2 bd
       -1.538632 0.6526294 -0.36758482 -0.07958805
000340 8e 6f e7 bf 81 e0 25 c0 ff 3a 90 be b1 90 ad 3f
       -1.8080919 -2.5918276 -0.2817001 1.3559781
000350 2a 98 6b bf 50 26 4b 3f 0c 9e 92 3d 7a 7a 89 bd
       -0.9202906 0.79355335 0.07159051 -0.06712814
000360 88 4b 5f bf 6b 69 f9 3e bf 45 b6 be 71 f3 1e 3f
       -0.87224627 0.4871324 -0.35600087 0.6209021
000370 76 6c 1e c0 48 ce 2f 41 7a 41 c1 c0 f9 09 34 40
       -2.47537 10.987862 -6.0392427 2.8131087
000380 b2 28 09 40 d9 d0 25 c1 b5 f6 2b 41 09 c6 20 40
       2.1431088 -10.363488 10.747731 2.512087
000390 2c e4 08 c1 35 68 09 c1 90 4c 83 c0 08 ec bb 3f
       -8.555706 -8.587941 -4.103096 1.4681406
0003a0 bf 82 10 c0 10 28 0e b9 58 66 fb 3f 13 56 76 bf
       -2.25798 -0.000135571 1.9640608 -0.9622509
0003b0 ed 28 b1 3f 97 f9 11 40 11 eb aa bf 7a 3c 32 bf
       1.3840615 2.2808588 -1.3352987 -0.6962353
0003c0 ea f2 5e 3f 55 c4 4d be 66 4f 1b 3e 31 21 ae be
       0.8708941 -0.20094426 0.15167007 -0.34009698
0003d0 2b 30 a4 bf ad b7 9c 3e 78 f6 2d bf c8 29 55 3e
       -1.28272 0.30608884 -0.67954206 0.2081672
0003e0 44 8a 20 c0 1e 8b fd 3e 3c 6b 98 3f 9c 72 04 3f
       -2.508439 0.495202 1.1907725 0.5173738
0003f0 bb 89 98 bf 51 d4 65 3f 21 8b 1b be 11 55 da bf
       -1.1917032 0.89777094 -0.15189792 -1.705721

weight f4 [64, 25]
000000 a2 9f c5 3d 15 ad 33 3e bd d4 06 be 1e 3e e8 3d
       0.09649588 0.17546494 -0.1316709 0.11339973
000010 47 9a 20 3e d2 dd cb 3d 59 aa 2c 3e 40 17 79 3b
       0.15683852 0.09954418 0.16861857 0.0038008243
000020 21 e3 36 3e fe b9 90 3d 50 44 16 be 74 83 51 3d
       0.1786008 0.07066725 -0.14674497 0.051150754
000030 88 43 1f 3d 7d 9c 0a 3e ef be 41 be 10 c2 c7 bd
       0.038882762 0.13536258 -0.18920492 -0.09753811
000040 e8 f0 8d bc 76 36 01 be 66 ba c6 3d 96 87 86 bd
       -0.017326787 -0.12618431 0.097035214 -0.0656883
000050 63 bd 32 be d8 5b 01 3d fd 89 42 be 3d 1c 00 3e
       -0.17455058 0.03158173 -0.18997951 0.12510772
000060 53 42 05 3e b9 88 8a 41 e0 27 f3 c0 6b e9 d6 bf
       0.13013582 17.31676 -7.5986176 -1.6789984
000070 90 4b c9 c1 79 84 80 40 9d fb 39 3f 15 6c ca c1
       -25.161896 4.016171 0.72649556 -25.302774
000080 70 92 70 c1 ad c8 31 40 ed d3 c5 c0 c0 be 6d 41
       -15.035751 2.7778733 -6.18212 14.85907
000090 e6 56 d3 c1 4c bd ba 41 30 02 ac c1 2b 04 65 c1
       -26.41743 23.34243 -21.501068 -14.313518
0000a0 f3 2a 91 41 da 92 9a c0 f5 0f 72 c1 7f 80 ff 41
       18.145971 -4.830426 -15.128896 31.937742
0000b0 2f 68 a0 41 8b 49 85 3e 30 aa 80 c1 de 01 11 41
       20.05087 0.2603267 -16.0831 9.062956
0000c0 9f b1 00 42 73 75 81 c2 8c 3c 9d c1 a9 15 74 41
       32.17346 -64.72939 -19.654564 15.255288
0000d0 12 1a 68 c1 61 a5 27 c1 8c ef 70 c1 cf c2 78 41
       -14.506365 -10.477876 -15.058483 15.547561
0000e0 e8 e4 3e c1 f3 56 35 c1 df 9c 73 41 76 00 71 c1
       -11.930885 -11.333728 15.225799 -15.062613
0000f0 06 c0 e5 40 a7 71 c3 40 39 1a 45 bf 86 5d 30 c1
       7.1796904 6.1076236 -0.7699314 -11.022833
000100 13 c8 bc bf db 75 10 c0 be bf f1 40 3b 9b 82 c1
       -1.4748558 -2.2571933 7.554656 -16.325796
000110 85 a3 02 c1 11 23 74 c0 3c 16 af 3c 4e da 43 c1
       -8.164922 -3.8146403 0.021372907 -12.240797
000120 57 10 92 41 df 45 22 42 82 15 29 c2 88 c9 42 3d
       18.257978 40.568233 -42.271004 0.047555476
000130 83 ac 0f be 57 92 47 be b4 2b 1d 3d 2a 7c 4c be
       -0.14030652 -0.19489418 0.038371757 -0.1996924
000140 12 cb db 3d 06 c5 93 3d 63 e3 f7 bd c0 f8 d1 bb
       0.10732092 0.072153136 -0.121039174 -0.006407827
000150 26 68 d7 3d a0 e9 82 bb 20 a3 d0 bd 01 b1 1c 3e
       0.105179116 -0.0039951354 -0.101873636 0.15301897
000160 bd f1 39 be 6d 31 0b 3e b0 31 5d 3c e4 e7 03 be
       -0.18158622 0.13593073 0.013500616 -0.12881428
000170 22 cb 04 be a2 d7 23 be d0 84 0e bc a3 8b a7 bd
       -0.12968114 -0.16000226 -0.008698657 -0.081809305
000180 7d 58 1d 3e 58 0a 00 be 80 0e 5b bd 7b d5 2f be
       0.15365787 -0.12503946 -0.053480625 -0.1717128
000190 12 ab 1f 3e 0e 13 16 be 53 7d e0 3c b7 cf d8 3d
       0.15592602 -0.14655706 0.02740351 0.105864935
0001a0 40 a0 93 3e 8f d8 60 be 4f dd 46 3d 50 6a 8f bc
       0.288332 -0.2195761 0.0485509 -0.017506748
0001b0 3d 9b 53 bd 5d ed 83 bd dc f5 a9 bb e2 eb 73 bd
       -0.05166172 -0.06441758 -0.0051867794 -0.059551127
0001c0 1b 42 14 3d 6c d3 09 3d 2d dc d8 bd 92 07 2a 3e
       0.036195856 0.033648893 -0.1058887 0.1660445
0001d0 a1 62 41 3e 85 8b 3a 3e 71 85 b0 3d a2 70 43 3e
       0.1888528 0.18217285 0.08619202 0.19085935
0001e0 96 d0 b7 bd bb b3 1c 3b fd 41 46 be f9 c8 96 39
       -0.089753315 0.0023910839 -0.1936111 0.00028759966
0001f0 63 9c 79 be cb 7b 86 3f f0 e0 4c 41 52 3e 61 c1
       -0.24376063 1.0506529 12.804916 -14.077715
000200 46 12 29 c1 04 15 a7 c0 52 ec 72 41 5e 54 0a c0
       -10.566961 -5.2213154 15.182695 -2.1613994
000210 11 52 70 40 a9 f2 ec bf 31 9b e6 c0 63 b5 98 41
       3.755009 -1.8511554 -7.2064443 19.088568
000220 fe c9 70 c1 a2 7e 74 41 31 30 e1 c1 8e 64 8a c1
       -15.0493145 15.280916 -28.148531 -17.299099
000230 a3 c3 a4 41 cb 91 a5 c1 73 eb d5 c1 a8 d7 00 41
       20.595526 -20.696188 -26.739965 8.05265
000240 c4 cd 26 41 38 ee 8d 3e e7 b2 a7 c1 ad 3c 2c 41
       10.425236 0.2772081 -20.962355 10.764813
000250 3d 1d 14 42 38 71 6d c2 77 78 9f c1 4e 5a 7b 41
       37.028553 -59.360565 -19.93382 15.709547
000260 ae 42 6e c1 b4 c0 26 c1 44 f5 74 c1 14 2d 7d 41
       -14.891279 -10.422047 -15.309879 15.823505
000270 22 00 3f c1 dc 29 37 c1 c9 11 7b 41 0b fe 70 c1
       -11.937532 -11.44772 15.691842 -15.062022
000280 41 c3 d0 40 9c 8c de 40 e3 3d a2 bf c9 b4 2e c1
       6.5238347 6.954664 -1.2675136 -10.919137
000290 53 10 5d bf 07 d3 2e c0 f3 2b 07 41 12 dd 81 c1
       -0.86353034 -2.73163 8.44823 -16.232944
0002a0 c3 4d 11 c1 6e 6e 8c c0 3d 10 81 3e c7 d4 41 c1
       -9.081485 -4.38848 0.252077 -12.114448
0002b0 1b d9 93 41 93 06 24 42 71 70 27 c2 b3 c6 9f c1
       18.481009 41.00642 -41.859806 -19.972021
0002c0 96 66 7c 41 44 27 6c c1 0a 71 28 c1 83 4b 7b c1
       15.775045 -14.759586 -10.527597 -15.7059355
0002d0 ff 30 7f 41 41 19 3e c1 63 84 33 c1 42 07 7b 41
       15.949462 -11.8811655 -11.219821 15.689272
0002e0 7f 33 71 c1 cb d5 d2 40 16 30 de 40 ba 4a a2 bf
       -15.075072 6.588598 6.94337 -1.2679055
0002f0 95 53 2c c1 77 45 55 bf c4 60 3b c0 f9 55 06 41
       -10.770406 -0.8330912 -2.927781 8.395989
000300 48 54 80 c1 6d c8 10 c1 cc dc 8d c0 c0 89 a8 3e
       -16.041153 -9.048932 -4.4332027 0.32917595
000310 1e 39 43 c1 37 b9 94 41 7f c6 24 42 6c 63 27 c2
       -12.201445 18.590437 41.193844 -41.84709
000320 c3 c8 05 41 01 f8 01 c2 53 e1 7c 41 39 6d 82 c1
       8.361514 -32.49219 15.805011 -16.303331
000330 9c 0b d6 41 79 a6 bf c1 af 43 92 c1 eb 86 11 c1
       26.755669 -23.956285 -18.283049 -9.095439
000340 07 79 e3 c0 41 5a d4 3f 6c 79 25 41 c5 cb 04 c2
       -7.108524 1.6590043 10.342144 -33.198994
000350 95 99 82 41 31 c2 cb 3f e1 f9 8d c1 86 13 9a 41
       16.324991 1.5918638 -17.747011 19.259533
000360 da af fd c1 51 69 3c 3f 87 77 14 42 be 76 cc 41
       -31.710865 0.735982 37.116726 25.55798
000370 e7 34 25 3e a5 8b 66 c1 5b b6 15 41 18 22 68 41
       0.16133462 -14.409093 9.35702 14.508324
000380 62 8f 88 c2 ae f4 9e c1 1c 96 76 41 d8 40 6a c1
       -68.280045 -19.869473 15.411648 -14.640831
000390 84 6c 28 c1 8e db 75 c1 02 7f 7d 41 bc a8 40 c1
       -10.526493 -15.366102 15.843508 -12.041195
0003a0 22 c5 36 c1 16 86 77 41 1c 41 71 c1 3a 09 d8 40
       -11.423128 15.470236 -15.078396 6.7511263
0003b0 e2 be cf 40 12 ec 68 bf a2 be 2f c1 84 2c 68 bf
       6.492051 -0.90985215 -10.984041 -0.90692925
0003c0 18 ed 30 c0 e9 dd 03 41 af ec 7f c1 f7 3a 0e c1
       -2.764471 8.241677 -15.995284 -8.889396
0003d0 5f 8c 87 c0 04 55 11 3e f4 4b 46 c1 14 5d 94 41
       -4.235885 0.14192587 -12.393543 18.545448
0003e0 82 b1 24 42 e2 80 28 c2 a0 47 a0 c1 2b a1 78 41
       41.173347 -42.125862 -20.034973 15.539348
0003f0 95 f7 69 c1 17 52 28 c1 48 48 78 c1 b6 4d 7e 41
       -14.622945 -10.520041 -15.517647 15.893972

bias f4 [64]
000000 82 bf 97 3d b4 34 b9 c0 b0 fc d4 41 0c 1f 41 3d
       0.07409574 -5.7876835 26.623383 0.04714875
000010 19 55 5e bc 13 b6 ee 40 04 46 d4 41 e8 8b d5 41
       -0.013570094 7.459726 26.534187 26.693314
000020 f6 0c d1 c1 3d 94 d6 41 e3 76 d5 41 bb f4 d3 c1
       -26.131329 26.822382 26.68305 -26.494497
000030 03 c2 dd c1 a1 47 36 3e ed b3 d9 bd ec a0 7d 3d
       -27.719732 0.17800762 -0.10630021 0.061921045
000040 5b 26 3e 3e 6e ce a9 3d 02 db 86 3d b5 49 d5 41
       0.18569319 0.082913265 0.06584741 26.66099
000050 cc 60 53 3d fc eb d2 41 d6 c9 05 be 90 bf a4 bc
       0.051605985 26.365227 -0.13065276 -0.020110875
000060 fb ae 43 be 7d b0 d8 41 0e b0 f6 3d 66 ef d9 3d
       -0.19109719 27.086176 0.120452985 0.10641365
000070 4a 7f f1 bd f2 74 b7 3d e0 3d e9 bd 5a c6 95 3d
       -0.117918566 0.089578524 -0.11388755 0.07313223
000080 9b bc 11 be 99 76 21 3e 09 ea d7 41 53 c2 3a be
       -0.14232104 0.15767898 26.989275 -0.18238191
000090 d2 1a d4 41 26 1b a3 3d 06 92 00 be d8 66 32 be
       26.513096 0.079641625 -0.12555704 -0.17422044
0000a0 96 c9 ce 3d 89 70 d3 41 70 08 e0 3c 3d 9e ea bd
       0.10097043 26.429949 0.027347773 -0.11455963
0000b0 54 c5 d3 41 9f 6f 2f 3e 15 d5 48 be f0 a3 a1 bd
       26.471352 0.17132424 -0.19612534 -0.07892597
0000c0 58 1e 8c 3c 1d e1 48 3e c8 44 b9 40 ee a4 d5 41
       0.017104313 0.19617124 5.789646 26.705532
0000d0 9a f0 39 be 6b 2c 35 3e 1e 62 51 3f 5b 24 d4 41
       -0.18158188 0.17692725 0.8179034 26.517752
0000e0 ae bc d4 41 00 30 a1 3b 12 23 04 41 76 db d4 41
       26.592129 0.004919052 8.258562 26.607159
0000f0 3e dc d4 41 28 27 5e bd 00 cf 24 be a6 73 d5 41
       26.60754 -0.05423656 -0.16094589 26.681469

weight f4 [32, 64]
000000 f8 21 e0 3c b3 cc 1e 3d f7 f8 b9 bd fe c3 ab bd
       0.027359948 0.038769435 -0.090806894 -0.08386992
000010 ec 1f 05 3d bc cb 7f 3d 12 8d 24 be 57 a8 13 3d
       0.032501146 0.062450156 -0.16069439 0.036049213
000020 21 a3 f4 bc 96 12 8a bd b3 18 6f 3c ad d4 32 bd
       -0.029862942 -0.06741826 0.014593291 -0.043659855
000030 8a 1e d2 3a 20 fb cd 3b 40 3c f2 bd e6 83 8c bd
       0.001603083 0.00628604 -0.11827898 -0.06861095
000040 b0 fb b6 3d 80 e0 61 3b 76 c1 ac 3d 16 89 e8 bc
       0.08934724 0.0034466088 0.08435337 -0.02838568
000050 b4 cd 62 bd 41 8a a5 3b cc 46 c4 bd fc 48 b4 bd
       -0.055371955 0.0050518815 -0.09583816 -0.08802983
000060 f6 84 a5 3d d2 0a 78 ba b8 21 5f bd e4 7f e5 bd
       0.08082001 -0.00094620616 -0.054475516 -0.11206034
000070 04 05 13 3d 34 d4 e0 bd f2 51 aa bd ba a4 ee bd
       0.035893455 -0.109779745 -0.08316411 -0.11652513
000080 0c ae ea bd a6 4c e0 bd 69 95 28 3d 30 20 b3 bc
       -0.11458978 -0.109521195 0.041158114 -0.021865934
000090 7c 31 c8 bc e0 26 ca 3b da 1b f3 bd ca fe d7 3d
       -0.024437658 0.006169185 -0.11870547 0.10546644
0000a0 48 a0 8d bd 72 67 1d be 10 1f ea bc 80 ea 3d 3b
       -0.06915337 -0.15371493 -0.028579265 0.0028978884
0000b0 85 fd be bd cc 1f 24 3d b0 d5 56 bd c6 4f 9f bd
       -0.09325699 0.040069386 -0.052449882 -0.077788875
0000c0 96 57 ba bd 90 9a 91 3c ee 3c 6e 3b c8 13 af bd
       -0.09098737 0.017773896 0.0036352235 -0.08548695
0000d0 1e 5d af 3d 1c 7a 85 3d 3b fc bb bd fe 7e 16 be
       0.085626826 0.06517431 -0.091789685 -0.14696881
0000e0 ad be 88 3b 14 7c 85 bd 14 b0 2a be d5 d7 f8 bd
       0.004173121 -0.06517807 -0.16668731 -0.12150542
0000f0 b2 e7 4c bc e8 98 dd 3c 6c 7d 52 bd 83 a6 3e 3d
       -0.012506412 0.02705045 -0.051389143 0.046545517
000100 78 08 08 bd 81 fd 9d 40 a3 76 fe 3e b8 41 9c 3c
       -0.0332112 4.9371953 0.49699888 0.019074306
000110 04 4a d6 bb 55 86 1a 40 40 e9 89 3f 31 d4 b5 3f
       -0.006539585 2.414449 1.0774307 1.4205381
000120 3f ea 0e 41 f3 66 82 3f ab f5 81 3f ae 67 0c 41
       8.932189 1.0187668 1.0153097 8.775312
000130 bb 68 0b 41 14 98 98 bd f8 5f b1 bc d0 c1 e9 3d
       8.713069 -0.074508816 -0.021652207 0.1141392
000140 68 b5 fc 3c 90 3b 17 bc 04 2f fd 3d 63 f3 87 3f
       0.03084822 -0.009230509 0.12362483 1.0621151
000150 90 9c ba 3d fa b5 95 3f b8 88 aa 3c 40 ee fe bd
       0.09111893 1.169616 0.020817146 -0.12447786
000160 12 64 ea 3d e7 5d 7b 3f c0 a5 23 bc 0a 12 b3 bd
       0.11444868 0.9819016 -0.009988248 -0.08743675
000170 04 26 e9 3d b8 77 86 bd e4 19 aa bd 80 52 0f bc
       0.11384204 -0.06565803 -0.083057195 -0.008747697
000180 72 75 e6 bd c4 06 c3 3d 2a 3c 6a 3f 32 3a bf bd
       -0.1125287 0.09522775 0.91498053 -0.09337272
000190 21 58 93 3f 26 2a ba bd 18 38 8b 3c 80 11 4f 3d
       1.151127 -0.090900704 0.016994521 0.0505538
0001a0 00 d6 bf bb 30 09 87 3f 7a fd b9 3d 4e de e5 3d
       -0.005854368 1.0549679 0.0908155 0.11224042
0001b0 fa 4a 98 3f bc f4 71 3d 32 8f 95 3d ec 3a 11 bd
       1.1897881 0.059071288 0.07302703 -0.035456583
0001c0 08 51 fc 3c e8 62 8f bc 63 42 27 40 f1 12 65 3f
       0.030800357 -0.017503217 2.613427 0.8948203
0001d0 1c 3e 0e 3d a8 36 b6 bc 6f 99 85 40 2b 3d b2 3f
       0.0347272 -0.022242859 4.1749797 1.3924917
0001e0 f5 f9 91 3f 98 ff 76 3d 8d eb 11 40 b8 7e 94 3f
       1.1404406 0.060302347 2.2800019 1.1601171
0001f0 15 8c 87 3f 8a 48 f3 3d 30 e0 dc bc e4 22 7f 3f
       1.0589625 0.1187907 -0.02696237 0.99662614
000200 20 fb a1 3b a8 a8 c4 be d1 e5 a6 be d2 98 96 3d
       0.0049432665 -0.38409925 -0.3259721 0.07353367
000210 50 8d 76 bd 1d 69 96 be 4f 42 29 bf 77 74 23 bf
       -0.06019336 -0.2937707 -0.66116804 -0.63849586
000220 f5 2c 6f be e0 e2 ac be 8c 97 91 be 6e 0b a4 be
       -0.23356993 -0.33766842 -0.28435934 -0.3203997
000230 c0 cf a2 be 40 a4 e0 bb 10 a0 3f bc 76 d4 d1 3d
       -0.31799126 -0.0068555176 -0.011695877 0.10245602
000240 0c 4c e2 3d 34 82 2b bd 4c 9f ce bd 14 93 b9 be
       0.11049661 -0.04187222 -0.10088977 -0.36245024
000250 aa 57 c2 3d 71 5d 2b bf 8a f1 db 3d 20 79 de 3b
       0.09489377 -0.66939455 0.10739429 0.0067893416
000260 a0 ec e3 3c d4 fa b9 be 82 5b a7 3d 30 d9 f7 3d
       0.027822793 -0.3632418 0.081717506 0.12101972
000270 20 8d 03 bc ea e6 ec 3d 80 af ff 3a 70 ab 53 3c
       -0.008029252 0.11567481 0.0019507259 0.012919292
000280 9c 1b bf bd 3e dc d7 bd 71 c8 6b be 58 3b bf bc
       -0.09331438 -0.10540055 -0.23025681 -0.023343727
000290 fb e2 04 bf ec c6 db bd ba 1a a4 3d 38 b9 3d 3d
       -0.51908845 -0.10731301 0.0801291 0.046319216
0002a0 a0 ee 9b bc a9 fa 1f bf 62 b2 c0 3d 68 be d7 bc
       -0.019034684 -0.6249185 0.09409024 -0.02633591
0002b0 f8 de 04 bf 7e 2b ab 3d 30 6e 7a 3c 30 2a c5 3c
       -0.51902723 0.08357905 0.01528506 0.024067968
0002c0 3c e4 f0 bd b8 ba e7 bc 8b 64 81 be 46 ea 9e be
       -0.11762282 -0.028287277 -0.2527202 -0.3103811
0002d0 f6 7e d5 bd f0 2a 8f 3d a2 b8 46 be 90 b5 f2 be
       -0.104246065 0.069906116 -0.1940637 -0.47404146
0002e0 dc 1e 17 be 20 d3 bb 3c 16 47 d9 be 76 77 21 bf
       -0.14757866 0.02292782 -0.42437047 -0.6307291
0002f0 11 bd ac be c0 81 86 3d f6 0b bb 3d 7a f0 72 be
       -0.33737996 0.065677166 0.09133141 -0.23724547
000300 70 89 83 bc bf be 81 bd 4b f3 d1 bd fc 73 ea bd
       -0.016056746 -0.0633521 -0.102514826 -0.114479035
000310 f8 10 66 3d 09 00 03 be d3 c4 4f 3d 3d d2 f3 bd
       0.056168526 -0.12792982 0.050724816 -0.11905334
000320 78 66 37 be 94 85 1e be 1a 0d 46 bd b8 d4 88 bd
       -0.17910182 -0.15480644 -0.04835234 -0.06681198
000330 5e ee 3f 3c d8 1b 13 bd 10 40 d1 3d 0a aa bb 3d
       0.011714546 -0.035915226 0.10217297 0.09163292
000340 40 96 36 bc 7c f7 84 3d c0 23 1e bd ef d4 a0 3c
       -0.011144221 0.064925164 -0.038608313 0.019632785
000350 02 5d ea bd cd cf 0e be b2 a5 d2 bd a0 07 db 3b
       -0.11443521 -0.13946457 -0.1028551 0.0066842586
000360 88 54 c0 bd 76 c4 02 be 40 60 d4 3d 80 ce 79 bb
       -0.09391123 -0.12770256 0.10369921 -0.0038117468
000370 b2 f6 e4 bd b8 55 c3 bd 72 40 9e bd c4 4c 95 bd
       -0.11179866 -0.09537834 -0.07727136 -0.072900325
000380 40 04 60 3b 74 2c 7d 3d 6b 04 81 bd 7e 57 92 3d
       0.003418222 0.061809972 -0.06299671 0.07145594
000390 1c d1 39 3c 2e 81 a2 bd 28 53 54 3d 08 7c ac 3d
       0.0113413595 -0.07934795 0.051837116 0.084220946
0003a0 28 22 bc bc 30 1e 36 be 60 87 fa 3c a8 39 d8 3d
       -0.022965506 -0.17784953 0.03058213 0.10557872
0003b0 5a ed 17 bd 4c 2d e0 3d 6e 33 e8 3d 60 98 6b bd
       -0.03709159 0.1094614 0.113379344 -0.057518363
0003c0 08 5b e5 3d de a3 fa bd a7 79 9a bd d2 2f ff bc
       0.111990035 -0.122382864 -0.075427346 -0.031150732
0003d0 10 12 b6 3c 50 a1 dd bd 26 51 19 bd 2b 29 a9 bd
       0.02222541 -0.108217835 -0.037430905 -0.08259805
0003e0 ba 56 01 3d 4c 71 4a bd f5 9d 0d be d9 58 7b 3d
       0.03157685 -0.049424455 -0.13829787 0.06136403
0003f0 48 2f bd bd de c8 96 bd ce b8 fc 3d a6 0b 57 bd
       -0.09237534 -0.07362531 0.12339936 -0.052501343

bias f4 [32]
000000 9f 28 c9 bd 96 c8 c7 41 2d 92 23 bf e0 ef 89 3c
       -0.09822201 24.972942 -0.6389492 0.016838014
000010 f1 06 d3 41 71 53 a0 be 77 25 47 bd 0d 86 b5 3b
       26.37839 -0.3131366 -0.048619714 0.0055396617
000020 f5 25 b3 be b1 6b 0e bd 1e cc 9f ba 97 2a b2 be
       -0.34989896 -0.03477067 -0.0012191569 -0.34798118
000030 14 b2 89 3d e5 d4 cd 41 bf 93 cb 41 a0 41 32 bd
       0.06723419 25.728952 25.447142 -0.043519616
000040 94 5f 19 be 25 e7 56 bd 6c 96 89 3e c7 64 cc 41
       -0.14977866 -0.05246653 0.26872575 25.549208
000050 da 41 c7 41 99 a0 b7 be d5 01 c9 41 d2 6f 46 be
       24.907154 -0.35864714 25.125895 -0.19378594
000060 a3 e4 c8 41 e8 39 c8 be 4b 19 b7 be 40 62 c9 bd
       25.111639 -0.3910668 -0.35761485 -0.09833193
000070 d0 53 81 3d fd d4 cd 41 b8 1e 87 bc 69 41 f9 be
       0.06314814 25.728998 -0.01649414 -0.48682716

weight f4 [1, 32]
000000 15 3e 82 bc 5f 76 19 40 e5 50 7d bd 1e 89 0d bc
       -0.015898744 2.3978498 -0.061844725 -0.008638648
000010 77 e9 15 40 38 d8 1e be 84 78 75 3c 80 39 e3 bd
       2.3423746 -0.15512168 0.014982346 -0.11094952
000020 da 6d 76 3e 0e fd ca bd 15 8c 3f bd 0a 3a 1c be
       0.24065343 -0.099115476 -0.046764452 -0.15256515
000030 38 6c 03 be c2 83 16 40 f0 1a 17 40 52 cf 27 3d
       -0.12834251 2.3517919 2.3610191 0.0409692
000040 af 58 e8 3a 2a 1f d0 3b da f3 20 be 81 88 15 40
       0.0017726625 0.0063513713 -0.15718022 2.3364565
000050 42 f1 1a 40 4a 18 64 be 71 51 1b 40 61 b5 89 bd
       2.4209752 -0.2227489 2.4268458 -0.067240484
000060 11 63 1a 40 84 a4 73 be 9b b9 53 3e 59 9b 26 3e
       2.4122965 -0.23793226 0.20676272 0.16270198
000070 eb 91 ca bd b6 8e 14 40 10 41 1a be a6 08 88 be
       -0.09891113 2.3212104 -0.15063882 -0.26569098
