api/home_price_model_bhi.pth (torch, 130961 bytes, 7 tensors)

weight f4 [313, 10]
000000 56 89 7a c0 fb 73 7e c0 a4 38 a9 40 3a d8 99 c0
       -3.9146323 -3.975829 5.288164 -4.807645
000010 8d b3 5b 40 d8 9b 8d c0 b6 99 1b 40 df 58 a7 40
       3.432834 -4.425274 2.4312568 5.2295985
000020 a1 44 5a 40 0e 2c a1 40 8a 90 4b bf 4f a6 49 be
       3.4104388 5.036628 -0.79517424 -0.19692348
000030 a3 d9 cb bf c5 f8 73 3e 11 b0 4c 3f d4 86 94 3e
       -1.5925792 0.23825367 0.79956156 0.29009116
000040 93 7d 46 3f b9 74 f4 3e 68 ab a0 3e 34 48 02 3f
       0.7753536 0.47745302 0.31380773 0.50891423
000050 5e 3c 70 c0 c1 2e 19 c0 fa 56 19 40 b5 68 87 c0
       -3.7536845 -2.3934786 2.3959336 -4.2315316
000060 e8 a2 6d 3f 6a 06 89 c0 2e 52 42 40 e6 37 f2 3f
       0.928267 -4.282033 3.0362659 1.8923309
000070 c5 74 5e 3f 6d 94 57 40 56 bd fa bf 5a 6a 54 c0
       0.86896926 3.3684342 -1.9589031 -3.3189912
000080 e1 19 48 40 f2 9b 20 c0 55 25 28 40 c4 41 25 c0
       3.1265795 -2.5095181 2.6272786 -2.582139
000090 8c ac 0a 3f eb 3d c9 3f 56 26 40 40 20 ea 03 40
       0.54169536 1.5722021 3.0023398 2.0611649
0000a0 20 9f 79 c0 59 27 7e c0 5c 0b 87 40 09 d7 ee c0
       -3.9003372 -3.9711516 4.2201366 -7.4637494
0000b0 cd 2e 7c 40 b5 45 5d c0 21 74 71 40 70 4d 62 40
       3.9403565 -3.4573796 3.772713 3.5359764
0000c0 e5 07 b2 40 81 a9 4a 40 8a c4 19 bf dc 5b 2c bf
       5.5634637 3.1665957 -0.6006552 -0.67327666
0000d0 0f eb 12 40 e4 00 ae bf e0 65 f5 3d 8a b8 9c c0
       2.2955968 -1.3594022 0.11982322 -4.8975267
0000e0 ea c1 54 be cb 00 42 40 ae b9 80 bf ed f7 7f 40
       -0.20777097 3.0312984 -1.0056665 3.9995072
0000f0 2b bb a1 bf 1a 2d 2b c0 14 1c 88 40 dd ed 5f c0
       -1.2635244 -2.6746278 4.2534275 -3.498893
000100 dc 60 86 40 1b 85 54 c0 7f f1 5d 40 b6 87 91 40
       4.1993237 -3.320624 3.4678648 4.5478163
000110 e8 32 66 40 fc 6f 21 40 b3 89 11 c0 9c 97 a4 bf
       3.596857 2.52246 -2.2740295 -1.2858768
000120 ad 75 89 40 66 0d 59 c0 14 d4 c2 3f cb 74 d4 bf
       4.2956147 -3.3914428 1.5220971 -1.6598142
000130 a7 6a fe 3f 9f 7e 5b 40 ba 55 0d 40 5b 7c 3e 40
       1.9876298 3.4296033 2.2083573 2.97634
000140 2a 18 f2 be 15 79 0b 3f d4 63 77 bf a0 f7 00 3f
       -0.4728406 0.5448163 -0.966367 0.50377846
000150 d0 d6 8e be 34 d5 66 3f 5d 8e fd bf 75 c9 30 3f
       -0.27898264 0.9016907 -1.9809071 0.690574
000160 e3 84 0d 3f e7 ad 68 3f 5b 01 22 c0 2f 6b 2f c0
       0.55280894 0.90890354 -2.5313327 -2.740917
000170 3b 86 93 40 38 0d c7 bf 15 e6 ae 3e 40 ae f9 be
       4.6101356 -1.5550909 0.34159914 -0.48765755
000180 21 2f 89 3f 64 80 3f 40 73 78 17 3f 11 84 98 40
       1.0717508 2.9922113 0.59168166 4.7661214
000190 f2 34 52 c0 98 91 67 c0 1b 45 84 40 dc 89 51 c0
       -3.2844815 -3.6182613 4.1334357 -3.2740393
0001a0 a3 6e 83 40 82 cf 3a c0 91 65 21 40 20 09 38 40
       4.1072555 -2.9189153 2.5218241 2.875557
0001b0 6b 6f 3a 40 1c cb 88 40 53 57 e9 bf 46 06 12 c0
       2.9130504 4.2747936 -1.8229774 -2.281633
0001c0 79 46 44 3f a8 48 82 bf ca 0a 2e 40 64 85 d1 bf
       0.7667003 -1.0178423 2.7194085 -1.6368833
0001d0 28 90 c8 3e 1b d8 f9 be 86 da 07 40 f8 62 20 40
       0.39172482 -0.48797688 2.1227126 2.5060406
0001e0 ed 92 5a c0 7c 50 51 c0 52 a8 8b 40 c4 35 24 c0
       -3.4152176 -3.2705374 4.364297 -2.5657816
0001f0 78 5a ba 3f 00 73 da bf d6 92 3b 40 db e8 74 40
       1.4558859 -1.7066345 2.9308372 3.8267124
000200 11 e6 07 40 a4 c3 fc 3f ba 36 99 c0 7c 6e 39 c0
       2.1234171 1.9747205 -4.7879305 -2.8973684
000210 7c 9e 44 40 a3 a4 82 c0 4f ee 0e 40 fb 85 27 c0
       3.072173 -4.0825973 2.2332952 -2.6175525
000220 51 31 3e 40 02 43 51 40 2c bf 31 40 21 b8 a6 40
       2.97176 3.2697148 2.7772932 5.2099767
000230 8c 24 9a c0 9f ab 30 c0 3d ca e4 3f 7a 86 f8 3e
       -4.8169613 -2.760475 1.7874218 0.48540097
000240 21 64 51 40 88 b1 32 40 7f 0a 77 40 89 ea 85 40
       3.2717364 2.7920856 3.8600156 4.18488
000250 44 de b7 40 cb 8a 11 c0 79 d0 48 c1 c0 d4 71 c1
       5.745882 -2.2740963 -12.550897 -15.114441
000260 a1 5f 52 41 1f 3a 5e c1 33 8e 72 41 0a b9 4f c1
       13.148347 -13.88919 15.159717 -12.982676
000270 ba 4a 48 41 f9 4f 56 41 8e e3 6d 41 76 41 4b 41
       12.518244 13.394525 14.868055 12.703482
000280 df c4 e1 bf 7b 48 40 bf 20 1f 85 3f e5 13 52 c0
       -1.7638205 -0.75110596 1.0400124 -3.2824643
000290 c8 9f 6c 3f d2 21 40 c0 9f f7 35 3f f5 b1 ec 3f
       0.92431307 -3.0020642 0.71080965 1.8491808
0002a0 a9 3b b3 3f c0 9b e4 3f 91 63 17 bf 0c e1 d4 bf
       1.4002582 1.7860031 -0.591363 -1.6631179
0002b0 73 d0 36 40 b5 31 7c c0 39 cb 53 bf 08 28 a5 c0
       2.8564727 -3.9405339 -0.8273197 -5.1611366
0002c0 4c fa d7 3f ce e3 19 40 50 d4 a0 3e 1f b1 ba 40
       1.687326 2.404529 0.31411982 5.834121
0002d0 6c b0 2d c0 64 0c a5 c0 96 31 4d 40 30 7a a1 c0
       -2.713893 -5.1577625 3.2061515 -5.0461655
0002e0 ad 44 98 40 98 a9 8a c0 61 79 90 40 6f 78 42 40
       4.7583833 -4.3332024 4.5148168 3.0386007
0002f0 26 a8 44 40 b2 4d 94 40 79 b6 02 3f 9f 6b e1 bf
       3.072763 4.6344843 0.5105968 -1.7610968
000300 32 f0 2b bf a1 10 1c bd 19 68 95 3f 96 24 7a bf
       -0.67163384 -0.038101796 1.1672393 -0.97712076
000310 fc 74 41 bf d3 96 41 3e 45 40 ab 3d 48 78 9e be
       -0.7556913 0.18905191 0.08361868 -0.30951142
000320 2a c7 1a c0 5b 3a dc bf 37 c5 4a 40 7a b7 7d c0
       -2.418406 -1.7205309 3.168287 -3.9643235
000330 b8 06 2f 40 98 3e fd bf 2d 3e 34 40 1d 44 0f 40
       2.734785 -1.9784727 2.816295 2.2385323
000340 d2 1c 15 3f 9b ad 90 40 9e 44 36 c0 58 f4 de bf
       0.582471 4.521192 -2.847938 -1.7418318
000350 86 9d 02 40 f4 1a 55 c0 68 f6 e1 3f 70 94 2b c0
       2.0408645 -3.32977 1.7653322 -2.680935
000360 c4 35 f4 3f ec 8d c3 3f 35 bb 10 40 23 8b 3d 40
       1.9078908 1.5277686 2.2614262 2.9616172
000370 6c 13 70 c0 99 ff aa c0 82 b3 97 40 9e 3f 73 c0
       -3.7511854 -5.343701 4.7406626 -3.800758
000380 3a 7d da 40 5c b9 a7 c0 8f 93 b0 40 46 68 8d 40
       6.8277864 -5.241377 5.5180125 4.4189787
000390 85 cf 91 40 b7 d3 8e 40 32 1a 13 3f 44 0b 57 3e
       4.556582 4.463344 0.57461846 0.21000391
0003a0 04 70 0a 40 df 84 5d c0 74 54 a1 bf cf ad 6d c0
       2.163087 -3.4612348 -1.2603898 -3.7137334
0003b0 1e 07 2a be 27 5d fa 3d af 90 16 bf 7d fc 2d 40
       -0.16604277 0.12224799 -0.5881452 2.7185357
0003c0 9a 3f fb be 1a ce 40 c0 c5 b5 90 40 ff 3b af c0
       -0.49071962 -3.0125794 4.5221887 -5.4760737
0003d0 00 fe 21 bf 9d e5 b8 c0 17 89 74 be 05 4e 32 3f
       -0.632782 -5.778029 -0.2388042 0.696503
0003e0 07 5d a1 bf 29 df cf 40 44 3f 1c 3f 3f fb fa 3d
       -1.2606515 6.495991 0.61034036 0.12254953
0003f0 f3 eb dd bf f6 58 9e bf 90 fa 6d 3f e9 6d e9 bf
       -1.7337631 -1.2370899 0.92960453 -1.8236667

weight f4 [1563, 10]
000000 c8 be 10 40 e8 e3 94 be c7 11 7e 3f 45 b0 b8 3e
       2.2616444 -0.2908013 0.99245876 0.36071983
000010 01 5b 84 bf a1 b9 89 be f4 d9 3e 40 a7 72 b2 3e
       -1.0340272 -0.26899436 2.9820528 0.34853098
000020 f0 9c 62 3f 04 6a cc bf 24 41 4a c0 36 6d a4 40
       0.8852072 -1.5969853 -3.1602259 5.1383314
000030 82 21 16 c0 aa 18 8f c0 38 28 86 40 51 44 f4 3f
       -2.3457952 -4.4717607 4.1924095 1.9083349
000040 04 2d 29 c0 15 b3 55 40 59 4c 09 c0 3b c9 19 40
       -2.6433725 3.3390553 -2.145285 2.4029071
000050 d5 0f 25 c0 e4 f1 80 40 1e ae 8a c0 e0 f6 09 c0
       -2.5790913 4.0295277 -4.3337545 -2.155693
000060 90 69 0f 40 fd 2e 36 40 26 4b 81 c0 08 33 3e 40
       2.240818 2.846618 -4.0404234 2.9718647
000070 85 db 63 c0 03 7e 0b 40 40 ba 8d c0 c5 d2 30 40
       -3.5602734 2.1795661 -4.4289856 2.7628644
000080 b7 b3 85 c0 30 fe a1 c0 3a 6f 93 40 dc d4 c5 40
       -4.178188 -5.0622787 4.6073275 6.182234
000090 a9 19 85 c0 33 20 ca 40 19 e6 6e c0 74 cb 6a 40
       -4.1593823 6.3164306 -3.732794 3.6686678
0000a0 94 25 ee bf 19 0f 48 3e 37 0a 2d c0 49 67 bc bc
       -1.8605218 0.1953701 -2.7037485 -0.022998469
0000b0 ad 4f 44 40 d8 b5 6b 3f 44 2a 41 c0 f5 01 f0 3f
       3.067363 0.92074347 -3.0182047 1.8750597
0000c0 6b 88 6c c0 ad eb e2 3e 2e 46 20 bd 88 62 15 40
       -3.6958263 0.4432043 -0.03912943 2.3341389
0000d0 f0 20 09 3c 55 d2 82 3d ac a0 da 3f 59 90 66 3f
       0.008369669 0.06387774 1.7080283 0.9006401
0000e0 cb 7b 51 3e 26 f2 be 3d 19 03 f6 3e 47 5c 8a 3f
       0.2045738 0.0932353 0.48049238 1.0809411
0000f0 0c 76 1e bf ca d7 80 3f c9 2b 68 be a0 08 bd bf
       -0.61898875 1.0065854 -0.22672953 -1.4768257
000100 09 8a 16 3f f7 42 e8 bf e0 1e 1a 3f 00 da a2 3f
       0.58804375 -1.8145436 0.6020336 1.2722778
000110 fe 0b be 3f 56 e5 37 40 45 0d e5 bd 38 ca f5 be
       1.484741 2.8733726 -0.111841716 -0.48005843
000120 53 55 82 be 02 7b 5e be a0 2c 4e 3f 05 d3 f6 3f
       -0.25455722 -0.21726611 0.8053684 1.9283148
000130 ca 54 00 be c2 c9 71 be ba ea e9 bf 75 6d 3b 3f
       -0.12532344 -0.23612121 -1.8274758 0.73213893
000140 05 04 15 c0 d2 03 89 40 28 c9 1d c0 54 8c 89 c0
       -2.3283703 4.2817163 -2.4654026 -4.29838
000150 d0 1f 12 40 62 01 df 3f f6 73 51 c0 89 52 c3 40
       2.2831917 1.7422297 -3.2727027 6.103825
000160 02 07 fb bf 04 46 37 40 63 bc 20 bf 28 74 13 c0
       -1.9611514 2.8636484 -0.62787455 -2.3039646
000170 61 55 d5 bf 2f 41 46 3f df 53 dd 3f bc 35 25 3f
       -1.666668 0.7744321 1.729122 0.6453512
000180 05 8a 3a c0 fa 42 96 3f 9a bc bf bf 46 02 98 3f
       -2.914674 1.173919 -1.4979432 1.1875694
000190 a9 24 f8 bf 3c 2a 05 40 d5 a3 1d c0 76 49 3d c0
       -1.9386188 2.0807028 -2.4631245 -2.9576087
0001a0 52 fb f6 3f 0a a8 87 3f 56 42 d8 bf 06 d5 7b 3f
       1.9295447 1.0598156 -1.6895244 0.9837192
0001b0 5d 62 8b bb 07 78 1b 40 3d bb 94 40 d2 f8 2c 3e
       -0.004253669 2.429201 4.647856 0.16891792
0001c0 7c 64 a4 3e be 0a 08 40 2d 6f 2b c0 26 76 ff 3e
       0.32107913 2.1256557 -2.6786606 0.49894828
0001d0 4e e9 8a 40 06 d0 bd be 14 b2 a3 3f fc 20 8c bf
       4.3409796 -0.37072772 1.278872 -1.0947566
0001e0 31 90 4b 3f 37 e3 66 3e 27 83 c9 be e1 91 ad 3e
       0.79516894 0.22547613 -0.39357874 0.3390036
0001f0 5b 35 4d bf e6 c9 09 3f 3c c0 3b 3f 15 40 08 bf
       -0.8015954 0.538237 0.733402 -0.5322278
000200 be b6 1a 3f b9 0e 89 be 59 af 97 40 41 08 a4 3d
       0.6043509 -0.26769045 4.7401547 0.08009387
000210 44 9d e7 3f ce 27 be be fe 6d 31 c0 0f 86 09 3f
       1.8094869 -0.37139744 -2.7723384 0.5372018
000220 a6 f1 a3 3f 2c 4a 93 bf 85 74 db bc 5e 9f 06 bf
       1.280812 -1.150701 -0.02678896 -0.52586925
000230 26 5f c0 bf 05 d3 b1 be ca c1 0c bc 22 d7 bd bf
       -1.5029037 -0.34731308 -0.008591125 -1.4831278
000240 4b dc 3f 3f f2 6b 58 be fa d6 b7 bf f1 e6 94 bf
       0.74945515 -0.21134928 -1.4362481 -1.1632978
000250 e9 95 b1 3e 3e f2 37 3d bb e8 88 40 bf 23 03 3c
       0.34684685 0.044908755 4.2784095 0.008004128
000260 67 4a a7 3f 3e 23 e4 3f 0a 49 30 c0 a7 c1 4f be
       1.3069581 1.7823255 -2.754458 -0.20288716
000270 15 6a c8 3f 4e 2b 92 bd ea e0 a7 3f 75 6c 6a c0
       1.5657374 -0.07137166 1.3115513 -3.6628697
000280 6c f8 36 3f a4 f2 ea bf db c9 37 3f 92 ee 83 3f
       0.7147281 -1.8355298 0.7179238 1.0307181
000290 7e c2 2a be b1 d9 99 bf 35 d2 87 3f 28 b4 de be
       -0.16675755 -1.2019559 1.0611025 -0.43496823
0002a0 9c f5 ed 3d fb c5 2e bf d4 5e 39 40 d9 aa 3a bf
       0.11619112 -0.68270844 2.8964128 -0.7291694
0002b0 b1 95 ed 3f 98 fa 9f 3f f1 36 27 c0 25 4c 2a c0
       1.8561307 1.249835 -2.6127284 -2.6608975
0002c0 8e d6 9b bd 03 a6 e6 bf 0c 49 6e bf ba fc e3 bf
       -0.076092824 -1.8019413 -0.9308021 -1.7811501
0002d0 dc fb a8 3f 7e 5b 0c bf e8 b0 89 bf 92 a9 4a be
       1.3201861 -0.54827106 -1.0757113 -0.19791248
0002e0 ba 90 d1 be 07 97 c3 3f 4c bb c5 3e 53 76 84 bf
       -0.4093073 1.5280465 0.3861946 -1.034861
0002f0 b1 cf 2d 3f af 5f 70 bf ec ab b5 40 91 6b 34 bf
       0.67895037 -0.93896 5.6772366 -0.70476633
000300 dd b1 6c 3e b5 db 00 bf f6 8a c0 bf 7f a7 5e bf
       0.23114724 -0.50335246 -1.5042408 -0.8697433
000310 9b 0f 79 3f 3d 04 2c 3e b8 b8 46 3f c3 43 d3 bf
       0.9728944 0.16798492 0.7762561 -1.6505054
000320 6f 1e ef 3f 32 47 c9 3f 3b 57 28 bf 15 86 80 be
       1.8681163 1.5724852 -0.65758103 -0.25102296
000330 09 1f 95 3f e2 f8 3b 3e cd 20 0e 3f 8a bb e3 3d
       1.1650096 0.1835666 0.555188 0.111197546
000340 cc 20 af be 85 ad a3 3e d0 45 2a bf c7 bf dc 3f
       -0.3420471 0.31968322 -0.66512775 1.7246026
000350 12 22 75 3f be bc 80 be 8e 3b 82 3f fb ac 1f be
       0.9575511 -0.25144 1.0174425 -0.1559333
000360 6e 4b 9f 3e 42 01 ef bf 12 9f 32 3f f5 8b 1d bf
       0.31112236 -1.8672259 0.6977397 -0.6154168
000370 d9 58 f2 40 ae 5c 01 c0 6f cf 93 40 a5 e7 66 40
       7.5733457 -2.0212817 4.6190715 3.6078885
000380 38 55 d8 c0 e0 9c 79 c0 7e 48 b0 40 d1 9a a5 bf
       -6.7604027 -3.9002 5.508849 -1.2937871
000390 85 fb 50 40 ff a6 b4 c0 43 49 7f 40 58 1c 8e bf
       3.2653515 -5.6453853 3.9888465 -1.11024
0003a0 6a 37 d7 3f 2f e9 2d 40 1a a6 f2 bf f1 7b bd bf
       1.6813786 2.7173574 -1.895694 -1.4803449
0003b0 3f af e8 3f 49 97 81 bf 44 b6 04 3d e6 29 75 bd
       1.8178481 -1.0124294 0.032400385 -0.05985441
0003c0 ab 2d 6b be ec 60 a1 3f 94 07 99 be 89 a6 f6 3d
       -0.2296664 1.2607703 -0.29888594 0.12043483
0003d0 bb 9a 3c bf c7 8b 34 3f 8a 17 d2 be 72 77 d2 3f
       -0.736736 0.70525783 -0.41033584 1.6442702
0003e0 02 da 37 3f 56 94 22 3f 58 5e b9 bf 96 03 33 bf
       0.7181703 0.6350759 -1.4481916 -0.69927347
0003f0 68 6e a0 3e ea 05 1f bf 1a ec 24 3e aa 9c 6a 3f
       0.31334233 -0.621184 0.1610569 0.916453

weight f4 [64, 25]
000000 3a 0c 60 c1 5b fd 3a c1 a4 35 54 41 ef 58 71 c1
       -14.002985 -11.686854 13.263096 -15.084212
000010 83 6d 36 41 91 6d 5d c1 05 04 4e 41 ce 48 4f 41
       11.401736 -13.83925 12.875981 12.955275
000020 31 84 21 41 2b 4c 69 41 2e 53 51 41 48 aa bd 40
       10.094773 14.581096 13.082808 5.9270363
000030 1a 63 6d bf d2 79 b0 c0 e5 dc 2c c0 8d 3b f0 40
       -0.9272934 -5.5148706 -2.7009823 7.5072694
000040 98 e4 c7 3f 5f 45 2a 41 fd 4f 85 c0 27 23 96 3f
       1.5616636 10.641936 -4.166014 1.1729478
000050 ac fb 06 3f a5 e6 fd c0 4c 81 84 41 65 34 05 42
       0.5272777 -7.934405 16.563133 33.301167
000060 d5 5b 06 c2 f9 2d 44 3e a0 93 1d bc fe 77 15 be
       -33.58968 0.19158162 -0.009617716 -0.14596555
000070 50 20 e7 bd 00 3a a9 3b 80 52 76 bd 00 92 4d 3b
       -0.1128546 0.005164385 -0.060137272 0.003136754
000080 18 fc 2a bd 06 22 0b be e9 6c 19 3e 60 cb a9 bd
       -0.04174432 -0.13587198 0.14982952 -0.08290744
000090 b8 82 14 be 04 f0 51 3d 20 bd 38 bc 07 f0 38 3e
       -0.1450299 0.051254287 -0.01127556 0.18060313
0000a0 12 6a 07 be 12 fd 38 be 09 03 40 3e d6 c5 00 be
       -0.13224056 -0.18065289 0.18751158 -0.12575468
0000b0 22 ff 80 3d a8 77 bc bc bc b8 74 3d 40 4e c3 3c
       0.06298663 -0.023006275 0.05974649 0.023841023
0000c0 09 c1 1f 3e fa 7f 81 3d 14 23 61 c1 c5 ec 3c c1
       0.15600981 0.06323238 -14.071064 -11.807805
0000d0 b4 fd 52 41 6a ce 73 c1 45 cb 32 41 2c b5 5c c1
       13.186939 -15.237894 11.174626 -13.794231
0000e0 29 64 50 41 72 5a 54 41 01 ea 20 41 91 f6 69 41
       13.024453 13.272081 10.05713 14.622697
0000f0 4f 2e 4b 41 be 1a c1 40 20 e2 9c bf 6f 1e b2 c0
       12.698806 6.0345144 -1.2256508 -5.566215
000100 b5 74 21 c0 77 b3 f2 40 a8 6e b9 3f 43 5e 2e 41
       -2.5227482 7.5844073 1.4486895 10.898013
000110 f3 9b 8f c0 6f 0c 9c 3f 4b bb de 3e b1 20 00 c1
       -4.487787 1.2191294 0.43502268 -8.007981
000120 2d 45 84 41 87 16 04 42 a8 8c 05 c2 90 d7 61 c1
       16.533777 33.022 -33.38736 -14.115128
000130 75 48 3b c1 39 1e 50 41 5c 5c 6e c1 37 73 36 41
       -11.70519 13.007379 -14.897549 11.403129
000140 50 99 5b c1 9e 39 50 41 db de 53 41 52 74 1f 41
       -13.72493 13.014067 13.241908 9.9658985
000150 0a 3c 70 41 49 2e 4d 41 05 d4 c2 40 eb 64 86 bf
       15.014658 12.8238 6.0883813 -1.0499548
000160 69 3a b2 c0 6c ed 23 c0 d7 c9 f4 40 48 75 c7 3f
       -5.56963 -2.561366 7.6496387 1.5582666
000170 5a 9f 2e 41 77 ab 90 c0 9d ca 9b 3f 7a e7 e2 3e
       10.913904 -4.520931 1.2171208 0.44317228
000180 20 ea fc c0 d3 24 86 41 63 27 05 42 5e df 05 c2
       -7.9035797 16.76798 33.288464 -33.468132
000190 f2 28 60 c1 45 ef 3b c1 b6 3a 51 41 66 4c 71 c1
       -14.009996 -11.745915 13.076834 -15.081152
0001a0 1f fb 35 41 20 c9 5a c1 cc c2 52 41 ce a4 50 41
       11.373809 -13.674103 13.172558 13.0402355
0001b0 e6 ce 1e 41 af 94 6c 41 35 85 51 41 88 d7 bd 40
       9.925512 14.7863 13.095021 5.93256
0001c0 d7 b6 8a bf 77 b2 ad c0 0d b2 34 c0 ac 94 f0 40
       -1.0837048 -5.4280353 -2.8233674 7.5181484
0001d0 d6 0b e3 3f 07 3b 2c 41 61 71 90 c0 44 35 9d 3f
       1.7737987 10.764411 -4.51384 1.228188
0001e0 29 40 ee 3e 34 d6 f8 c0 45 d5 85 41 c6 be 03 42
       0.46533325 -7.776148 16.729136 32.936302
0001f0 52 6d 06 c2 75 98 60 c1 7b de 43 c1 ab 85 67 41
       -33.60676 -14.037221 -12.2418165 14.470134
000200 f3 35 84 c1 f5 0a 3f 41 aa 20 72 c1 fb 91 4b 41
       -16.526342 11.940175 -15.132975 12.72314
000210 fa 18 60 41 a9 05 29 41 60 fc 83 41 af 50 44 41
       14.006098 10.563882 16.49823 12.269698
000220 ce c2 0b 41 db 26 9d bf 9a 2a bc c0 3a 29 96 bf
       8.73506 -1.2277483 -5.8802004 -1.1731331
000230 55 51 28 41 e9 e4 72 bf 3e aa 50 41 5c 8d c2 c0
       10.519856 -0.9488054 13.041563 -6.079756
000240 d8 f2 88 40 55 ee 39 bd 4b 18 10 c1 bb 74 84 41
       4.279644 -0.045393307 -9.005931 16.556997
000250 22 61 0a 42 7f 7d 04 c2 dc 18 60 c1 42 a2 42 c1
       34.594856 -33.122555 -14.006069 -12.164614
000260 46 fa 63 41 2a 20 85 c1 0d 66 43 41 c4 61 74 c1
       14.248602 -16.640705 12.212415 -15.273869
000270 f5 f1 4a 41 47 6a 61 41 fe 8e 2a 41 38 fc 81 41
       12.684072 14.088447 10.65991 16.248154
000280 38 d3 42 41 b1 2c 0a 41 f8 51 8f bf 32 57 bc c0
       12.176567 8.635911 -1.119689 -5.885644
000290 72 ab ad bf f1 6c 24 41 35 f7 3b bf 10 28 51 41
       -1.3567946 10.276597 -0.73424083 13.072281
0002a0 71 b5 c4 c0 3a 21 80 40 d7 94 38 bd 69 3d 0d c1
       -6.1471486 4.004056 -0.04506382 -8.827493
0002b0 40 e3 85 41 5d 63 09 42 8b fd 04 c2 c6 d6 61 c1
       16.735962 34.347034 -33.2476 -14.114935
0002c0 65 75 4a c1 61 9c 75 41 8e 1b 91 c1 29 96 46 41
       -12.653661 15.350678 -18.138454 12.41166
0002d0 ac 0e 83 c1 68 77 4e 41 39 94 6f 41 49 3b 33 41
       -16.382164 12.904152 14.973687 11.201974
0002e0 61 8d 8e 41 6b 54 36 41 0e 88 1e 41 26 17 0b c0
       17.819033 11.39561 9.908216 -2.1732879
0002f0 6e 08 b8 c0 da be d5 be 16 8d 3d 41 55 2a 36 c0
       -5.751029 -0.4174717 11.846945 -2.8463337
000300 01 d3 63 41 11 bb e3 c0 a8 c0 c4 40 10 33 60 bd
       14.239015 -7.1165853 6.1485176 -0.054736197
000310 6d e4 14 c1 0e c3 85 41 00 8f 0d 42 f0 0d fe c1
       -9.305768 16.720242 35.38965 -31.756805
000320 0e 19 64 c1 31 34 4e c1 63 83 75 41 10 0f 8f c1
       -14.256117 -12.887742 15.344577 -17.882355
000330 b0 de 43 41 ef 44 81 c1 64 0b 53 41 32 a3 6c 41
       12.241867 -16.158659 13.190281 14.789843
000340 65 da 32 41 2b 9f 8c 41 c4 21 3e 41 dd 62 18 41
       11.178319 17.577719 11.883244 9.524137
000350 10 75 de bf a0 5d bc c0 e2 95 3d bf 51 ef 34 41
       -1.7379475 -5.886429 -0.7405683 11.308427
000360 d3 b2 ed bf 7b a7 5c 41 24 6d df c0 65 f2 ae 40
       -1.8570198 13.790889 -6.982073 5.467089
000370 e9 b1 5f bd e7 2a 14 c1 20 22 86 41 9a 52 0c 42
       -0.054613028 -9.260474 16.766663 35.080666
000380 76 fa 01 c2 1c 2c 72 3d c7 77 17 3e db 7a 41 be
       -32.49459 0.059124097 0.14791785 -0.18894522
000390 ba ef 09 be a2 c4 d1 3d cc 4c 7e 3d 58 0a 40 bd
       -0.13470355 0.10242583 0.062084958 -0.046884865
0003a0 0d 6a bc bd 42 0b 98 3d 47 99 47 3e ec 80 68 bd
       -0.09199915 0.07424022 0.19492064 -0.056763574
0003b0 74 a8 32 3d 7a 68 8b bd b3 c4 34 be be 14 00 be
       0.04361768 -0.06807037 -0.1765316 -0.12507913
0003c0 0e 11 1c be 9b 16 3a be 80 46 cc ba 9e 1c c1 3d
       -0.15240881 -0.18172686 -0.0015584975 0.094292864
0003d0 50 37 8e 3c d8 1b 5c bd 22 f2 41 be f6 f4 e4 3d
       0.01736036 -0.05373749 -0.18940023 0.11179535
0003e0 40 8e c3 3c 4c d0 16 bd e5 8b 62 c1 e8 d1 43 c1
       0.023871541 -0.03681974 -14.159154 -12.238747
0003f0 a3 13 67 41 c8 7e 84 c1 92 d9 3d 41 43 0b 74 c1
       14.442294 -16.561905 11.865618 -15.252749

bias f4 [64]
000000 60 80 b2 41 80 62 09 3c 53 00 b3 41 24 d9 b1 41
       22.312683 0.008385301 22.375158 22.231026
000010 a9 36 b3 41 82 fa c7 41 83 5b c7 41 c8 76 d7 41
       22.40169 24.997318 24.919683 26.932999
000020 b0 37 d3 41 8e a2 ce 3d 11 cd c5 41 94 48 e5 40
       26.402191 0.100895986 24.72513 7.1651096
000030 30 60 c2 41 35 71 b3 41 b1 cd d8 41 81 9e 35 c1
       24.296967 22.430277 27.100435 -11.351197
000040 e2 0e 5d bd b1 7b 46 3e 13 03 b4 41 28 fc cf 41
       -0.05396927 0.19383122 22.501501 25.998123
000050 b6 07 b3 41 86 80 a1 c1 ca bf b2 c1 f7 cf d1 41
       22.378765 -20.187756 -22.343647 26.226545
000060 88 05 61 bd 60 4f 41 bc 35 72 b5 41 81 b4 3b 3e
       -0.054936916 -0.01179871 22.680765 0.18330576
000070 f7 20 03 3e c3 4b f4 bd 29 2c b8 41 11 1e 0b 3e
       0.12805544 -0.11928513 23.021563 0.13585688
000080 0a 35 0b be 6c 22 17 3d 00 21 3e bd 90 d3 f3 bd
       -0.13594452 0.03689806 -0.04641819 -0.11905587
000090 7c 6e bd 41 8d f1 51 40 4c 48 2a 3d 31 57 41 3e
       23.678947 3.280368 0.041572854 0.18880917
0000a0 9a 92 35 be c8 90 ba 41 e6 f1 e0 3d 89 5c 46 3e
       -0.17731705 23.320694 0.109836385 0.19371237
0000b0 b6 c9 89 3d 75 d9 b7 41 63 4b f9 40 52 0f 4a be
       0.067279264 22.98118 7.7904525 -0.19732407
0000c0 78 f5 a4 c0 a8 ed 25 be b5 76 2e 41 fd 22 b0 c1
       -5.1549644 -0.1620394 10.903981 -22.017084
0000d0 2a d3 e5 3d da 2f bb 3d 01 07 b8 41 0b cf d3 41
       0.11221917 0.09139986 23.00342 26.476095
0000e0 5a 6a bb 41 38 fe 50 bd 3d 86 1a 3e 74 b6 d3 41
       23.42693 -0.051023692 0.1509027 26.464088
0000f0 c7 4e 5c c1 14 f9 67 3d 23 16 b4 41 3b f4 b8 41
       -13.769233 0.056634024 22.510809 23.119253

weight f4 [32, 64]
000000 aa 2a 29 be d8 a6 cd bd a1 84 1c be da d5 ee bc
       -0.16520181 -0.100415885 -0.15284969 -0.029154707
000010 41 40 cb bb 9b fc 80 3c 77 f4 3c bd 04 4e ba bd
       -0.006202728 0.015745452 -0.046131577 -0.090969115
000020 2b 34 cd 3c fc d1 40 bd 4e 7d 2e be 4c f3 17 be
       0.02504929 -0.047075257 -0.17039987 -0.14838904
000030 5c b9 89 3b d8 e8 0a bd 85 4d e5 bd 3b 21 e1 bd
       0.0042030048 -0.033913463 -0.11196426 -0.10992666
000040 16 6d e9 bd a4 96 c9 3d aa a4 ed bc 47 26 11 be
       -0.113977596 0.098431855 -0.029009182 -0.14174758
000050 89 67 14 be eb 0b 1e bd 22 79 18 be 76 3b 81 bc
       -0.1449262 -0.038585585 -0.14889959 -0.015775423
000060 68 48 f6 3c 00 6c 36 3c 92 c3 2f 3c 40 f8 5c bd
       0.030063823 0.011134148 0.01072778 -0.053947687
000070 00 2e 4e 3a 72 84 bb bd 52 5f 03 3d a4 de 40 3d
       0.0007865131 -0.09156121 0.032073326 0.047087327
000080 b0 b0 d3 3d ac f2 d2 3d 3a 45 f6 3d a0 99 e0 3c
       0.10336435 0.10300192 0.12024923 0.027417004
000090 07 3c 3a bd 28 c3 49 bd e0 89 a8 bb 52 cc d9 3d
       -0.045467403 -0.04925838 -0.005143389 0.10634674
0000a0 76 af eb 3d 5b 48 d7 bd 66 be e4 bd 4c 34 38 3d
       0.11508076 -0.105118476 -0.11169128 0.04497175
0000b0 40 ed 0e 3b 8d 6b aa bd 11 ff 70 3c e8 25 e3 bd
       0.0021808892 -0.08321295 0.01470925 -0.110912144
0000c0 33 de b7 3b 64 49 1f 3d d3 ef 85 bd 5b 5f 31 be
       0.005611205 0.03888835 -0.065398835 -0.17321531
0000d0 9a b6 a7 3d 50 96 2d bd b3 a8 01 3c c9 5b b1 bd
       0.08189125 -0.042379677 0.007913756 -0.08660085
0000e0 90 0f 22 3d 60 b9 df bd b2 ec 9d bd db de 05 3d
       0.039565623 -0.10924029 -0.07711162 0.032683235
0000f0 20 7b d6 3c ec c6 60 3d a3 a6 c9 bd ab e4 ca 3c
       0.026181757 0.054877207 -0.098462366 0.02476724
000100 65 68 63 3f 2a 9c c9 3d 00 dd 5f 3f 59 1f 57 3f
       0.8883117 0.09844239 0.87446594 0.8403221
000110 8d c2 78 3f 34 83 63 3f b9 6c 4b 3f 47 eb 27 3f
       0.9717186 0.88872075 0.7946277 0.6559338
000120 47 80 52 3f 1e b0 98 3d ad 1e 7e 3f f1 22 14 40
       0.82226986 0.07455467 0.9926556 2.3146327
000130 e1 f9 58 3f 6d 75 62 3f c5 83 49 3f 5d 2e cc 40
       0.84756285 0.8846043 0.7871669 6.3806596
000140 c0 2b 59 3e d8 2b 84 3d 76 44 6f 3f 5a e9 4c 3f
       0.21208096 0.06453675 0.9346384 0.80043566
000150 13 8b 51 3f ae 53 1f 41 81 3b 29 41 6b 56 0b c0
       0.81852835 9.95793 10.577027 -2.1771495
000160 44 d7 d3 3d 48 95 dc bd fd c5 85 3f d8 de db 3d
       0.10343793 -0.10770661 1.0451046 0.107358634
000170 fc 16 7c 3d f8 8d d7 3d 28 4c 6a 3f b8 c9 ff bc
       0.061545357 0.10525125 0.91522455 -0.031224117
000180 a0 0f 00 bc b2 5d b3 bd 98 84 be 3d c8 0a 46 bd
       -0.007816225 -0.08758105 0.09302634 -0.048350126
000190 62 bd 60 3f 8a cd 4f 40 3c dd 91 bd 14 7a 26 bd
       0.87788975 3.24692 -0.07122275 -0.040643767
0001a0 7c c6 4b 3d 91 b1 80 3f 36 97 d3 3d f0 8f e5 3c
       0.049749836 1.0054189 0.103315756 0.028022736
0001b0 96 67 e2 3d 32 90 67 3f 10 37 11 40 c4 e0 85 3d
       0.11054914 0.904544 2.2689857 0.06537011
0001c0 94 f8 a1 40 00 63 09 3b 2f 99 c6 3f 81 45 27 41
       5.061594 0.002096355 1.5515498 10.454469
0001d0 8e 8d ea 3d 00 47 e1 bb 98 97 81 3f 93 3d 3a 3f
       0.11452781 -0.006874919 1.0124388 0.72750205
0001e0 2f 14 5f 3f 28 99 e4 3c ae 82 9a 3d 94 a3 3d 3f
       0.8714017 0.027905062 0.075444564 0.74077725
0001f0 9e 42 da 40 6c 78 08 bd 1d 54 58 3f 87 ad 49 3f
       6.820632 -0.03331797 0.84503347 0.78780407
000200 0b d6 91 be 70 5c 35 bc 87 3a c1 be e5 d9 85 be
       -0.28483614 -0.011069402 -0.37739965 -0.26142803
000210 35 0b c8 be 78 2c 7d be 75 bb d1 be bd 2c c4 be
       -0.3907105 -0.24723995 -0.4096333 -0.38315383
000220 72 7f db be de ad d7 bd b6 97 ad be 4b 8f 85 be
       -0.4287067 -0.105312094 -0.3390481 -0.26085886
000230 61 7b ae be 65 db 4d be 7a 1e e1 be f6 6d 9c be
       -0.34078506 -0.20103224 -0.43968564 -0.30552644
000240 ec 26 fa bd e2 f5 fc 3d 99 11 b8 be 1c 95 d3 be
       -0.12214455 0.12351586 -0.35950926 -0.413247
000250 17 fa 80 be 5d 6f 77 be 5a 98 99 be 6d da cf be
       -0.25190803 -0.24163575 -0.29999048 -0.40596333
000260 6c 90 07 bd d0 5f 74 bd 2d 49 de be 68 a8 f0 bd
       -0.033096716 -0.059661686 -0.43415204 -0.11750871
000270 02 d3 b8 3d 2a e9 d7 3d 83 cf cd be bc c7 6e 3d
       0.090246215 0.105425194 -0.4019738 0.05829595
000280 a8 b5 f8 bd 6e fa b4 bd 0c 10 41 bd 68 43 b5 bc
       -0.12144023 -0.08836828 -0.047134444 -0.022126868
000290 ab bc 91 be f1 ec b4 be 00 c4 da ba fc db dd bd
       -0.28464255 -0.35337022 -0.0016690493 -0.10832974
0002a0 48 fe 33 bd 53 7c dc be f8 53 a7 bc 62 da cf 3d
       -0.043943673 -0.43063602 -0.020425782 0.10149075
0002b0 70 cd 15 bc 82 b0 e0 be 26 6a 56 be 00 1e 0c ba
       -0.009143218 -0.43884665 -0.2093893 -0.00053450465
0002c0 95 ef dc be 30 3b ea 3c 91 9b 9b be ae 3a 5d be
       -0.43151537 0.028592676 -0.30392125 -0.21604416
0002d0 22 6f e4 bd b4 06 06 bd e1 9a 82 be e8 db 91 be
       -0.111540094 -0.032721236 -0.25508788 -0.28488088
0002e0 8a b2 84 be 82 ec 92 bd 94 09 ad bd a2 a1 83 be
       -0.25917464 -0.071740165 -0.084490925 -0.25709254
0002f0 60 9b 81 be f0 f4 24 3d 6a ed a8 be 1c 80 c4 be
       -0.25313854 0.040272653 -0.32993633 -0.3837899
000300 f8 3a ed 3d 84 63 38 bd 7c 28 07 bd 26 31 d6 bd
       0.11583513 -0.04501678 -0.032997593 -0.10458593
000310 aa 45 e8 3d 5a 60 ca bd 78 14 f5 bc ae cb 9a bd
       0.11341412 -0.09881659 -0.029916987 -0.0755838
000320 1a 35 d6 3d a0 fe b2 3d 1c ab aa bd 74 0d 87 bd
       0.10459347 0.08739972 -0.08333418 -0.06594363
000330 1c 3a ec bd ba fa f8 bd 80 35 89 3c 20 63 34 bd
       -0.11534521 -0.12157197 0.016749144 -0.044039845
000340 40 42 3c bd d8 5e aa 3c 48 8a 9f 3c 78 47 70 bd
       -0.04596162 0.020797178 0.019475117 -0.058661908
000350 80 1b f4 3a 7a c2 81 bd fe af ab bd 64 e2 fb bd
       0.0018623918 -0.063359216 -0.08383177 -0.1229904
000360 90 4a 1e 3d 20 6b 99 3b c0 be 46 3c 5a 0e b9 bd
       0.038645327 0.0046819597 0.012130439 -0.090359405
000370 b2 76 de 3d f0 0a 04 bd 8c 32 9c bd 94 19 9f bd
       0.10862483 -0.032236993 -0.076268286 -0.077685505
000380 3a 3b f5 3d 8a f0 e0 bd 3a bb f9 3d 9a 04 f1 bd
       0.11974187 -0.10983379 0.12193914 -0.11768456
000390 8e 7e 8a bd 36 59 d5 bd 44 a4 23 bd ca f4 fc 3d
       -0.0676242 -0.10417406 -0.039951578 0.12351377
0003a0 ee 3b a1 3d ee 93 bf 3d 14 ca f0 3d 10 46 1b bc
       0.07872759 0.09354387 0.11757293 -0.009477153
0003b0 60 14 fd 3d c0 07 93 bd 84 eb f3 3d e8 a3 cc bc
       0.12357402 -0.071792126 0.119101554 -0.0249805
0003c0 48 9a 7a bd 3a d7 c7 bd f2 f9 95 bd 1e af dd 3d
       -0.06118229 -0.09757848 -0.07323064 0.108244166
0003d0 18 81 4a bd 5c 82 45 bd e6 bd d3 3d 74 9d 6c 3d
       -0.04943952 -0.048220024 0.10338955 0.057767347
0003e0 b6 ee fc bd 40 34 83 3c c8 4c ed 3c e8 cb 23 bd
       -0.12350218 0.016016126 0.028967276 -0.039989382
0003f0 80 00 c8 3d 80 00 16 3d 0a 9b a9 bd ba 34 80 bd
       0.0976572 0.03662157 -0.082815245 -0.06260057

bias f4 [32]
000000 a1 3b 26 be ea 9d cb 41 77 fc 83 be e4 5d 94 bd
       -0.16233684 25.452106 -0.25778553 -0.07244471
000010 28 08 c6 be b8 57 a7 be a8 7c 6d be cd 01 3d bd
       -0.38678098 -0.32684112 -0.23192084 -0.046144295
000020 00 bf e1 ba 27 e2 a8 41 bd bd b6 41 d0 c6 59 bc
       -0.001722306 21.110426 22.842646 -0.0132920295
000030 78 5b 1b be 5d 63 43 be 34 a9 9f be f2 75 a8 41
       -0.15171611 -0.19080873 -0.3118378 21.05759
000040 af 4b 9c be c3 fd a8 41 76 be 68 be 20 36 7b 3d
       -0.30526492 21.123907 -0.22728905 0.061330914
000050 94 57 cd bd 7a 1d d3 bd e3 0c 90 bc 55 a1 a5 41
       -0.1002647 -0.103083566 -0.01758427 20.703775
000060 71 bf 23 bd 14 57 a2 bd b9 54 80 bd b5 c1 17 be
       -0.039977495 -0.07926765 -0.062661596 -0.14819987
000070 7c 0d a6 41 46 66 27 bf 84 65 3f 41 ec 62 ae be
       20.756584 -0.6539043 11.962284 -0.34059846

weight f4 [1, 32]
000000 51 3e 4f bd f3 7a 39 40 96 6d 66 be b4 f7 57 bd
       -0.05059654 2.8981292 -0.22502741 -0.052726462
000010 80 04 69 3e 29 0c 41 3e e0 37 96 be c5 7e 85 bb
       0.22755623 0.18852295 -0.29339504 -0.00407395
000020 40 34 72 3c b6 00 2c 40 9f 9e 2b 40 5a 2d a4 3d
       0.014782965 2.6875434 2.6815565 0.080164626
000030 39 a6 8e bd cd 0f 7a 3d 8c e5 82 3d 0a 66 2b 40
       -0.06965298 0.061050225 0.06391439 2.678103
000040 68 3b 85 3e 6b c7 2c 40 aa 0e 2e 3e 89 e7 04 3e
       0.26021886 2.6996715 0.16997781 0.12978949
000050 c2 fb 0e be f6 3c bd bd 36 29 84 bc d6 17 2e 40
       -0.13963225 -0.09240143 -0.016132932 2.7202048
000060 bc 5d cd bd c2 bf e0 3d 28 47 47 3d 54 4b 0d 3e
       -0.10027644 0.10974075 0.048651844 0.13798267
000070 a3 bb 2c 40 f9 cf 96 3e 34 a6 26 c1 06 0d ca 3d
       2.6989524 0.29455546 -10.415577 0.09865765
