api/home_price_model_zonda.pth (torch, 718757 bytes, 7 tensors)

weight f4 [2748, 20]
4.5565424 0.1680255 0.4590284 -1.6233504 -0.5940116 1.2517459 12.012784 1.5838447
-1.208805 -0.022907363 5.2856455 2.5933917 -7.2629986 0.78231585 11.440043 -0.07625106
2.12911 -0.09389284 1.082852 0.92758554 3.423098 -0.996439 1.797096 2.3493385
1.7569922 2.498306 -2.1484287 -0.21404828 -3.1474156 3.3678155 -1.294699 0.086808346
1.9220861 -0.9119233 -1.4596626 -1.4658061 -2.543894 5.529983 0.284109 0.35666138
-3.0407367 -7.7962856 4.49894 8.8325815 8.6395035 -4.5652566 -0.26208746 6.3966675
5.7670445 -5.235331 -0.8205944 2.176178 0.6947206 7.732775 -6.354218 -6.3322883
-2.2325025 0.26652187 -1.2956173 -5.0933433 0.929633 -2.4889038 3.1514976 2.0354085
0.78684074 -1.7085843 1.2789223 1.0072814 0.11183015 -3.5255368 1.5782793 -3.1800175
1.9213947 1.0777783 -1.5205914 -3.213028 -1.647983 -1.700547 -0.59637105 -2.4146209
0.35205448 1.3611051 -7.1093345 -5.2919393 5.990548 7.502556 7.786201 -4.6987185
-6.620732 8.371722 -2.951521 3.2175703 4.3057256 -5.85244 0.8190124 1.462342
-4.8586435 -1.6853976 3.791075 7.7066727 -0.41144705 -3.9861534 3.660174 2.3239038
3.8613005 -2.7806277 -1.2874702 1.3785737 2.0256002 -2.2878478 -0.15524742 -1.1357738
1.7997271 0.23178905 -2.8323195 0.69860744 -2.0065973 -0.4884952 -2.1050458 -2.2920945
-10.719063 18.460052 13.979873 5.579655 -3.3351836 -3.3428428 -9.426836 -5.863221
9.963438 17.621685 -17.122347 -12.345618 19.312193 -19.081064 4.089805 7.7532663
11.949795 -1.8788326 -6.431994 -17.339586 9.142567 -7.82269 8.4621 6.4788494
7.6304116 -4.14574 -10.233211 3.4538343 9.469211 -3.6086903 -0.547958 -8.620833
7.437603 9.645082 -7.339745 -8.501806 -0.8586054 10.154909 -7.48228 -7.0177326
-4.2445045 5.170675 2.2837353 -3.7497332 -2.0972245 -3.8175128 -6.996073 -0.1778304
3.2293303 -3.2186427 -5.163609 -4.361166 5.8596315 -0.0033424944 -1.8353096 6.879286
-4.160341 0.7071349 -3.0437872 -4.4746156 8.873384 -5.0779767 4.3847485 4.706373
8.728504 -4.0504236 -1.9922495 2.9418228 4.5292983 -3.9067256 0.35924315 -4.2588444
1.9050792 4.529383 -9.432914 -3.8208315 -4.211869 2.384563 0.47215962 -5.108344
-2.2878711 -0.5815754 2.06566 -7.597839 -9.202542 -9.9111805 -11.00415 -1.2738672
6.9913406 -4.987707 -0.31276327 -7.8963156 6.3128514 1.5004492 6.654022 0.40901518
-5.0928364 6.8115 -9.994646 -3.7217088 -0.5692518 -0.14194687 0.8220931 0.27045953
-0.42025352 1.1456918 1.3191338 -1.376119 1.9199646 2.0432675 -0.8930569 1.2444437
-1.1066477 -1.3722572 -0.73744714 0.69072676 0.34007812 -0.088056326 0.13815807 0.49509668
1.8431 0.42312327 1.7221931 4.012338 2.3866343 -0.38008875 -2.724926 2.5950053
3.493607 -1.2932615 -4.516384 -4.3853984 4.3480525 1.4217274 -1.4576275 0.10325439
00000000: 32cf 9140 e00e 2c3e c505 eb3e f2c9 cfbf
00000010: 2511 18bf 3639 a03f 5d34 4041 6cbb ca3f
00000020: 1fba 9abf 39a8 bbbc 0224 a940 21fa 2540
00000030: 7c6a e8c0 da45 483f 6b0a 3741 8429 9cbd
00000040: 5743 0840 e44a c0bd e59a 8a3f 3f76 6d3f
00000050: 0a14 5b40 a016 7fbf 3e07 e63f 905b 1640
00000060: 1fe5 e03f 3fe4 1f40 db7f 09c0 792f 5bbe
00000070: 426f 49c0 4a8a 5740 b2b8 a5bf 93c8 b13d
00000080: eb06 f63f ce73 69bf 39d6 babf 899f bbbf
00000090: 29cf 22c0 9ff5 b040 bc76 913e 529c b63e
000000a0: 6e9b 42c0 2c7b f9c0 51f7 8f40 4152 0d41
000000b0: 683b 0a41 9516 92c0 5430 86be 80b1 cc40
000000c0: a18b b840 d587 a7c0 7912 52bf 8046 0b40
000000d0: 36d9 313f e572 f740 c155 cbc0 1ba2 cac0
000000e0: 52e1 0ec0 8e75 883e cad6 a5bf abfc a2c0
000000f0: 6efc 6d3f 334a 1fc0 23b2 4940 2244 0240
00000100: 656e 493f e4b2 dabf bab3 a33f 99ee 803f
00000110: 3507 e53d 65a2 61c0 0e05 ca3f 6885 4bc0
00000120: 43f0 f53f a4f4 893f bda2 c2bf 40a2 4dc0
00000130: 1bf1 d2bf 86ab d9bf c6ab 18bf 2689 1ac0
00000140: 7c40 b43e b138 ae3f ab7f e3c0 9157 a9c0
00000150: 92b2 bf40 f014 f040 8f28 f940 e75b 96c0
00000160: 09dd d3c0 93f2 0541 b8e5 3cc0 acec 4d40
00000170: 81c8 8940 3047 bbc0 ccaa 513f 062e bb3f
00000180: 027a 9bc0 1cbb d7bf f9a0 7240 109d f640
00000190: 30a9 d2be 231d 7fc0 4a40 6a40 d7ba 1440
000001a0: 8c1f 7740 cef5 31c0 d3cb a4bf 1a75 b03f
000001b0: 6fa3 0140 196c 12c0 2ef9 1ebe 0961 91bf
000001c0: 755d e63f 1c5a 6d3e b944 35c0 f0d7 323f
000001d0: 176c 00c0 0b1c fabe 12b9 06c0 adb1 12c0
000001e0: 4881 2bc1 30ae 9341 8fad 5f41 898c b240
000001f0: a673 55c0 23f1 55c0 52d4 16c1 829f bbc0
00000200: 3e6a 1f41 36f9 8c41 91fa 88c1 a787 45c1
00000210: 5f7f 9a41 05a6 98c1 afdf 8240 c21a f840
00000220: 5c32 3f41 967d f0bf e5d2 cdc0 79b7 8ac1
00000230: f447 1241 7a53 fac0 c364 0741 bc52 cf40
00000240: 552c f440 e7a9 84c0 3bbb 23c1 9f0b 5d40
00000250: e381 1741 c8f4 66c0 fa46 0cbf efee 09c1
00000260: d800 ee40 4252 1a41 31df eac0 6607 08c1
00000270: 90cd 5bbf 827a 2241 d66e efc0 4491 e0c0
00000280: fbd2 87c0 2b76 a540 b828 1240 a1fb 6fc0
00000290: ed38 06c0 2152 74c0 d4df dfc0 2c19 36be
000002a0: 59ad 4e40 3efe 4dc0 493c a5c0 ac8e 8bc0
000002b0: 1a82 bb40 c00d 5bbb 6deb eabf 1c23 dc40
000002c0: 8321 85c0 cb06 353f 69cd 42c0 0d30 8fc0
000002d0: 62f9 0d41 c97e a2c0 dc4f 8c40 9c9a 9640
000002e0: f4a7 0b41 129d 81c0 0802 ffbf d346 3c40
000002f0: 03f0 9040 cb07 7ac0 b8ee b73e 7448 88c0
00000300: a3d9 f33f b5f0 9040 37ed 16c1 8188 74c0
00000310: a1c7 86c0 ae9c 1840 e8be f13e 8e77 a3c0
00000320: 7b6c 12c0 20e2 14bf c633 0440 7f21 f3c0
00000330: 9d3d 13c1 3294 1ec1 0011 30c1 150e a3bf
00000340: 10b9 df40 4c9b 9fc0 8222 a0be 9eae fcc0
00000350: e102 ca40 b80e c03f c0ed d440 706a d13e
00000360: 84f8 a2c0 cff7 d940 12ea 1fc1 7a30 6ec0
00000370: 7cba 11bf 855a 11be b274 523f ac79 8a3e
00000380: 782b d7be 07a6 923f 60d9 a83f ab24 b0bf
00000390: 66c1 f53f e5c4 0240 619f 64bf ee49 9f3f
000003a0: a2a6 8dbf 20a6 afbf 56c9 3cbf 78d3 303f
000003b0: b81e ae3e e056 b4bd 4f79 0d3e 507d fd3e
000003c0: b3ea eb3f 9da3 d83e d370 dc3f 1365 8040
000003d0: 9ebe 1840 fe9a c2be 3065 2ec0 9114 2640
000003e0: 4297 5f40 9889 a5bf 3886 90c0 2f55 8cc0
000003f0: 3f23 8b40 2afb b53f 8a93 babf 0a77 d33d

weight f4 [4075, 20]
-0.8046583 0.8945439 -4.250489 -3.7087452 -4.70928 -6.9759736 3.5872436 -2.5249321
-0.69762874 3.017868 2.5451853 -1.0435785 -3.085759 1.7041088 3.953499 -6.191007
-0.6335004 2.6273103 -4.5452666 7.4476414 2.9577913 -3.0063713 -2.326246 -3.0871553
-4.1016045 4.6544642 -4.96063 -5.0959516 -5.616075 0.021063583 3.6227503 -2.7905526
-4.772812 -4.9049864 0.71112734 2.9302027 -7.5834074 3.162674 3.3367171 -7.873427
3.069857 -3.2912614 -0.36737248 -0.9602986 0.63860446 0.29724428 -2.1146321 -2.1741648
-2.499542 -1.3442556 3.04019 -0.58434176 -1.2179848 -4.540648 -0.25775617 1.6137135
-3.1588717 1.5319687 0.61933744 -2.7378192 -0.0037338566 -2.961364 -0.6475475 -1.7271516
-3.8085332 2.7606826 -4.028463 -0.82618135 -2.468486 2.0889046 3.0482774 -1.9538853
-3.5944169 -2.0856633 -3.4573827 1.1261159 -1.9876357 1.9899199 1.9794453 -3.253448
3.2806087 -1.1893885 -4.948408 -6.7669015 -3.9005954 3.2138336 -3.3406374 -2.7512362
-3.5378566 7.0535913 5.164981 -4.3593936 -3.2087831 -4.7602296 5.48957 4.7943377
-5.345443 4.2384953 0.017490966 -2.3001704 10.780044 -9.740719 -6.694863 -5.4367146
-3.9863951 8.874288 -11.405648 -7.3982925 -7.856649 2.6422687 10.569849 -8.4435425
-5.134734 -7.605234 3.766619 7.267907 -7.669511 6.7266555 9.583793 -7.3080645
4.921209 -7.0344787 -5.25777 -3.4249551 -3.6340008 5.23804 -5.4406657 -6.9424024
-4.115015 1.986624 4.7236767 -5.945795 -6.77628 -5.781874 2.8176575 6.925821
-6.214102 5.1816063 5.1646028 -5.887132 2.7270038 -1.8227676 -1.3434465 -1.4579904
-0.56912667 3.5821726 -5.019959 2.0073547 -5.4848676 2.074355 -0.13501373 -0.7139604
-13.270909 -1.3659842 3.2562878 7.4285483 -8.716542 5.218465 4.111008 -1.0752952
4.3056726 -3.55527 -4.066773 -1.7086501 -3.111646 4.801986 -3.4178708 -4.128406
-2.8245063 0.012848932 4.3184543 -4.8962865 -4.482428 -3.6485946 1.7183647 4.0764604
-4.520663 4.5859303 3.2788477 -5.0692234 1.4301885 -6.597037 -5.414627 -4.9874053
-0.08857241 3.299929 -5.817235 -6.31976 -3.5543208 4.400246 7.589264 -4.5143447
-0.89937705 -2.135286 6.041479 3.6800156 -3.8394973 5.6192703 3.3560047 -5.7111483
-3.687816 -2.5150146 8.187252 0.29493892 1.4193102 5.5175214 4.330616 -7.691457
-1.8999964 -0.60207176 1.6457623 -4.087344 1.6726916 -5.151426 -3.8920739 -1.8450934
-3.2743492 -4.9817476 5.7136493 -11.345765 1.9259006 -3.1922336 -4.1834893 -4.185703
-3.5892315 3.1435213 -3.9859803 -3.2590108 -3.6552653 1.6586846 4.996645 -2.0629628
-2.7454553 -2.6324005 4.7018137 4.018868 -0.9922387 2.6512969 -0.24002066 -2.596392
-0.20998171 -3.8238604 0.8911673 1.3171508 2.9692888 0.53850603 -3.070988 3.122609
2.8097434 1.8922992 -0.7965139 1.8680575 3.1260679 4.6505904 -2.3825188 -5.5372686
00000000: 16fe 4dbf d400 653f 0204 88c0 155c 6dc0
00000010: 6cb2 96c0 2d3b dfc0 6695 6540 7d98 21c0
00000020: cc97 32bf c024 4140 51e4 2240 fb93 85bf
00000030: 137d 45c0 3d20 da3f 2106 7d40 bb1c c6c0
00000040: 152d 22bf da25 2840 d372 91c0 1453 ee40
00000050: 744c 3d40 6368 40c0 37e1 14c0 f493 45c0
00000060: 5840 83c0 5ff1 9440 7bbd 9ec0 0912 a3c0
00000070: e3b6 b3c0 898d ac3c 24db 6740 6a98 32c0
00000080: e0ba 98c0 a6f5 9cc0 710c 363f 7188 3b40
00000090: 46ab f2c0 4069 4a40 c68c 5540 1df3 fbc0
000000a0: 8978 4440 07a4 52c0 3f18 bcbe 21d6 75bf
000000b0: 957b 233f 6730 983e 2256 07c0 8425 0bc0
000000c0: 7ff8 1fc0 9110 acbf 7992 4240 6c97 15bf
000000d0: ede6 9bbf fd4c 91c0 9ef8 83be 2a8e ce3f
000000e0: f42a 4ac0 8d17 c43f e68c 1e3f 6e38 2fc0
000000f0: b8b3 74bb fd86 3dc0 acc5 25bf 4e13 ddbf
00000100: 02bf 73c0 06af 3040 2be9 80c0 9f80 53bf
00000110: adfb 1dc0 9db0 0540 fa16 4340 ea18 fabf
00000120: ed0a 66c0 827b 05c0 c245 5dc0 9124 903f
00000130: d96a febf b2b5 fe3f 775e fd3f 7e38 50c0
00000140: 7ef5 5140 e23d 98bf 5c59 9ec0 758a d8c0
00000150: 5ba3 79c0 73af 4d40 01cd 55c0 4114 30c0
00000160: 3e6c 62c0 05b7 e140 8647 a540 2780 8bc0
00000170: b45c 4dc0 cd53 98c0 8faa af40 376b 9940
00000180: de0d abc0 c1a1 8740 3749 8f3c fe35 13c0
00000190: 0f7b 2c41 fcd9 1bc1 513c d6c0 91f9 adc0
000001a0: 1921 7fc0 15fd 0d41 897d 36c1 d0be ecc0
000001b0: ab69 fbc0 ee1a 2940 1a1e 2941 c018 07c1
000001c0: be4f a4c0 145e f3c0 4910 7140 b292 e840
000001d0: a26c f5c0 c340 d740 3757 1941 aadb e9c0
000001e0: 8b7a 9d40 731a e1c0 a73f a8c0 7732 5bc0
000001f0: 7893 68c0 069e a740 ef19 aec0 2928 dec0
00000200: 34ae 83c0 b249 fe3f 5c28 9740 f443 bec0
00000210: 49d7 d8c0 1d05 b9c0 8054 3440 53a0 dd40
00000220: ecd9 c6c0 b8cf a540 6d44 a540 6363 bcc0
00000230: 3b87 2e40 7350 e9bf 0ef6 abbf 6e9f babf
00000240: 49b2 11bf 5142 6540 81a3 a0c0 8078 0040
00000250: 0984 afc0 3bc2 0440 0a41 0abe 1cc6 36bf
00000260: a555 54c1 92d8 aebf 0567 5040 abb6 ed40
00000270: f576 0bc1 aafd a640 618d 8340 46a3 89bf
00000280: 12c8 8940 8b89 63c0 0123 82c0 0cb5 dabf
00000290: 3525 47c0 dfa9 9940 65be 5ac0 e71b 84c0
000002a0: b6c4 34c0 5484 523c c730 8a40 61ae 9cc0
000002b0: 0d70 8fc0 9382 69c0 60f3 db3f 5d72 8240
000002c0: 45a9 90c0 f1bf 9240 a4d8 5140 1437 a2c0
000002d0: 6b10 b73f ed1a d3c0 a044 adc0 d398 9fc0
000002e0: 7465 b5bd 0932 5340 ca26 bac0 793b cac0
000002f0: fe79 63c0 d1ce 8c40 40db f240 8375 90c0
00000300: 933d 66bf 87a8 08c0 cc53 c140 6085 6b40
00000310: 53ba 75c0 10d1 b340 c8c8 5640 bac1 b6c0
00000320: 2d05 6cc0 00f6 20c0 fcfe 0241 3c02 973e
00000330: f5ab b53f 898f b040 6894 8a40 6a20 f6c0
00000340: 1533 f3bf 6021 1abf 57a8 d23f 86cb 82c0
00000350: c21a d63f 7bd8 a4c0 bd17 79c0 052c ecbf
00000360: f08e 51c0 7a6a 9fc0 37d6 b640 4188 35c1
00000370: e983 f63f 8e4d 4cc0 25df 85c0 47f1 85c0
00000380: f8b5 65c0 742f 4940 4d1a 7fc0 a293 50c0
00000390: deef 69c0 c74f d43f 84e4 9f40 9507 04c0
000003a0: 8ab5 2fc0 4079 28c0 4275 9640 919a 8040
000003b0: 5b03 7ebf d9ae 2940 fac7 75be 492b 26c0
000003c0: 7205 57be 21ba 74c0 8a23 643f 6698 a83f
000003d0: d408 3e40 88db 093f 118b 44c0 d3d8 4740
000003e0: d6d2 3340 dc36 f23f 56e8 4bbf 821c ef3f
000003f0: 7f11 4840 a3d1 9440 307b 18c0 4e31 b1c0

weight f4 [128, 47]
0.0910318 -0.15346842 -0.11671088 0.1293461 0.13840969 0.056548934 -0.06635574 0.054717027
0.08221706 0.15075922 0.031390145 0.060612373 -0.011876782 0.14898497 0.08560489 0.03894104
0.16023539 0.06287101 0.009450014 -0.019845514 0.13825428 -0.013862879 -0.1558385 -0.11509404
0.15495005 0.063912734 -0.01817794 0.08771354 0.08363037 -0.008517547 -0.2017922 -0.10669419
0.11539656 0.15834183 0.13029864 0.13706252 0.06741324 0.16831629 0.044133905 -0.019461585
-0.16558416 0.034240175 -0.12425579 0.040183783 -0.017365858 -0.05448843 -0.07677819 -0.08034211
-0.08456503 -0.026314534 0.04263459 0.03278306 -0.08176681 -0.060694493 0.13311788 0.07163967
0.060545072 0.054209724 0.06623617 0.105284005 0.08635932 -0.13722959 0.004582301 -0.06801222
-0.090871796 0.05807194 0.07633692 0.01249671 0.11977181 -0.07389547 0.13497838 -0.06503431
-0.020798698 0.08146684 0.09068431 0.09065896 0.051911026 -0.13646112 0.03680776 0.040457606
0.07225187 -0.11246245 -0.01580669 -0.015521556 0.113108456 0.044676334 -0.08325298 -0.047747344
-0.10540773 -0.14343008 0.112125695 -0.07383268 -0.12928173 -0.04651448 -0.014566779 0.035295293
0.038918793 -0.041314222 -0.030893229 0.038364947 0.07802296 -0.048171222 0.14055341 -0.04454291
-0.017403334 0.05720432 0.059054703 0.13726455 0.117186695 0.11508006 0.0025632381 0.024542272
0.072931275 -0.05853212 0.023114502 -0.08620441 0.14022416 0.078911096 0.13199052 0.07845329
-0.1024519 -0.01891385 -0.129263 0.05239065 -0.012595803 0.03418751 -0.115878694 -0.009612396
-0.022092268 0.10472408 0.021132752 -0.06859477 0.0395163 0.013649315 -0.13214867 0.13772711
0.090224266 -0.075827464 -0.03796143 -0.006202027 -0.05690395 -7.968953 11.465812 -10.061604
7.035744 -1.1600268 -21.7985 -28.100788 -26.62007 30.20506 34.61916 -6.2497606
-21.921738 6.5631557 24.882225 57.711777 -61.407955 24.161167 -6.3934264 -28.301403
-26.063068 -45.14127 -17.106266 24.47438 -1.8298732 -2.691726 78.65829 -21.047987
-10.642294 23.025713 30.262192 27.57385 -16.618242 -52.978695 17.863947 -1.3010637
25.326853 15.377957 19.629747 42.821636 0.6803335 0.6730794 -0.64820504 25.25488
30.556416 -55.590458 -0.5113483 50.425896 3.9424489 1.4246858 5.2542386 0.6444073
-1.9746996 -17.919352 -8.894634 5.5227137 11.491397 -6.477193 -8.085639 -11.996316
5.803998 8.336663 -2.3539422 -2.2970536 -7.4638996 12.461935 -12.420049 -6.9525375
-1.045803 -5.790893 -7.130724 1.4565667 -4.709104 7.840338 -13.521037 3.4140923
-1.7164701 12.664916 4.197128 -10.110306 -13.466204 6.1205716 17.969652 5.4103365
-3.1806061 23.19042 14.04714 29.213287 -1.9231327 4.366202 21.725454 28.647474
-22.486893 -1.8146735 36.073654 21.207754 -49.96582 13.861823 28.873896 29.90405
-18.02868 15.263492 27.485605 23.95464 -18.257654 7.649929 4.3509173 -1.1900133
31.961536 -37.205307 -8.313793 -6.551039 4.965703 22.892435 -15.88782 11.159932
00000000: e16e ba3d d326 1dbe 1d06 efbd 4e73 043e
00000010: 45bb 0d3e db9f 673d 85e5 87bd f61e 603d
00000020: 6b61 a83d a060 1a3e f492 003d ae44 783d
00000030: d696 42bc 848f 183e 9e51 af3d a480 1f3d
00000040: bf14 243e 84c2 803d 3bd4 1a3c 0f93 a2bc
00000050: 8892 0d3e 2121 63bc 2194 1fbe 6db6 ebbd
00000060: 3aab 1e3e aee4 823d e7e9 94bc 28a3 b33d
00000070: 6646 ab3d 2e8d 0bbc 9da2 4ebe 7c82 dabd
00000080: 0855 ec3d 5c24 223e 026d 053e 1e5a 0c3e
00000090: f40f 8a3d 1b5b 2c3e c1c5 343d e76d 9fbc
000000a0: e58e 29be 6d3f 0c3d d279 febd c097 243d
000000b0: d842 8ebc 432f 5fbd e23d 9dbd 678a a4bd
000000c0: 6e30 adbd 9491 d7bc 9ca1 2e3d 8847 063d
000000d0: 5b75 a7bd ca9a 78bd 0e50 083e d2b7 923d
000000e0: 1cfe 773d 040b 5e3d d4a6 873d 249f d73d
000000f0: 28dd b03d ea85 0cbe 2027 963b fe49 8bbd
00000100: fe1a babd d8dc 6d3d 8856 9c3d 00bf 4c3c
00000110: ec4a f53d 8256 97bd c637 0a3e b530 85bd
00000120: 0862 aabc 16d8 a63d b2b8 b93d 68ab b93d
00000130: a8a0 543d 77bc 0bbe bcc3 163d e0b6 253d
00000140: caf8 933d b752 e6bd 087d 81bc 204e 7ebc
00000150: 68a5 e73d 88fe 363d 8a80 aabd b892 43bd
00000160: 02e0 d7bd 56df 12be 28a2 e53d 9735 97bd
00000170: 6e62 04be f885 3ebd 80a9 6ebc cc91 103d
00000180: 5069 1f3d 1a39 29bd cc13 fdbc 9024 1d3d
00000190: 80ca 9f3d 304f 45bd 3ced 0f3e a072 36bd
000001a0: 7091 8ebc 144f 6a3d 58e3 713d 148f 0c3e
000001b0: 94ff ef3d 18af eb3d 00fc 273b e00c c93c
000001c0: fe5c 953d 60bf 6fbd a05a bd3c f08b b0bd
000001d0: ec96 0f3e 249c a13d 8628 073e 1eac a03d
000001e0: 4dd2 d1bd 38f1 9abc 855d 04be 9497 563d
000001f0: a05e 4ebc 3408 0c3d cf51 edbd 507d 1dbc
00000200: d8fa b4bc 9479 d63d 981e ad3c 6a7b 8cbd
00000210: d8db 213d 60a1 5f3c fb51 07be 5608 0d3e
00000220: 80c7 b83d 6e4b 9bbd 727d 1bbd 603a cbbb
00000230: 1e14 69bd aa01 ffc0 f773 3741 54fc 20c1
00000240: d124 e140 c27b 94bf 5463 aec1 6ace e0c1
00000250: e7f5 d4c1 f6a3 f141 057a 0a42 0afe c7c0
00000260: b85f afc1 5f05 d240 cc0e c741 dcd8 6642
00000270: bfa1 75c2 124a c141 f396 ccc0 4669 e2c1
00000280: 2a81 d0c1 a990 34c2 a2d9 88c1 88cb c341
00000290: 4939 eabf 3d45 2cc0 0b51 9d42 4762 a8c1
000002a0: d646 2ac1 a934 b841 f818 f241 3f97 dc41
000002b0: 29f2 84c1 2fea 53c2 5de9 8e41 4189 a6bf
000002c0: 659d ca41 1d0c 7641 b909 9d41 5b49 2b42
000002d0: 562a 2e3f ee4e 2c3f c4f0 25bf ff09 ca41
000002e0: 8a73 f441 a15c 5ec2 b9e7 02bf 1eb4 4942
000002f0: 1551 7c40 1b5c b63f b922 a840 e0f7 243f
00000300: f5c2 fcbf d55a 8fc1 6c50 0ec1 12ba b040
00000310: c3dc 3741 2a45 cfc0 c75e 01c1 e9f0 3fc1
00000320: 5aba b940 f962 0541 fda6 16c0 ed02 13c0
00000330: 44d8 eec0 1664 4741 85b8 46c1 307b dec0
00000340: dfdc 85bf ff4e b9c0 e42e e4c0 c770 ba3f
00000350: fbb0 96c0 0de4 fa40 2b56 58c1 7d80 5a40
00000360: 4bb5 dbbf 7fa3 4a41 df4e 8640 d0c3 21c1
00000370: 9275 57c1 b9db c340 d9c1 8f41 7a21 ad40
00000380: 0d8f 4bc0 fb85 b941 16c1 6041 d0b4 e941
00000390: 3629 f6bf edb7 8b40 bbcd ad41 072e e541
000003a0: 28e5 b3c1 3947 e8bf 6c4b 1042 7ba9 a941
000003b0: 00dd 47c2 07ca 5d41 bdfd e641 7f3b ef41
000003c0: bd3a 90c1 4337 7441 85e2 db41 1aa3 bf41
000003d0: ad0f 92c1 38cc f440 b73a 8b40 5b52 98bf
000003e0: 3ab1 ff41 3cd2 14c2 4c05 05c1 1da2 d1c0
000003f0: 0ae7 9e40 b523 b741 8334 7ec1 158f 3241

bias f4 [128]
0.021759288 0.079888925 -0.0037653297 21.182392 26.17087 -26.332619 33.68825 -0.11071782
13.912932 -0.024079733 -17.349216 0.10660866 51.37181 -0.026359862 19.154709 27.462864
33.440292 -0.19089903 -0.07020677 -0.010149345 -0.017123997 -0.05721364 -0.34950086 -0.07954374
0.108477265 28.567175 38.780945 32.792812 -0.020072386 -0.040738434 -0.1269754 0.0042580366
44.650143 0.07958345 52.72135 -0.054685555 35.6445 36.165882 10.174943 -23.652632
34.076775 -30.371286 25.470097 29.541449 36.8787 18.083014 47.05464 -0.07662737
24.177237 0.24948949 43.35432 -8.317832 14.087079 37.40322 0.08036497 29.550047
26.717184 0.0497844 6.173284 22.806581 0.07332887 -0.08887495 -0.019187192 31.923498
50.58103 36.840538 35.446533 0.043538526 23.123465 42.95768 37.588905 31.42477
-14.693165 33.200996 -7.573101 32.72437 28.031685 28.995787 0.13704464 0.09834385
-11.856703 28.892387 45.006424 42.59208 27.80401 5.4692397 36.130657 -0.13472585
14.483961 -0.14060092 41.747818 50.25446 39.069275 0.033466935 20.669243 29.671062
36.142513 28.644455 27.597326 -2.0321934 39.714626 39.576492 0.06813063 -0.09057513
46.66086 -0.03627026 20.67398 32.568424 -0.08950122 23.571007 34.480663 22.403986
33.597656 24.184868 26.324755 0.05521576 0.06441757 0.008112207 25.831896 31.425547
10.212084 -0.102556884 16.710974 0.13731289 44.36739 33.452164 31.341516 0.14377987
00000000: 8940 b23c ce9c a33d c0c3 76bb 8a75 a941
00000010: f15d d141 34a9 d2c1 c5c0 0642 06c0 e2bd
00000020: 5f9b 5e41 dc42 c5bc 32cb 8ac1 a455 da3d
00000030: bc7c 4d42 a3f0 d7bc d83c 9941 f2b3 db41
00000040: dcc2 0542 097b 43be 91c8 8fbd 7049 26bc
00000050: a047 8cbc da58 6abd c7f1 b2be d4e7 a2bd
00000060: 5429 de3d 9389 e441 b01f 1b42 d72b 0342
00000070: d86e a4bc 58dd 26bd d705 02be 0087 8b3b
00000080: bf99 3242 a6fc a23d aae2 5242 f6fd 5fbd
00000090: f893 0e42 dda9 1042 91cc 2241 9738 bdc1
000000a0: 9e4e 0842 65f8 f2c1 c2c2 cb41 e354 ec41
000000b0: ca83 1342 03aa 9041 f437 3c42 d0ee 9cbd
000000c0: fb6a c141 2c7a 7f3e d36a 2d42 d715 05c1
000000d0: ad64 6141 e69c 1542 6496 a43d 7f66 ec41
000000e0: cbbc d541 baea 4b3d 8b8b c540 e173 b641
000000f0: 722d 963d 1204 b6bd 752e 9dbc 5363 ff41
00000100: fa52 4a42 b65c 1342 40c9 0d42 7455 323d
00000110: dbfc b841 aad4 2b42 0a5b 1642 ee65 fb41
00000120: 3417 6bc1 d2cd 0442 d856 f2c0 c1e5 0242
00000130: e440 e041 5ff7 e741 6e55 0c3e 8068 c93d
00000140: 0eb5 3dc1 9c23 e741 9406 3442 4a5e 2a42
00000150: 9d6e de41 0304 af40 cb85 1042 93f5 09be
00000160: 4ebe 6741 b0f9 0fbe c4fd 2642 9104 4942
00000170: f046 1c42 a014 093d 9c5a a541 565e ed41
00000180: ef91 1042 d827 e541 53c7 dc41 750f 02c0
00000190: c7db 1e42 544e 1e42 1288 8b3d 747f b9bd
000001a0: b8a4 3a42 2090 14bd 5064 a541 1146 0242
000001b0: 6a4c b7bd 6c91 bc41 33ec 0942 5d3b b341
000001c0: 0064 0642 9c7a c141 1999 d241 ec29 623d
000001d0: 5ced 833d 10e9 043c b9a7 ce41 8567 fb41
000001e0: b264 2341 5809 d2bd 13b0 8541 c09b 0c3e
000001f0: 3578 3142 04cf 0542 6dbb fa41 083b 133e

weight f4 [64, 128]
0.024828278 -0.054666128 -0.079906896 -3.7824256 0.8280846 7.49772 5.065132 -0.039781176
0.10908819 0.07174405 10.861887 0.05877345 0.23531482 0.04925751 2.210347 1.5034963
-2.5668967 0.045026414 -0.07723093 0.02873844 0.07148751 -0.06331985 0.13786858 0.020943768
0.0074139237 -1.2314574 1.2181659 -3.8411193 -0.03774988 -0.045321748 -0.07652181 -0.021600284
-0.32843938 -0.03215248 -0.8915158 -0.06744588 1.0130931 -3.1813564 -2.6644847 -14.405922
0.31070936 3.8403943 0.92325395 -0.13924928 -2.060401 -2.8130784 0.05755252 -0.04688034
0.6971205 -0.67719245 -0.23579307 -1.3862681 -3.060495 1.1193149 -0.037674572 -6.508963
-1.0294057 -0.068143435 -2.4133549 0.16111542 0.039134644 0.011816889 -0.037106864 0.42838857
17.417727 -0.9475756 1.2720065 0.061920382 -0.41842616 1.0224321 -0.9196734 -1.6009858
1.2517319 -0.68558127 -0.64301664 -2.8068776 0.4059106 1.6865689 0.03166482 -0.008168839
0.43424508 -2.2001495 1.9052824 1.1543037 -1.8498706 5.019353 -5.493176 -0.043027874
-4.5594516 0.028973274 0.71594334 0.9784213 -0.22480471 0.012714326 -0.43607834 2.2967117
10.664515 -1.3768909 -13.90453 -0.36513573 -1.142983 0.21861988 0.04738473 0.07544374
-5.4219327 -0.055588786 -0.2741995 -0.56614155 -0.05984804 0.12443167 1.1975658 -0.233735
-0.11613001 0.65228474 -1.7506689 -0.088021286 0.010293722 0.07952308 -0.6108414 0.8695181
-2.161868 -0.0100827515 0.53475064 -0.0012664199 -10.427653 -2.54783 3.1624033 -0.043782495
-0.06536713 -0.034160886 -0.047328696 -0.14683644 -0.07015937 -0.027160445 -0.06463071 -0.07818755
-0.0947609 -0.070156544 -0.014582143 -0.06321496 -0.0218936 -0.063439585 -0.025786947 -0.09438449
-0.023052923 -0.013436437 -0.018477201 0.04646597 0.01323586 0.04107391 -0.014923364 -0.12567429
0.08381469 -0.038092494 -0.013244433 -0.1032796 -0.049948376 0.020589896 0.014171466 0.065620326
-0.14688657 0.06499215 -0.30007172 -0.024075655 0.028013121 -0.07527783 0.013263066 -0.3711055
-0.0624846 -0.092135765 -0.05664551 -0.08266215 -0.0044793193 -0.05657627 0.0032499477 0.04343628
-0.07292897 -0.075344525 -0.13989788 -0.417526 -0.025909914 -0.0003083275 0.047452666 -0.07510319
-0.056615457 -0.019001573 -0.00646188 -0.07250306 0.005212471 -0.04898827 -0.015187964 -0.06711788
-0.015585089 0.012581857 -0.14110476 -0.038914196 -0.023436578 -0.09570418 -0.078341335 -0.012572996
-0.048098363 -0.03088604 -0.032479983 -0.120793834 0.027918588 -0.0591269 0.0018901676 0.06565014
-0.011659822 -0.052178398 -0.071823165 -0.10461885 -0.0017915176 -0.12016901 0.019988053 -0.0073134676
-0.1314185 -0.05737127 -0.08549668 -0.4559298 -0.036877465 0.04097592 -0.081596844 -0.05460275
-0.067876495 -0.017051771 -0.096111484 -0.019900871 -0.38952145 -0.1374681 -0.041531608 0.007318273
-0.14170498 0.058898233 -0.103164434 -0.07379051 0.0697191 0.008070733 -0.015583966 -0.04252638
0.010071802 -0.10800006 -0.08218256 0.08753771 0.07394687 0.04851129 -0.021051135 -0.045476034
-0.010518957 0.08143864 -0.12007458 0.06389468 -0.00862592 -0.093143456 -0.0237625 0.03785079
00000000: ac64 cb3c 97e9 5fbd 3aa6 a3bd 4313 72c0
00000010: 5afd 533f 52ed ef40 9015 a240 96f1 22bd
00000020: a169 df3d 8bee 923d 4aca 2d41 6ebc 703d
00000030: 5ef6 703e 3ec2 493d 5376 0d40 9172 c03f
00000040: 0948 24c0 9e6d 383d 402b 9ebd e06c eb3c
00000050: 0b68 923d d6ad 81bd 6c2d 0d3e 4492 ab3c
00000060: 80f0 f23b 65a0 9dbf dcec 9b3f e6d4 75c0
00000070: 9e9f 1abd 4ca3 39bd 77b7 9cbd 14f3 b0bc
00000080: 3529 a8be 52b2 03bd 613a 64bf 1121 8abd
00000090: 09ad 813f 589b 4bc0 eb86 2ac0 a87e 66c1
000000a0: 4c15 9f3e 05c9 7540 5f5a 6c3f 5d97 0ebe
000000b0: 9cdd 03c0 7a09 34c0 31bc 6b3d 9905 40bd
000000c0: 7d76 323f 7c5c 2dbf bd73 71be 3c71 b1bf
000000d0: 26df 43c0 b645 8f3f a750 1abd 6d49 d0c0
000000e0: 91c3 83bf c98e 8bbd 6874 1ac0 71fb 243e
000000f0: a64b 203d a09b 413c 5efd 17bd bf55 db3e
00000100: 8157 8b41 5194 72bf 1cd1 a23f 3aa0 7d3d
00000110: f43b d6be 0edf 823f b76f 6bbf 1aed ccbf
00000120: c038 a03f 4182 2fbf bd9c 24bf e2a3 33c0
00000130: 84d3 cf3e 7de1 d73f f8b2 013d 98d6 05bc
00000140: 5f55 de3e 40cf 0cc0 4be0 f33f 39c0 933f
00000150: 8fc8 ecbf 8a9e a040 19c8 afc0 ff3d 30bd
00000160: 07e7 91c0 5c59 ed3c 1048 373f d179 7a3f
00000170: 3533 66be c04f 503c a945 dfbe 53fd 1240
00000180: daa1 2a41 f63d b0bf f478 5ec1 12f3 babe
00000190: 444d 92bf e4dd 5f3e 7e16 423d 3f82 9a3d
000001a0: 7980 adc0 11b1 63bd e063 8cbe a7ee 10bf
000001b0: 3823 75bd 08d6 fe3d d649 993f 3a58 6fbe
000001c0: 92d5 edbd 22fc 263f eb15 e0bf 8144 b4bd
000001d0: 00a7 283c ffdc a23d 1a60 1cbf bd98 5e3f
000001e0: 0c5c 0ac0 2032 25bc 6be5 083f 00fe a5ba
000001f0: abd7 26c1 a60f 23c0 d164 4a40 4655 33bd
00000200: 34df 85bd 49ec 0bbd bcdb 41bd 4b5c 16be
00000210: b7af 8fbd 957f debc 1b5d 84bd cb20 a0bd
00000220: 0112 c2bd 3cae 8fbd f1e9 6ebc d876 81bd
00000230: 355a b3bc 9dec 81bd 263f d3bc a84c c1bd
00000240: 7cd9 bcbc 8024 5cbc 805d 97bc 1a53 3e3d
00000250: 38db 583c 1e3d 283d 2081 74bc c3b0 00be
00000260: 09a7 ab3d e006 1cbd 2eff 58bc 4184 d3bd
00000270: ab96 4cbd 24ac a83c 702f 683c f363 863d
00000280: 6f69 16be 9b1a 853d 00a3 99be 4f3a c5bc
00000290: c67b e53c 432b 9abd 554d 593c 8a01 bebe
000002a0: daef 7fbd adb1 bcbd 1f05 68bd c64a a9bd
000002b0: 41c7 92bb 85bc 67bd 13fd 543b 3eea 313d
000002c0: c95b 95bd 3b4e 9abd 6441 0fbe f8c5 d5be
000002d0: 0741 d4bc 04a7 a1b9 ba5d 423d b4cf 99bd
000002e0: 9ce5 67bd 30a9 9bbc 2ebe d3bb 7c7c 94bd
000002f0: 60cd aa3b eda7 48bd f0d6 78bc 1975 89bd
00000300: 9a58 7fbc 2224 4e3c c47d 10be 7e64 1fbd
00000310: 11fe bfbc 8e00 c4bd 6c71 a0bd f8fe 4dbc
00000320: ca02 45bd b804 fdbc bb09 05bd c262 f7bd
00000330: 86b5 e43c 0c2f 72bd 80bf f73a 9573 863d
00000340: d708 3fbc 04b9 55bd 0618 93bd 6842 d6bd
00000350: 5bd1 eaba 2b1b f6bd fcbd a33c d0a5 efbb
00000360: 9292 06be 23fe 6abd e218 afbd a16f e9be
00000370: d30c 17bd 5ed6 273d 3f1c a7bd 22a7 5fbd
00000380: d502 8bbd 28b0 8bbc 19d6 c4bd 2707 a3bc
00000390: 5b6f c7be 70c4 0cbe 0c1d 2abd 20ce ef3b
000003a0: 1c1b 11be 463f 713d e047 d3bd 7b1f 97bd
000003b0: e3c8 8e3d 1c3b 043c e453 7fbc 2430 2ebd
000003c0: 3304 253c 232f ddbd 544f a8bd f946 b33d
000003d0: 7571 973d c6b3 463d 6e73 acbc 1445 3abd
000003e0: b457 2cbc 4dc9 a63d a9e9 f5bd 37db 823d
000003f0: bb53 0dbc ffc1 bebd 93a9 c2bc 6e09 1b3d

bias f4 [64]
43.421806 -0.3039166 -0.052355595 -0.32503444 -0.5101383 -0.41622278 -0.21325533 -0.3644033
-9.922905 35.819973 -0.16584738 -0.09317845 -0.061864607 48.4592 55.266735 -0.08099295
-0.43412772 52.377373 -0.062353715 55.297527 -0.06237263 0.025457159 55.033146 -0.72495925
55.166603 -0.3634507 -0.14799231 49.254944 -0.3519761 -0.067009196 55.25803 55.116966
54.722042 -0.19942215 55.341496 -0.46348944 -0.05276903 55.10033 -64.910645 -0.32300636
-0.37688687 -0.31088546 -0.5282921 -0.05031917 0.030876242 -0.41239116 -0.12378808 -0.2336958
-0.4802969 51.1181 54.8819 -0.057830423 -0.044538952 54.82021 -0.18063213 60.975235
54.885166 -0.35861567 -0.11602148 -0.8389423 -0.19282852 -0.052306373 -0.08702853 -0.07345586
00000000: eeaf 2d42 f59a 9bbe d272 56bd ea6a a6be
00000010: 6c98 02bf 271b d5be 9b5f 5abe 1293 babe
00000020: 38c4 1ec1 a747 0f42 e5d3 29be 58d4 bebd
00000030: be65 7dbd 39d6 4142 2311 5d42 a2df a5bd
00000040: fd45 debe 6e82 5142 9c66 7fbd ab30 5d42
00000050: 717a 7fbd 888b d03c f121 5c42 ee96 39bf
00000060: 9aaa 5c42 3616 babe 4c8b 17be 1005 4542
00000070: 3636 b4be 1e3c 89bd 3908 5d42 c677 5c42
00000080: 5fe3 5a42 5235 4cbe b15d 5d42 7d4e edbe
00000090: 5724 58bd bd66 5c42 40d2 81c2 1761 a5be
000000a0: 51f7 c0be 612c 9fbe 273e 07bf 791b 4ebd
000000b0: 2cf0 fc3c ef24 d3be 9b84 fdbd f44d 6fbe
000000c0: 7ae9 f5be ef78 4c42 1187 5b42 98df 6cbd
000000d0: 7a6e 36bd e547 5b42 a1f7 38be a4e6 7342
000000e0: 698a 5b42 799c b7be ab9c edbd ecc4 56bf
000000f0: d774 45be 353f 56bd 043c b2bd 0770 96bd

weight f4 [1, 64]
-1.9516177 -0.27760583 0.004384537 -0.32531253 -0.1571371 0.25413764 -0.31414574 0.2558694
-5.7962303 4.5075574 0.003329342 -0.023787381 -0.03111686 2.3975875 1.1012659 -0.01470925
-0.17882009 0.025546033 -0.010053712 1.4789168 -0.019135596 0.00024037278 0.81274325 0.2590149
0.99936366 0.20344019 0.021988664 -2.0107772 -0.2714843 -0.22877593 0.9345463 0.9989042
0.64696246 0.22204794 1.3273555 0.033949733 0.02162886 0.8254998 -3.1890588 0.010161829
0.0778192 -0.2722077 0.15856738 0.033260275 -0.0055074724 -0.30704692 -0.0440459 -0.16747491
-0.08390409 -2.5522692 0.64803994 -0.034432236 -0.060353056 0.37244615 0.05504271 1.6874213
0.5713176 -0.29123607 -0.06295059 0.08559925 0.14462 0.045587778 -0.03106493 -0.010573289
00000000: 9cce f9bf 5a22 8ebe 2aac 8f3b 5d8f a6be
00000010: 8ce8 20be 541e 823e b6d7 a0be 5001 833e
00000020: b87a b9c0 e93d 9040 1731 5a3b c1dd c2bc
00000030: c9e8 febc 1372 1940 48f6 8c3f 11ff 70bc
00000040: 9d1c 37be ea45 d13c 53b8 24bc 254d bd3f
00000050: 41c2 9cbc 940c 7c39 f10f 503f 9a9d 843e
00000060: 4cd6 7f3f a052 503e 9221 b43c 93b0 00c0
00000070: fdff 8abe 3d44 6abe 6d3e 6f3f 30b8 7f3f
00000080: 559f 253f 8960 633e c9e6 a93f e00e 0b3d
00000090: 022f b13c f453 533f 8a19 4cc0 cd7d 263c
000000a0: ac5f 9f3d cf5e 8bbe 7d5f 223e ed3b 083d
000000b0: 0778 b4bb 4135 9dbe 7969 34bd 8b7e 2bbe
000000c0: e8d5 abbd 6158 23c0 f2e5 253f d108 0dbd
000000d0: c434 77bd 43b1 be3e 7774 613d 6cfd d73f
000000e0: df41 123f e51c 95be 3dec 80bd a94e af3d
000000f0: 4417 143e 40ba 3a3d e17b febc 973b 2dbc
